…
I0613 14:07:26.268936   341 net.cpp:323] The NetState phase (0) differed from the phase (1) specified by a rule in layer accuracy/top5
I0613 14:07:26.269276   341 net.cpp:52] Initializing net from parameters: 
name: "VGG_ILSVRC_16_layer"
state {
  phase: TRAIN
}
layer {
  name: "data"
  type: "Data"
  top: "data"
  top: "label"
  include {
    phase: TRAIN
  }
  transform_param {
    mirror: true
    crop_size: 224
    mean_value: 104
    mean_value: 117
    mean_value: 124
  }
  data_param {
    source: "/home/wenxizhu/wenxi/internal-intel-caffe/examples/imagenet/ilsvrc12_train_lmdb"
    batch_size: 64
    backend: LMDB
  }
}
layer {
  name: "conv1_1"
  type: "Convolution"
  bottom: "data"
  top: "conv1_1"
  convolution_param {
    num_output: 64
    pad: 1
    kernel_size: 3
    weight_filler {
      type: "xavier"
    }
    bias_filler {
      type: "constant"
      value: 0
    }
  }
}
layer {
  name: "relu1_1"
  type: "ReLU"
  bottom: "conv1_1"
  top: "conv1_1"
  relu_param {
  }
}
layer {
  name: "conv1_2"
  type: "Convolution"
  bottom: "conv1_1"
  top: "conv1_2"
  convolution_param {
    num_output: 64
    pad: 1
    kernel_size: 3
    weight_filler {
      type: "xavier"
    }
    bias_filler {
      type: "constant"
      value: 0
    }
  }
}
layer {
  name: "relu1_2"
  type: "ReLU"
  bottom: "conv1_2"
  top: "conv1_2"
  relu_param {
  }
}
layer {
  name: "pool1"
  type: "Pooling"
  bottom: "conv1_2"
  top: "pool1"
  pooling_param {
    pool: MAX
    kernel_size: 2
    stride: 2
  }
}
layer {
  name: "conv2_1"
  type: "Convolution"
  bottom: "pool1"
  top: "conv2_1"
  convolution_param {
    num_output: 128
    pad: 1
    kernel_size: 3
    weight_filler {
      type: "xavier"
    }
    bias_filler {
      type: "constant"
      value: 0
    }
  }
}
layer {
  name: "relu2_1"
  type: "ReLU"
  bottom: "conv2_1"
  top: "conv2_1"
  relu_param {
  }
}
layer {
  name: "conv2_2"
  type: "Convolution"
  bottom: "conv2_1"
  top: "conv2_2"
  convolution_param {
    num_output: 128
    pad: 1
    kernel_size: 3
    weight_filler {
      type: "xavier"
    }
    bias_filler {
      type: "constant"
      value: 0
    }
  }
}
layer {
  name: "relu2_2"
  type: "ReLU"
  bottom: "conv2_2"
  top: "conv2_2"
  relu_param {
  }
}
layer {
  name: "pool2"
  type: "Pooling"
  bottom: "conv2_2"
  top: "pool2"
  pooling_param {
    pool: MAX
    kernel_size: 2
    stride: 2
  }
}
layer {
  name: "conv3_1"
  type: "Convolution"
  bottom: "pool2"
  top: "conv3_1"
  convolution_param {
    num_output: 256
    pad: 1
    kernel_size: 3
    weight_filler {
      type: "xavier"
    }
    bias_filler {
      type: "constant"
      value: 0
    }
  }
}
layer {
  name: "relu3_1"
  type: "ReLU"
  bottom: "conv3_1"
  top: "conv3_1"
  relu_param {
  }
}
layer {
  name: "conv3_2"
  type: "Convolution"
  bottom: "conv3_1"
  top: "conv3_2"
  convolution_param {
    num_output: 256
    pad: 1
    kernel_size: 3
    weight_filler {
      type: "xavier"
    }
    bias_filler {
      type: "constant"
      value: 0
    }
  }
}
layer {
  name: "relu3_2"
  type: "ReLU"
  bottom: "conv3_2"
  top: "conv3_2"
  relu_param {
  }
}
layer {
  name: "conv3_3"
  type: "Convolution"
  bottom: "conv3_2"
  top: "conv3_3"
  convolution_param {
    num_output: 256
    pad: 1
    kernel_size: 3
    weight_filler {
      type: "xavier"
    }
    bias_filler {
      type: "constant"
      value: 0
    }
  }
}
layer {
  name: "relu3_3"
  type: "ReLU"
  bottom: "conv3_3"
  top: "conv3_3"
  relu_param {
  }
}
layer {
  name: "pool3"
  type: "Pooling"
  bottom: "conv3_3"
  top: "pool3"
  pooling_param {
    pool: MAX
    kernel_size: 2
    stride: 2
  }
}
layer {
  name: "conv4_1"
  type: "Convolution"
  bottom: "pool3"
  top: "conv4_1"
  convolution_param {
    num_output: 512
    pad: 1
    kernel_size: 3
    weight_filler {
      type: "xavier"
    }
    bias_filler {
      type: "constant"
      value: 0
    }
  }
}
layer {
  name: "relu4_1"
  type: "ReLU"
  bottom: "conv4_1"
  top: "conv4_1"
  relu_param {
  }
}
layer {
  name: "conv4_2"
  type: "Convolution"
  bottom: "conv4_1"
  top: "conv4_2"
  convolution_param {
    num_output: 512
    pad: 1
    kernel_size: 3
    weight_filler {
      type: "xavier"
    }
    bias_filler {
      type: "constant"
      value: 0
    }
  }
}
layer {
  name: "relu4_2"
  type: "ReLU"
  bottom: "conv4_2"
  top: "conv4_2"
  relu_param {
  }
}
layer {
  name: "conv4_3"
  type: "Convolution"
  bottom: "conv4_2"
  top: "conv4_3"
  convolution_param {
    num_output: 512
    pad: 1
    kernel_size: 3
    weight_filler {
      type: "xavier"
    }
    bias_filler {
      type: "constant"
      value: 0
    }
  }
}
layer {
  name: "relu4_3"
  type: "ReLU"
  bottom: "conv4_3"
  top: "conv4_3"
  relu_param {
  }
}
layer {
  name: "pool4"
  type: "Pooling"
  bottom: "conv4_3"
  top: "pool4"
  pooling_param {
    pool: MAX
    kernel_size: 2
    stride: 2
  }
}
layer {
  name: "conv5_1"
  type: "Convolution"
  bottom: "pool4"
  top: "conv5_1"
  convolution_param {
    num_output: 512
    pad: 1
    kernel_size: 3
    weight_filler {
      type: "xavier"
    }
    bias_filler {
      type: "constant"
      value: 0
    }
  }
}
layer {
  name: "relu5_1"
  type: "ReLU"
  bottom: "conv5_1"
  top: "conv5_1"
  relu_param {
  }
}
layer {
  name: "conv5_2"
  type: "Convolution"
  bottom: "conv5_1"
  top: "conv5_2"
  convolution_param {
    num_output: 512
    pad: 1
    kernel_size: 3
    weight_filler {
      type: "xavier"
    }
    bias_filler {
      type: "constant"
      value: 0
    }
  }
}
layer {
  name: "relu5_2"
  type: "ReLU"
  bottom: "conv5_2"
  top: "conv5_2"
  relu_param {
  }
}
layer {
  name: "conv5_3"
  type: "Convolution"
  bottom: "conv5_2"
  top: "conv5_3"
  convolution_param {
    num_output: 512
    pad: 1
    kernel_size: 3
    weight_filler {
      type: "xavier"
    }
    bias_filler {
      type: "constant"
      value: 0
    }
  }
}
layer {
  name: "relu5_3"
  type: "ReLU"
  bottom: "conv5_3"
  top: "conv5_3"
  relu_param {
  }
}
layer {
  name: "pool5"
  type: "Pooling"
  bottom: "conv5_3"
  top: "pool5"
  pooling_param {
    pool: MAX
    kernel_size: 2
    stride: 2
  }
}
layer {
  name: "fc6"
  type: "InnerProduct"
  bottom: "pool5"
  top: "fc6"
  inner_product_param {
    num_output: 4096
    weight_filler {
      type: "xavier"
    }
    bias_filler {
      type: "constant"
      value: 0.1
    }
  }
}
layer {
  name: "relu6"
  type: "ReLU"
  bottom: "fc6"
  top: "fc6"
  relu_param {
  }
}
layer {
  name: "drop6"
  type: "Dropout"
  bottom: "fc6"
  top: "fc6"
  dropout_param {
    dropout_ratio: 0.5
  }
}
layer {
  name: "fc7"
  type: "InnerProduct"
  bottom: "fc6"
  top: "fc7"
  inner_product_param {
    num_output: 4096
    weight_filler {
      type: "xavier"
    }
    bias_filler {
      type: "constant"
      value: 0.1
    }
  }
}
layer {
  name: "relu7"
  type: "ReLU"
  bottom: "fc7"
  top: "fc7"
  relu_param {
  }
}
layer {
  name: "drop7"
  type: "Dropout"
  bottom: "fc7"
  top: "fc7"
  dropout_param {
    dropout_ratio: 0.5
  }
}
layer {
  name: "fc8"
  type: "InnerProduct"
  bottom: "fc7"
  top: "fc8"
  inner_product_param {
    num_output: 1000
    weight_filler {
      type: "xavier"
    }
    bias_filler {
      type: "constant"
      value: 0.1
    }
  }
}
layer {
  name: "loss"
  type: "SoftmaxWithLoss"
  bottom: "fc8"
  bottom: "label"
  top: "loss/loss"
}
I0613 14:07:26.269526   341 layer_factory.hpp:77] Creating layer data
I0613 14:07:26.277690   341 net.cpp:94] Creating Layer data
I0613 14:07:26.277724   341 net.cpp:409] data -> data
I0613 14:07:26.277777   341 net.cpp:409] data -> label
I0613 14:07:26.279214   357 db_lmdb.cpp:35] Opened lmdb /home/wenxizhu/wenxi/internal-intel-caffe/examples/imagenet/ilsvrc12_train_lmdb
I0613 14:07:26.283183   341 data_layer.cpp:76] output data size: 64,3,224,224
I0613 14:07:26.378487   341 net.cpp:144] Setting up data
I0613 14:07:26.378593   341 net.cpp:151] Top shape: 64 3 224 224 (9633792)
I0613 14:07:26.378605   341 net.cpp:151] Top shape: 64 (64)
I0613 14:07:26.378610   341 net.cpp:159] Memory required for data: 38535424
I0613 14:07:26.378626   341 layer_factory.hpp:77] Creating layer conv1_1
I0613 14:07:26.378665   341 net.cpp:94] Creating Layer conv1_1
I0613 14:07:26.378677   341 net.cpp:435] conv1_1 <- data
I0613 14:07:26.378700   341 net.cpp:409] conv1_1 -> conv1_1
I0613 14:07:26.509160   341 net.cpp:144] Setting up conv1_1
I0613 14:07:26.509251   341 net.cpp:151] Top shape: 64 64 224 224 (205520896)
I0613 14:07:26.509258   341 net.cpp:159] Memory required for data: 860619008
I0613 14:07:26.509305   341 layer_factory.hpp:77] Creating layer relu1_1
I0613 14:07:26.509330   341 net.cpp:94] Creating Layer relu1_1
I0613 14:07:26.509341   341 net.cpp:435] relu1_1 <- conv1_1
I0613 14:07:26.509351   341 net.cpp:396] relu1_1 -> conv1_1 (in-place)
I0613 14:07:26.509389   341 net.cpp:144] Setting up relu1_1
I0613 14:07:26.509399   341 net.cpp:151] Top shape: 64 64 224 224 (205520896)
I0613 14:07:26.509407   341 net.cpp:159] Memory required for data: 1682702592
I0613 14:07:26.509413   341 layer_factory.hpp:77] Creating layer conv1_2
I0613 14:07:26.509433   341 net.cpp:94] Creating Layer conv1_2
I0613 14:07:26.509439   341 net.cpp:435] conv1_2 <- conv1_1
I0613 14:07:26.509450   341 net.cpp:409] conv1_2 -> conv1_2
I0613 14:07:27.107329   341 net.cpp:144] Setting up conv1_2
I0613 14:07:27.107367   341 net.cpp:151] Top shape: 64 64 224 224 (205520896)
I0613 14:07:27.107375   341 net.cpp:159] Memory required for data: 2504786176
I0613 14:07:27.107399   341 layer_factory.hpp:77] Creating layer relu1_2
I0613 14:07:27.107419   341 net.cpp:94] Creating Layer relu1_2
I0613 14:07:27.107429   341 net.cpp:435] relu1_2 <- conv1_2
I0613 14:07:27.107445   341 net.cpp:396] relu1_2 -> conv1_2 (in-place)
I0613 14:07:27.107465   341 net.cpp:144] Setting up relu1_2
I0613 14:07:27.107488   341 net.cpp:151] Top shape: 64 64 224 224 (205520896)
I0613 14:07:27.107494   341 net.cpp:159] Memory required for data: 3326869760
I0613 14:07:27.107501   341 layer_factory.hpp:77] Creating layer pool1
I0613 14:07:27.107527   341 net.cpp:94] Creating Layer pool1
I0613 14:07:27.107537   341 net.cpp:435] pool1 <- conv1_2
I0613 14:07:27.107547   341 net.cpp:409] pool1 -> pool1
I0613 14:07:27.107658   341 net.cpp:144] Setting up pool1
I0613 14:07:27.107673   341 net.cpp:151] Top shape: 64 64 112 112 (51380224)
I0613 14:07:27.107681   341 net.cpp:159] Memory required for data: 3532390656
I0613 14:07:27.107687   341 layer_factory.hpp:77] Creating layer conv2_1
I0613 14:07:27.107709   341 net.cpp:94] Creating Layer conv2_1
I0613 14:07:27.107718   341 net.cpp:435] conv2_1 <- pool1
I0613 14:07:27.107731   341 net.cpp:409] conv2_1 -> conv2_1
I0613 14:07:27.335640   341 net.cpp:144] Setting up conv2_1
I0613 14:07:27.335688   341 net.cpp:151] Top shape: 64 128 112 112 (102760448)
I0613 14:07:27.335696   341 net.cpp:159] Memory required for data: 3943432448
I0613 14:07:27.335716   341 layer_factory.hpp:77] Creating layer relu2_1
I0613 14:07:27.335731   341 net.cpp:94] Creating Layer relu2_1
I0613 14:07:27.335738   341 net.cpp:435] relu2_1 <- conv2_1
I0613 14:07:27.335752   341 net.cpp:396] relu2_1 -> conv2_1 (in-place)
I0613 14:07:27.335772   341 net.cpp:144] Setting up relu2_1
I0613 14:07:27.335782   341 net.cpp:151] Top shape: 64 128 112 112 (102760448)
I0613 14:07:27.335786   341 net.cpp:159] Memory required for data: 4354474240
I0613 14:07:27.335793   341 layer_factory.hpp:77] Creating layer conv2_2
I0613 14:07:27.335814   341 net.cpp:94] Creating Layer conv2_2
I0613 14:07:27.335821   341 net.cpp:435] conv2_2 <- conv2_1
I0613 14:07:27.335834   341 net.cpp:409] conv2_2 -> conv2_2
I0613 14:07:27.752620   341 net.cpp:144] Setting up conv2_2
I0613 14:07:27.752660   341 net.cpp:151] Top shape: 64 128 112 112 (102760448)
I0613 14:07:27.752668   341 net.cpp:159] Memory required for data: 4765516032
I0613 14:07:27.752686   341 layer_factory.hpp:77] Creating layer relu2_2
I0613 14:07:27.752774   341 net.cpp:94] Creating Layer relu2_2
I0613 14:07:27.752784   341 net.cpp:435] relu2_2 <- conv2_2
I0613 14:07:27.752796   341 net.cpp:396] relu2_2 -> conv2_2 (in-place)
I0613 14:07:27.752815   341 net.cpp:144] Setting up relu2_2
I0613 14:07:27.752825   341 net.cpp:151] Top shape: 64 128 112 112 (102760448)
I0613 14:07:27.752836   341 net.cpp:159] Memory required for data: 5176557824
I0613 14:07:27.752843   341 layer_factory.hpp:77] Creating layer pool2
I0613 14:07:27.752856   341 net.cpp:94] Creating Layer pool2
I0613 14:07:27.752866   341 net.cpp:435] pool2 <- conv2_2
I0613 14:07:27.752876   341 net.cpp:409] pool2 -> pool2
I0613 14:07:27.752977   341 net.cpp:144] Setting up pool2
I0613 14:07:27.752992   341 net.cpp:151] Top shape: 64 128 56 56 (25690112)
I0613 14:07:27.753002   341 net.cpp:159] Memory required for data: 5279318272
I0613 14:07:27.753010   341 layer_factory.hpp:77] Creating layer conv3_1
I0613 14:07:27.753031   341 net.cpp:94] Creating Layer conv3_1
I0613 14:07:27.753042   341 net.cpp:435] conv3_1 <- pool2
I0613 14:07:27.753053   341 net.cpp:409] conv3_1 -> conv3_1
I0613 14:07:27.957536   341 net.cpp:144] Setting up conv3_1
I0613 14:07:27.957576   341 net.cpp:151] Top shape: 64 256 56 56 (51380224)
I0613 14:07:27.957584   341 net.cpp:159] Memory required for data: 5484839168
I0613 14:07:27.957609   341 layer_factory.hpp:77] Creating layer relu3_1
I0613 14:07:27.957628   341 net.cpp:94] Creating Layer relu3_1
I0613 14:07:27.957643   341 net.cpp:435] relu3_1 <- conv3_1
I0613 14:07:27.957656   341 net.cpp:396] relu3_1 -> conv3_1 (in-place)
I0613 14:07:27.957676   341 net.cpp:144] Setting up relu3_1
I0613 14:07:27.957687   341 net.cpp:151] Top shape: 64 256 56 56 (51380224)
I0613 14:07:27.957695   341 net.cpp:159] Memory required for data: 5690360064
I0613 14:07:27.957701   341 layer_factory.hpp:77] Creating layer conv3_2
I0613 14:07:27.957725   341 net.cpp:94] Creating Layer conv3_2
I0613 14:07:27.957737   341 net.cpp:435] conv3_2 <- conv3_1
I0613 14:07:27.957751   341 net.cpp:409] conv3_2 -> conv3_2
I0613 14:07:28.348635   341 net.cpp:144] Setting up conv3_2
I0613 14:07:28.348672   341 net.cpp:151] Top shape: 64 256 56 56 (51380224)
I0613 14:07:28.348682   341 net.cpp:159] Memory required for data: 5895880960
I0613 14:07:28.348700   341 layer_factory.hpp:77] Creating layer relu3_2
I0613 14:07:28.348716   341 net.cpp:94] Creating Layer relu3_2
I0613 14:07:28.348726   341 net.cpp:435] relu3_2 <- conv3_2
I0613 14:07:28.348739   341 net.cpp:396] relu3_2 -> conv3_2 (in-place)
I0613 14:07:28.348763   341 net.cpp:144] Setting up relu3_2
I0613 14:07:28.348774   341 net.cpp:151] Top shape: 64 256 56 56 (51380224)
I0613 14:07:28.348781   341 net.cpp:159] Memory required for data: 6101401856
I0613 14:07:28.348788   341 layer_factory.hpp:77] Creating layer conv3_3
I0613 14:07:28.348810   341 net.cpp:94] Creating Layer conv3_3
I0613 14:07:28.348821   341 net.cpp:435] conv3_3 <- conv3_2
I0613 14:07:28.348836   341 net.cpp:409] conv3_3 -> conv3_3
I0613 14:07:28.736364   341 net.cpp:144] Setting up conv3_3
I0613 14:07:28.736402   341 net.cpp:151] Top shape: 64 256 56 56 (51380224)
I0613 14:07:28.736412   341 net.cpp:159] Memory required for data: 6306922752
I0613 14:07:28.736429   341 layer_factory.hpp:77] Creating layer relu3_3
I0613 14:07:28.736450   341 net.cpp:94] Creating Layer relu3_3
I0613 14:07:28.736460   341 net.cpp:435] relu3_3 <- conv3_3
I0613 14:07:28.736474   341 net.cpp:396] relu3_3 -> conv3_3 (in-place)
I0613 14:07:28.736498   341 net.cpp:144] Setting up relu3_3
I0613 14:07:28.736510   341 net.cpp:151] Top shape: 64 256 56 56 (51380224)
I0613 14:07:28.736515   341 net.cpp:159] Memory required for data: 6512443648
I0613 14:07:28.736524   341 layer_factory.hpp:77] Creating layer pool3
I0613 14:07:28.736539   341 net.cpp:94] Creating Layer pool3
I0613 14:07:28.736546   341 net.cpp:435] pool3 <- conv3_3
I0613 14:07:28.736558   341 net.cpp:409] pool3 -> pool3
I0613 14:07:28.736663   341 net.cpp:144] Setting up pool3
I0613 14:07:28.736680   341 net.cpp:151] Top shape: 64 256 28 28 (12845056)
I0613 14:07:28.736724   341 net.cpp:159] Memory required for data: 6563823872
I0613 14:07:28.736733   341 layer_factory.hpp:77] Creating layer conv4_1
I0613 14:07:28.736757   341 net.cpp:94] Creating Layer conv4_1
I0613 14:07:28.736768   341 net.cpp:435] conv4_1 <- pool3
I0613 14:07:28.736783   341 net.cpp:409] conv4_1 -> conv4_1
I0613 14:07:28.937839   341 net.cpp:144] Setting up conv4_1
I0613 14:07:28.937877   341 net.cpp:151] Top shape: 64 512 28 28 (25690112)
I0613 14:07:28.937886   341 net.cpp:159] Memory required for data: 6666584320
I0613 14:07:28.937903   341 layer_factory.hpp:77] Creating layer relu4_1
I0613 14:07:28.937921   341 net.cpp:94] Creating Layer relu4_1
I0613 14:07:28.937929   341 net.cpp:435] relu4_1 <- conv4_1
I0613 14:07:28.937942   341 net.cpp:396] relu4_1 -> conv4_1 (in-place)
I0613 14:07:28.937966   341 net.cpp:144] Setting up relu4_1
I0613 14:07:28.937978   341 net.cpp:151] Top shape: 64 512 28 28 (25690112)
I0613 14:07:28.937984   341 net.cpp:159] Memory required for data: 6769344768
I0613 14:07:28.937991   341 layer_factory.hpp:77] Creating layer conv4_2
I0613 14:07:28.938012   341 net.cpp:94] Creating Layer conv4_2
I0613 14:07:28.938020   341 net.cpp:435] conv4_2 <- conv4_1
I0613 14:07:28.938036   341 net.cpp:409] conv4_2 -> conv4_2
I0613 14:07:29.316581   341 net.cpp:144] Setting up conv4_2
I0613 14:07:29.316619   341 net.cpp:151] Top shape: 64 512 28 28 (25690112)
I0613 14:07:29.316627   341 net.cpp:159] Memory required for data: 6872105216
I0613 14:07:29.316653   341 layer_factory.hpp:77] Creating layer relu4_2
I0613 14:07:29.316669   341 net.cpp:94] Creating Layer relu4_2
I0613 14:07:29.316679   341 net.cpp:435] relu4_2 <- conv4_2
I0613 14:07:29.316696   341 net.cpp:396] relu4_2 -> conv4_2 (in-place)
I0613 14:07:29.316717   341 net.cpp:144] Setting up relu4_2
I0613 14:07:29.316727   341 net.cpp:151] Top shape: 64 512 28 28 (25690112)
I0613 14:07:29.316735   341 net.cpp:159] Memory required for data: 6974865664
I0613 14:07:29.316742   341 layer_factory.hpp:77] Creating layer conv4_3
I0613 14:07:29.316761   341 net.cpp:94] Creating Layer conv4_3
I0613 14:07:29.316774   341 net.cpp:435] conv4_3 <- conv4_2
I0613 14:07:29.316787   341 net.cpp:409] conv4_3 -> conv4_3
I0613 14:07:29.694579   341 net.cpp:144] Setting up conv4_3
I0613 14:07:29.694613   341 net.cpp:151] Top shape: 64 512 28 28 (25690112)
I0613 14:07:29.694622   341 net.cpp:159] Memory required for data: 7077626112
I0613 14:07:29.694635   341 layer_factory.hpp:77] Creating layer relu4_3
I0613 14:07:29.694649   341 net.cpp:94] Creating Layer relu4_3
I0613 14:07:29.694656   341 net.cpp:435] relu4_3 <- conv4_3
I0613 14:07:29.694669   341 net.cpp:396] relu4_3 -> conv4_3 (in-place)
I0613 14:07:29.694689   341 net.cpp:144] Setting up relu4_3
I0613 14:07:29.694699   341 net.cpp:151] Top shape: 64 512 28 28 (25690112)
I0613 14:07:29.694703   341 net.cpp:159] Memory required for data: 7180386560
I0613 14:07:29.694710   341 layer_factory.hpp:77] Creating layer pool4
I0613 14:07:29.694720   341 net.cpp:94] Creating Layer pool4
I0613 14:07:29.694727   341 net.cpp:435] pool4 <- conv4_3
I0613 14:07:29.694736   341 net.cpp:409] pool4 -> pool4
I0613 14:07:29.694825   341 net.cpp:144] Setting up pool4
I0613 14:07:29.694841   341 net.cpp:151] Top shape: 64 512 14 14 (6422528)
I0613 14:07:29.694847   341 net.cpp:159] Memory required for data: 7206076672
I0613 14:07:29.694854   341 layer_factory.hpp:77] Creating layer conv5_1
I0613 14:07:29.694874   341 net.cpp:94] Creating Layer conv5_1
I0613 14:07:29.694883   341 net.cpp:435] conv5_1 <- pool4
I0613 14:07:29.694895   341 net.cpp:409] conv5_1 -> conv5_1
I0613 14:07:29.832384   341 net.cpp:144] Setting up conv5_1
I0613 14:07:29.832424   341 net.cpp:151] Top shape: 64 512 14 14 (6422528)
I0613 14:07:29.832434   341 net.cpp:159] Memory required for data: 7231766784
I0613 14:07:29.832451   341 layer_factory.hpp:77] Creating layer relu5_1
I0613 14:07:29.832468   341 net.cpp:94] Creating Layer relu5_1
I0613 14:07:29.832476   341 net.cpp:435] relu5_1 <- conv5_1
I0613 14:07:29.832530   341 net.cpp:396] relu5_1 -> conv5_1 (in-place)
I0613 14:07:29.832558   341 net.cpp:144] Setting up relu5_1
I0613 14:07:29.832573   341 net.cpp:151] Top shape: 64 512 14 14 (6422528)
I0613 14:07:29.832581   341 net.cpp:159] Memory required for data: 7257456896
I0613 14:07:29.832587   341 layer_factory.hpp:77] Creating layer conv5_2
I0613 14:07:29.832609   341 net.cpp:94] Creating Layer conv5_2
I0613 14:07:29.832617   341 net.cpp:435] conv5_2 <- conv5_1
I0613 14:07:29.832631   341 net.cpp:409] conv5_2 -> conv5_2
I0613 14:07:29.970985   341 net.cpp:144] Setting up conv5_2
I0613 14:07:29.971024   341 net.cpp:151] Top shape: 64 512 14 14 (6422528)
I0613 14:07:29.971034   341 net.cpp:159] Memory required for data: 7283147008
I0613 14:07:29.971050   341 layer_factory.hpp:77] Creating layer relu5_2
I0613 14:07:29.971066   341 net.cpp:94] Creating Layer relu5_2
I0613 14:07:29.971076   341 net.cpp:435] relu5_2 <- conv5_2
I0613 14:07:29.971089   341 net.cpp:396] relu5_2 -> conv5_2 (in-place)
I0613 14:07:29.971113   341 net.cpp:144] Setting up relu5_2
I0613 14:07:29.971124   341 net.cpp:151] Top shape: 64 512 14 14 (6422528)
I0613 14:07:29.971130   341 net.cpp:159] Memory required for data: 7308837120
I0613 14:07:29.971138   341 layer_factory.hpp:77] Creating layer conv5_3
I0613 14:07:29.971158   341 net.cpp:94] Creating Layer conv5_3
I0613 14:07:29.971195   341 net.cpp:435] conv5_3 <- conv5_2
I0613 14:07:29.971213   341 net.cpp:409] conv5_3 -> conv5_3
I0613 14:07:30.109984   341 net.cpp:144] Setting up conv5_3
I0613 14:07:30.110023   341 net.cpp:151] Top shape: 64 512 14 14 (6422528)
I0613 14:07:30.110031   341 net.cpp:159] Memory required for data: 7334527232
I0613 14:07:30.110049   341 layer_factory.hpp:77] Creating layer relu5_3
I0613 14:07:30.110065   341 net.cpp:94] Creating Layer relu5_3
I0613 14:07:30.110074   341 net.cpp:435] relu5_3 <- conv5_3
I0613 14:07:30.110093   341 net.cpp:396] relu5_3 -> conv5_3 (in-place)
I0613 14:07:30.110113   341 net.cpp:144] Setting up relu5_3
I0613 14:07:30.110124   341 net.cpp:151] Top shape: 64 512 14 14 (6422528)
I0613 14:07:30.110131   341 net.cpp:159] Memory required for data: 7360217344
I0613 14:07:30.110138   341 layer_factory.hpp:77] Creating layer pool5
I0613 14:07:30.110152   341 net.cpp:94] Creating Layer pool5
I0613 14:07:30.110160   341 net.cpp:435] pool5 <- conv5_3
I0613 14:07:30.110198   341 net.cpp:409] pool5 -> pool5
I0613 14:07:30.110317   341 net.cpp:144] Setting up pool5
I0613 14:07:30.110335   341 net.cpp:151] Top shape: 64 512 7 7 (1605632)
I0613 14:07:30.110347   341 net.cpp:159] Memory required for data: 7366639872
I0613 14:07:30.110354   341 layer_factory.hpp:77] Creating layer fc6
I0613 14:07:30.110396   341 net.cpp:94] Creating Layer fc6
I0613 14:07:30.110409   341 net.cpp:435] fc6 <- pool5
I0613 14:07:30.110422   341 net.cpp:409] fc6 -> fc6
I0613 14:07:31.030170   341 net.cpp:144] Setting up fc6
I0613 14:07:31.030230   341 net.cpp:151] Top shape: 64 4096 (262144)
I0613 14:07:31.030236   341 net.cpp:159] Memory required for data: 7367688448
I0613 14:07:31.030256   341 layer_factory.hpp:77] Creating layer relu6
I0613 14:07:31.030278   341 net.cpp:94] Creating Layer relu6
I0613 14:07:31.030288   341 net.cpp:435] relu6 <- fc6
I0613 14:07:31.030299   341 net.cpp:396] relu6 -> fc6 (in-place)
I0613 14:07:31.030318   341 net.cpp:144] Setting up relu6
I0613 14:07:31.030326   341 net.cpp:151] Top shape: 64 4096 (262144)
I0613 14:07:31.030330   341 net.cpp:159] Memory required for data: 7368737024
I0613 14:07:31.030334   341 layer_factory.hpp:77] Creating layer drop6
I0613 14:07:31.030361   341 net.cpp:94] Creating Layer drop6
I0613 14:07:31.030366   341 net.cpp:435] drop6 <- fc6
I0613 14:07:31.030372   341 net.cpp:396] drop6 -> fc6 (in-place)
I0613 14:07:31.030431   341 net.cpp:144] Setting up drop6
I0613 14:07:31.030441   341 net.cpp:151] Top shape: 64 4096 (262144)
I0613 14:07:31.030447   341 net.cpp:159] Memory required for data: 7369785600
I0613 14:07:31.030450   341 layer_factory.hpp:77] Creating layer fc7
I0613 14:07:31.030462   341 net.cpp:94] Creating Layer fc7
I0613 14:07:31.030508   341 net.cpp:435] fc7 <- fc6
I0613 14:07:31.030517   341 net.cpp:409] fc7 -> fc7
I0613 14:07:31.134040   341 net.cpp:144] Setting up fc7
I0613 14:07:31.134080   341 net.cpp:151] Top shape: 64 4096 (262144)
I0613 14:07:31.134084   341 net.cpp:159] Memory required for data: 7370834176
I0613 14:07:31.134094   341 layer_factory.hpp:77] Creating layer relu7
I0613 14:07:31.134106   341 net.cpp:94] Creating Layer relu7
I0613 14:07:31.134111   341 net.cpp:435] relu7 <- fc7
I0613 14:07:31.134120   341 net.cpp:396] relu7 -> fc7 (in-place)
I0613 14:07:31.134135   341 net.cpp:144] Setting up relu7
I0613 14:07:31.134138   341 net.cpp:151] Top shape: 64 4096 (262144)
I0613 14:07:31.134140   341 net.cpp:159] Memory required for data: 7371882752
I0613 14:07:31.134143   341 layer_factory.hpp:77] Creating layer drop7
I0613 14:07:31.134150   341 net.cpp:94] Creating Layer drop7
I0613 14:07:31.134153   341 net.cpp:435] drop7 <- fc7
I0613 14:07:31.134157   341 net.cpp:396] drop7 -> fc7 (in-place)
I0613 14:07:31.134186   341 net.cpp:144] Setting up drop7
I0613 14:07:31.134191   341 net.cpp:151] Top shape: 64 4096 (262144)
I0613 14:07:31.134193   341 net.cpp:159] Memory required for data: 7372931328
I0613 14:07:31.134196   341 layer_factory.hpp:77] Creating layer fc8
I0613 14:07:31.134204   341 net.cpp:94] Creating Layer fc8
I0613 14:07:31.134207   341 net.cpp:435] fc8 <- fc7
I0613 14:07:31.134212   341 net.cpp:409] fc8 -> fc8
I0613 14:07:31.156790   341 net.cpp:144] Setting up fc8
I0613 14:07:31.156805   341 net.cpp:151] Top shape: 64 1000 (64000)
I0613 14:07:31.156808   341 net.cpp:159] Memory required for data: 7373187328
I0613 14:07:31.156816   341 layer_factory.hpp:77] Creating layer loss
I0613 14:07:31.156831   341 net.cpp:94] Creating Layer loss
I0613 14:07:31.156836   341 net.cpp:435] loss <- fc8
I0613 14:07:31.156841   341 net.cpp:435] loss <- label
I0613 14:07:31.156849   341 net.cpp:409] loss -> loss/loss
I0613 14:07:31.156875   341 layer_factory.hpp:77] Creating layer loss
…
