…
I0619 10:28:48.430692 198871 net.cpp:138] Initializing net from parameters: 
I0619 10:28:48.430826 198871 net.cpp:139] 
name: "ResNet-50"
state {
  phase: TRAIN
  level: 0
  stage: ""
}
engine: "MKL2017"
layer {
  name: "data"
  type: "Data"
  top: "data"
  top: "label"
  include {
    phase: TRAIN
  }
  transform_param {
    mirror: true
    crop_size: 224
    mean_file: "data/ilsvrc12/imagenet_mean.binaryproto"
  }
  data_param {
    source: "/home/wenxizhu/wenxi/internal-intel-caffe/examples/imagenet/ilsvrc12_train_lmdb"
    batch_size: 50
    backend: LMDB
    prefetch: 2
  }
}
layer {
  name: "conv1"
  type: "Convolution"
  bottom: "data"
  top: "conv1"
  convolution_param {
    num_output: 64
    pad: 3
    kernel_size: 7
    stride: 2
    weight_filler {
      type: "xavier"
    }
    bias_filler {
      type: "constant"
      value: 0.2
    }
  }
}
layer {
  name: "bn_conv1"
  type: "BatchNorm"
  bottom: "conv1"
  top: "conv1_x"
  batch_norm_param {
    bias_term: true
  }
}
layer {
  name: "conv1_relu"
  type: "ReLU"
  bottom: "conv1_x"
  top: "conv1_x"
  relu_param {
  }
}
layer {
  name: "pool1"
  type: "Pooling"
  bottom: "conv1_x"
  top: "pool1"
  pooling_param {
    pool: MAX
    kernel_size: 3
    stride: 2
  }
}
layer {
  name: "pool1_pool1_0_split"
  type: "Split"
  bottom: "pool1"
  top: "pool1_pool1_0_split_0"
  top: "pool1_pool1_0_split_1"
}
layer {
  name: "res2a_branch1"
  type: "Convolution"
  bottom: "pool1_pool1_0_split_0"
  top: "res2a_branch1"
  convolution_param {
    num_output: 256
    bias_term: false
    pad: 0
    kernel_size: 1
    stride: 1
    weight_filler {
      type: "xavier"
    }
    bias_filler {
      type: "constant"
      value: 0.2
    }
  }
}
layer {
  name: "bn2a_branch1"
  type: "BatchNorm"
  bottom: "res2a_branch1"
  top: "res2a_branch1_x"
  batch_norm_param {
    bias_term: true
  }
}
layer {
  name: "res2a_branch2a"
  type: "Convolution"
  bottom: "pool1_pool1_0_split_1"
  top: "res2a_branch2a"
  convolution_param {
    num_output: 64
    bias_term: false
    pad: 0
    kernel_size: 1
    stride: 1
    weight_filler {
      type: "xavier"
    }
    bias_filler {
      type: "constant"
      value: 0.2
    }
  }
}
layer {
  name: "bn2a_branch2a"
  type: "BatchNorm"
  bottom: "res2a_branch2a"
  top: "res2a_branch2a_x"
  batch_norm_param {
    bias_term: true
  }
}
layer {
  name: "res2a_branch2a_relu"
  type: "ReLU"
  bottom: "res2a_branch2a_x"
  top: "res2a_branch2a_x"
  relu_param {
  }
}
layer {
  name: "res2a_branch2b"
  type: "Convolution"
  bottom: "res2a_branch2a_x"
  top: "res2a_branch2b"
  convolution_param {
    num_output: 64
    bias_term: false
    pad: 1
    kernel_size: 3
    stride: 1
    weight_filler {
      type: "xavier"
    }
    bias_filler {
      type: "constant"
      value: 0.2
    }
  }
}
layer {
  name: "bn2a_branch2b"
  type: "BatchNorm"
  bottom: "res2a_branch2b"
  top: "res2a_branch2b_x"
  batch_norm_param {
    bias_term: true
  }
}
layer {
  name: "res2a_branch2b_relu"
  type: "ReLU"
  bottom: "res2a_branch2b_x"
  top: "res2a_branch2b_x"
  relu_param {
  }
}
layer {
  name: "res2a_branch2c"
  type: "Convolution"
  bottom: "res2a_branch2b_x"
  top: "res2a_branch2c"
  convolution_param {
    num_output: 256
    bias_term: false
    pad: 0
    kernel_size: 1
    stride: 1
    weight_filler {
      type: "xavier"
    }
    bias_filler {
      type: "constant"
      value: 0.2
    }
  }
}
layer {
  name: "bn2a_branch2c"
  type: "BatchNorm"
  bottom: "res2a_branch2c"
  top: "res2a_branch2c_x"
  batch_norm_param {
    bias_term: true
  }
}
layer {
  name: "res2a"
  type: "Eltwise"
  bottom: "res2a_branch1_x"
  bottom: "res2a_branch2c_x"
  top: "res2a"
  eltwise_param {
  }
}
layer {
  name: "res2a_relu"
  type: "ReLU"
  bottom: "res2a"
  top: "res2a"
  relu_param {
  }
}
layer {
  name: "res2a_res2a_relu_0_split"
  type: "Split"
  bottom: "res2a"
  top: "res2a_res2a_relu_0_split_0"
  top: "res2a_res2a_relu_0_split_1"
}
layer {
  name: "res2b_branch2a"
  type: "Convolution"
  bottom: "res2a_res2a_relu_0_split_0"
  top: "res2b_branch2a"
  convolution_param {
    num_output: 64
    bias_term: false
    pad: 0
    kernel_size: 1
    stride: 1
    weight_filler {
      type: "xavier"
    }
    bias_filler {
      type: "constant"
      value: 0.2
    }
  }
}
layer {
  name: "bn2b_branch2a"
  type: "BatchNorm"
  bottom: "res2b_branch2a"
  top: "res2b_branch2a_x"
  batch_norm_param {
    bias_term: true
  }
}
layer {
  name: "res2b_branch2a_relu"
  type: "ReLU"
  bottom: "res2b_branch2a_x"
  top: "res2b_branch2a_x"
  relu_param {
  }
}
layer {
  name: "res2b_branch2b"
  type: "Convolution"
  bottom: "res2b_branch2a_x"
  top: "res2b_branch2b"
  convolution_param {
    num_output: 64
    bias_term: false
    pad: 1
    kernel_size: 3
    stride: 1
    weight_filler {
      type: "xavier"
    }
    bias_filler {
      type: "constant"
      value: 0.2
    }
  }
}
layer {
  name: "bn2b_branch2b"
  type: "BatchNorm"
  bottom: "res2b_branch2b"
  top: "res2b_branch2b_x"
  batch_norm_param {
    bias_term: true
  }
}
layer {
  name: "res2b_branch2b_relu"
  type: "ReLU"
  bottom: "res2b_branch2b_x"
  top: "res2b_branch2b_x"
  relu_param {
  }
}
layer {
  name: "res2b_branch2c"
  type: "Convolution"
  bottom: "res2b_branch2b_x"
  top: "res2b_branch2c"
  convolution_param {
    num_output: 256
    bias_term: false
    pad: 0
    kernel_size: 1
    stride: 1
    weight_filler {
      type: "xavier"
    }
    bias_filler {
      type: "constant"
      value: 0.2
    }
  }
}
layer {
  name: "bn2b_branch2c"
  type: "BatchNorm"
  bottom: "res2b_branch2c"
  top: "res2b_branch2c_x"
  batch_norm_param {
    bias_term: true
  }
}
layer {
  name: "res2b"
  type: "Eltwise"
  bottom: "res2a_res2a_relu_0_split_1"
  bottom: "res2b_branch2c_x"
  top: "res2b"
  eltwise_param {
  }
}
layer {
  name: "res2b_relu"
  type: "ReLU"
  bottom: "res2b"
  top: "res2b"
  relu_param {
  }
}
layer {
  name: "res2b_res2b_relu_0_split"
  type: "Split"
  bottom: "res2b"
  top: "res2b_res2b_relu_0_split_0"
  top: "res2b_res2b_relu_0_split_1"
}
layer {
  name: "res2c_branch2a"
  type: "Convolution"
  bottom: "res2b_res2b_relu_0_split_0"
  top: "res2c_branch2a"
  convolution_param {
    num_output: 64
    bias_term: false
    pad: 0
    kernel_size: 1
    stride: 1
    weight_filler {
      type: "xavier"
    }
    bias_filler {
      type: "constant"
      value: 0.2
    }
  }
}
layer {
  name: "bn2c_branch2a"
  type: "BatchNorm"
  bottom: "res2c_branch2a"
  top: "res2c_branch2a_x"
  batch_norm_param {
    bias_term: true
  }
}
layer {
  name: "res2c_branch2a_relu"
  type: "ReLU"
  bottom: "res2c_branch2a_x"
  top: "res2c_branch2a_x"
  relu_param {
  }
}
layer {
  name: "res2c_branch2b"
  type: "Convolution"
  bottom: "res2c_branch2a_x"
  top: "res2c_branch2b"
  convolution_param {
    num_output: 64
    bias_term: false
    pad: 1
    kernel_size: 3
    stride: 1
    weight_filler {
      type: "xavier"
    }
    bias_filler {
      type: "constant"
      value: 0.2
    }
  }
}
layer {
  name: "bn2c_branch2b"
  type: "BatchNorm"
  bottom: "res2c_branch2b"
  top: "res2c_branch2b_x"
  batch_norm_param {
    bias_term: true
  }
}
layer {
  name: "res2c_branch2b_relu"
  type: "ReLU"
  bottom: "res2c_branch2b_x"
  top: "res2c_branch2b_x"
  relu_param {
  }
}
layer {
  name: "res2c_branch2c"
  type: "Convolution"
  bottom: "res2c_branch2b_x"
  top: "res2c_branch2c"
  convolution_param {
    num_output: 256
    bias_term: false
    pad: 0
    kernel_size: 1
    stride: 1
    weight_filler {
      type: "xavier"
    }
    bias_filler {
      type: "constant"
      value: 0.2
    }
  }
}
layer {
  name: "bn2c_branch2c"
  type: "BatchNorm"
  bottom: "res2c_branch2c"
  top: "res2c_branch2c_x"
  batch_norm_param {
    bias_term: true
  }
}
layer {
  name: "res2c"
  type: "Eltwise"
  bottom: "res2b_res2b_relu_0_split_1"
  bottom: "res2c_branch2c_x"
  top: "res2c"
  eltwise_param {
  }
}
layer {
  name: "res2c_relu"
  type: "ReLU"
  bottom: "res2c"
  top: "res2c"
  relu_param {
  }
}
layer {
  name: "res2c_res2c_relu_0_split"
  type: "Split"
  bottom: "res2c"
  top: "res2c_res2c_relu_0_split_0"
  top: "res2c_res2c_relu_0_split_1"
}
layer {
  name: "res3a_branch1"
  type: "Convolution"
  bottom: "res2c_res2c_relu_0_split_0"
  top: "res3a_branch1"
  convolution_param {
    num_output: 512
    bias_term: false
    pad: 0
    kernel_size: 1
    stride: 2
    weight_filler {
      type: "xavier"
    }
    bias_filler {
      type: "constant"
      value: 0.2
    }
  }
}
layer {
  name: "bn3a_branch1"
  type: "BatchNorm"
  bottom: "res3a_branch1"
  top: "res3a_branch1_x"
  batch_norm_param {
    bias_term: true
  }
}
layer {
  name: "res3a_branch2a"
  type: "Convolution"
  bottom: "res2c_res2c_relu_0_split_1"
  top: "res3a_branch2a"
  convolution_param {
    num_output: 128
    bias_term: false
    pad: 0
    kernel_size: 1
    stride: 2
    weight_filler {
      type: "xavier"
    }
    bias_filler {
      type: "constant"
      value: 0.2
    }
  }
}
layer {
  name: "bn3a_branch2a"
  type: "BatchNorm"
  bottom: "res3a_branch2a"
  top: "res3a_branch2a_x"
  batch_norm_param {
    bias_term: true
  }
}
layer {
  name: "res3a_branch2a_relu"
  type: "ReLU"
  bottom: "res3a_branch2a_x"
  top: "res3a_branch2a_x"
  relu_param {
  }
}
layer {
  name: "res3a_branch2b"
  type: "Convolution"
  bottom: "res3a_branch2a_x"
  top: "res3a_branch2b"
  convolution_param {
    num_output: 128
    bias_term: false
    pad: 1
    kernel_size: 3
    stride: 1
    weight_filler {
      type: "xavier"
    }
    bias_filler {
      type: "constant"
      value: 0.2
    }
  }
}
layer {
  name: "bn3a_branch2b"
  type: "BatchNorm"
  bottom: "res3a_branch2b"
  top: "res3a_branch2b_x"
  batch_norm_param {
    bias_term: true
  }
}
layer {
  name: "res3a_branch2b_relu"
  type: "ReLU"
  bottom: "res3a_branch2b_x"
  top: "res3a_branch2b_x"
  relu_param {
  }
}
layer {
  name: "res3a_branch2c"
  type: "Convolution"
  bottom: "res3a_branch2b_x"
  top: "res3a_branch2c"
  convolution_param {
    num_output: 512
    bias_term: false
    pad: 0
    kernel_size: 1
    stride: 1
    weight_filler {
      type: "xavier"
    }
    bias_filler {
      type: "constant"
      value: 0.2
    }
  }
}
layer {
  name: "bn3a_branch2c"
  type: "BatchNorm"
  bottom: "res3a_branch2c"
  top: "res3a_branch2c_x"
  batch_norm_param {
    bias_term: true
  }
}
layer {
  name: "res3a"
  type: "Eltwise"
  bottom: "res3a_branch1_x"
  bottom: "res3a_branch2c_x"
  top: "res3a"
  eltwise_param {
  }
}
layer {
  name: "res3a_relu"
  type: "ReLU"
  bottom: "res3a"
  top: "res3a"
  relu_param {
  }
}
layer {
  name: "res3a_res3a_relu_0_split"
  type: "Split"
  bottom: "res3a"
  top: "res3a_res3a_relu_0_split_0"
  top: "res3a_res3a_relu_0_split_1"
}
layer {
  name: "res3b_branch2a"
  type: "Convolution"
  bottom: "res3a_res3a_relu_0_split_0"
  top: "res3b_branch2a"
  convolution_param {
    num_output: 128
    bias_term: false
    pad: 0
    kernel_size: 1
    stride: 1
    weight_filler {
      type: "xavier"
    }
    bias_filler {
      type: "constant"
      value: 0.2
    }
  }
}
layer {
  name: "bn3b_branch2a"
  type: "BatchNorm"
  bottom: "res3b_branch2a"
  top: "res3b_branch2a_x"
  batch_norm_param {
    bias_term: true
  }
}
layer {
  name: "res3b_branch2a_relu"
  type: "ReLU"
  bottom: "res3b_branch2a_x"
  top: "res3b_branch2a_x"
  relu_param {
  }
}
layer {
  name: "res3b_branch2b"
  type: "Convolution"
  bottom: "res3b_branch2a_x"
  top: "res3b_branch2b"
  convolution_param {
    num_output: 128
    bias_term: false
    pad: 1
    kernel_size: 3
    stride: 1
    weight_filler {
      type: "xavier"
    }
    bias_filler {
      type: "constant"
      value: 0.2
    }
  }
}
layer {
  name: "bn3b_branch2b"
  type: "BatchNorm"
  bottom: "res3b_branch2b"
  top: "res3b_branch2b_x"
  batch_norm_param {
    bias_term: true
  }
}
layer {
  name: "res3b_branch2b_relu"
  type: "ReLU"
  bottom: "res3b_branch2b_x"
  top: "res3b_branch2b_x"
  relu_param {
  }
}
layer {
  name: "res3b_branch2c"
  type: "Convolution"
  bottom: "res3b_branch2b_x"
  top: "res3b_branch2c"
  convolution_param {
    num_output: 512
    bias_term: false
    pad: 0
    kernel_size: 1
    stride: 1
    weight_filler {
      type: "xavier"
    }
    bias_filler {
      type: "constant"
      value: 0.2
    }
  }
}
layer {
  name: "bn3b_branch2c"
  type: "BatchNorm"
  bottom: "res3b_branch2c"
  top: "res3b_branch2c_x"
  batch_norm_param {
    bias_term: true
  }
}
layer {
  name: "res3b"
  type: "Eltwise"
  bottom: "res3a_res3a_relu_0_split_1"
  bottom: "res3b_branch2c_x"
  top: "res3b"
  eltwise_param {
  }
}
layer {
  name: "res3b_relu"
  type: "ReLU"
  bottom: "res3b"
  top: "res3b"
  relu_param {
  }
}
layer {
  name: "res3b_res3b_relu_0_split"
  type: "Split"
  bottom: "res3b"
  top: "res3b_res3b_relu_0_split_0"
  top: "res3b_res3b_relu_0_split_1"
}
layer {
  name: "res3c_branch2a"
  type: "Convolution"
  bottom: "res3b_res3b_relu_0_split_0"
  top: "res3c_branch2a"
  convolution_param {
    num_output: 128
    bias_term: false
    pad: 0
    kernel_size: 1
    stride: 1
    weight_filler {
      type: "xavier"
    }
    bias_filler {
      type: "constant"
      value: 0.2
    }
  }
}
layer {
  name: "bn3c_branch2a"
  type: "BatchNorm"
  bottom: "res3c_branch2a"
  top: "res3c_branch2a_x"
  batch_norm_param {
    bias_term: true
  }
}
layer {
  name: "res3c_branch2a_relu"
  type: "ReLU"
  bottom: "res3c_branch2a_x"
  top: "res3c_branch2a_x"
  relu_param {
  }
}
layer {
  name: "res3c_branch2b"
  type: "Convolution"
  bottom: "res3c_branch2a_x"
  top: "res3c_branch2b"
  convolution_param {
    num_output: 128
    bias_term: false
    pad: 1
    kernel_size: 3
    stride: 1
    weight_filler {
      type: "xavier"
    }
    bias_filler {
      type: "constant"
      value: 0.2
    }
  }
}
layer {
  name: "bn3c_branch2b"
  type: "BatchNorm"
  bottom: "res3c_branch2b"
  top: "res3c_branch2b_x"
  batch_norm_param {
    bias_term: true
  }
}
layer {
  name: "res3c_branch2b_relu"
  type: "ReLU"
  bottom: "res3c_branch2b_x"
  top: "res3c_branch2b_x"
  relu_param {
  }
}
layer {
  name: "res3c_branch2c"
  type: "Convolution"
  bottom: "res3c_branch2b_x"
  top: "res3c_branch2c"
  convolution_param {
    num_output: 512
    bias_term: false
    pad: 0
    kernel_size: 1
    stride: 1
    weight_filler {
      type: "xavier"
    }
    bias_filler {
      type: "constant"
      value: 0.2
    }
  }
}
layer {
  name: "bn3c_branch2c"
  type: "BatchNorm"
  bottom: "res3c_branch2c"
  top: "res3c_branch2c_x"
  batch_norm_param {
    bias_term: true
  }
}
layer {
  name: "res3c"
  type: "Eltwise"
  bottom: "res3b_res3b_relu_0_split_1"
  bottom: "res3c_branch2c_x"
  top: "res3c"
  eltwise_param {
  }
}
layer {
  name: "res3c_relu"
  type: "ReLU"
  bottom: "res3c"
  top: "res3c"
  relu_param {
  }
}
layer {
  name: "res3c_res3c_relu_0_split"
  type: "Split"
  bottom: "res3c"
  top: "res3c_res3c_relu_0_split_0"
  top: "res3c_res3c_relu_0_split_1"
}
layer {
  name: "res3d_branch2a"
  type: "Convolution"
  bottom: "res3c_res3c_relu_0_split_0"
  top: "res3d_branch2a"
  convolution_param {
    num_output: 128
    bias_term: false
    pad: 0
    kernel_size: 1
    stride: 1
    weight_filler {
      type: "xavier"
    }
    bias_filler {
      type: "constant"
      value: 0.2
    }
  }
}
layer {
  name: "bn3d_branch2a"
  type: "BatchNorm"
  bottom: "res3d_branch2a"
  top: "res3d_branch2a_x"
  batch_norm_param {
    bias_term: true
  }
}
layer {
  name: "res3d_branch2a_relu"
  type: "ReLU"
  bottom: "res3d_branch2a_x"
  top: "res3d_branch2a_x"
  relu_param {
  }
}
layer {
  name: "res3d_branch2b"
  type: "Convolution"
  bottom: "res3d_branch2a_x"
  top: "res3d_branch2b"
  convolution_param {
    num_output: 128
    bias_term: false
    pad: 1
    kernel_size: 3
    stride: 1
    weight_filler {
      type: "xavier"
    }
    bias_filler {
      type: "constant"
      value: 0.2
    }
  }
}
layer {
  name: "bn3d_branch2b"
  type: "BatchNorm"
  bottom: "res3d_branch2b"
  top: "res3d_branch2b_x"
  batch_norm_param {
    bias_term: true
  }
}
layer {
  name: "res3d_branch2b_relu"
  type: "ReLU"
  bottom: "res3d_branch2b_x"
  top: "res3d_branch2b_x"
  relu_param {
  }
}
layer {
  name: "res3d_branch2c"
  type: "Convolution"
  bottom: "res3d_branch2b_x"
  top: "res3d_branch2c"
  convolution_param {
    num_output: 512
    bias_term: false
    pad: 0
    kernel_size: 1
    stride: 1
    weight_filler {
      type: "xavier"
    }
    bias_filler {
      type: "constant"
      value: 0.2
    }
  }
}
layer {
  name: "bn3d_branch2c"
  type: "BatchNorm"
  bottom: "res3d_branch2c"
  top: "res3d_branch2c_x"
  batch_norm_param {
    bias_term: true
  }
}
layer {
  name: "res3d"
  type: "Eltwise"
  bottom: "res3c_res3c_relu_0_split_1"
  bottom: "res3d_branch2c_x"
  top: "res3d"
  eltwise_param {
  }
}
layer {
  name: "res3d_relu"
  type: "ReLU"
  bottom: "res3d"
  top: "res3d"
  relu_param {
  }
}
layer {
  name: "res3d_res3d_relu_0_split"
  type: "Split"
  bottom: "res3d"
  top: "res3d_res3d_relu_0_split_0"
  top: "res3d_res3d_relu_0_split_1"
}
layer {
  name: "res4a_branch1"
  type: "Convolution"
  bottom: "res3d_res3d_relu_0_split_0"
  top: "res4a_branch1"
  convolution_param {
    num_output: 1024
    bias_term: false
    pad: 0
    kernel_size: 1
    stride: 2
    weight_filler {
      type: "xavier"
    }
    bias_filler {
      type: "constant"
      value: 0.2
    }
  }
}
layer {
  name: "bn4a_branch1"
  type: "BatchNorm"
  bottom: "res4a_branch1"
  top: "res4a_branch1_x"
  batch_norm_param {
    bias_term: true
  }
}
layer {
  name: "res4a_branch2a"
  type: "Convolution"
  bottom: "res3d_res3d_relu_0_split_1"
  top: "res4a_branch2a"
  convolution_param {
    num_output: 256
    bias_term: false
    pad: 0
    kernel_size: 1
    stride: 2
    weight_filler {
      type: "xavier"
    }
    bias_filler {
      type: "constant"
      value: 0.2
    }
  }
}
layer {
  name: "bn4a_branch2a"
  type: "BatchNorm"
  bottom: "res4a_branch2a"
  top: "res4a_branch2a_x"
  batch_norm_param {
    bias_term: true
  }
}
layer {
  name: "res4a_branch2a_relu"
  type: "ReLU"
  bottom: "res4a_branch2a_x"
  top: "res4a_branch2a_x"
  relu_param {
  }
}
layer {
  name: "res4a_branch2b"
  type: "Convolution"
  bottom: "res4a_branch2a_x"
  top: "res4a_branch2b"
  convolution_param {
    num_output: 256
    bias_term: false
    pad: 1
    kernel_size: 3
    stride: 1
    weight_filler {
      type: "xavier"
    }
    bias_filler {
      type: "constant"
      value: 0.2
    }
  }
}
layer {
  name: "bn4a_branch2b"
  type: "BatchNorm"
  bottom: "res4a_branch2b"
  top: "res4a_branch2b_x"
  batch_norm_param {
    bias_term: true
  }
}
layer {
  name: "res4a_branch2b_relu"
  type: "ReLU"
  bottom: "res4a_branch2b_x"
  top: "res4a_branch2b_x"
  relu_param {
  }
}
layer {
  name: "res4a_branch2c"
  type: "Convolution"
  bottom: "res4a_branch2b_x"
  top: "res4a_branch2c"
  convolution_param {
    num_output: 1024
    bias_term: false
    pad: 0
    kernel_size: 1
    stride: 1
    weight_filler {
      type: "xavier"
    }
    bias_filler {
      type: "constant"
      value: 0.2
    }
  }
}
layer {
  name: "bn4a_branch2c"
  type: "BatchNorm"
  bottom: "res4a_branch2c"
  top: "res4a_branch2c_x"
  batch_norm_param {
    bias_term: true
  }
}
layer {
  name: "res4a"
  type: "Eltwise"
  bottom: "res4a_branch1_x"
  bottom: "res4a_branch2c_x"
  top: "res4a"
  eltwise_param {
  }
}
layer {
  name: "res4a_relu"
  type: "ReLU"
  bottom: "res4a"
  top: "res4a"
  relu_param {
  }
}
layer {
  name: "res4a_res4a_relu_0_split"
  type: "Split"
  bottom: "res4a"
  top: "res4a_res4a_relu_0_split_0"
  top: "res4a_res4a_relu_0_split_1"
}
layer {
  name: "res4b_branch2a"
  type: "Convolution"
  bottom: "res4a_res4a_relu_0_split_0"
  top: "res4b_branch2a"
  convolution_param {
    num_output: 256
    bias_term: false
    pad: 0
    kernel_size: 1
    stride: 1
    weight_filler {
      type: "xavier"
    }
    bias_filler {
      type: "constant"
      value: 0.2
    }
  }
}
layer {
  name: "bn4b_branch2a"
  type: "BatchNorm"
  bottom: "res4b_branch2a"
  top: "res4b_branch2a_x"
  batch_norm_param {
    bias_term: true
  }
}
layer {
  name: "res4b_branch2a_relu"
  type: "ReLU"
  bottom: "res4b_branch2a_x"
  top: "res4b_branch2a_x"
  relu_param {
  }
}
layer {
  name: "res4b_branch2b"
  type: "Convolution"
  bottom: "res4b_branch2a_x"
  top: "res4b_branch2b"
  convolution_param {
    num_output: 256
    bias_term: false
    pad: 1
    kernel_size: 3
    stride: 1
    weight_filler {
      type: "xavier"
    }
    bias_filler {
      type: "constant"
      value: 0.2
    }
  }
}
layer {
  name: "bn4b_branch2b"
  type: "BatchNorm"
  bottom: "res4b_branch2b"
  top: "res4b_branch2b_x"
  batch_norm_param {
    bias_term: true
  }
}
layer {
  name: "res4b_branch2b_relu"
  type: "ReLU"
  bottom: "res4b_branch2b_x"
  top: "res4b_branch2b_x"
  relu_param {
  }
}
layer {
  name: "res4b_branch2c"
  type: "Convolution"
  bottom: "res4b_branch2b_x"
  top: "res4b_branch2c"
  convolution_param {
    num_output: 1024
    bias_term: false
    pad: 0
    kernel_size: 1
    stride: 1
    weight_filler {
      type: "xavier"
    }
    bias_filler {
      type: "constant"
      value: 0.2
    }
  }
}
layer {
  name: "bn4b_branch2c"
  type: "BatchNorm"
  bottom: "res4b_branch2c"
  top: "res4b_branch2c_x"
  batch_norm_param {
    bias_term: true
  }
}
layer {
  name: "res4b"
  type: "Eltwise"
  bottom: "res4a_res4a_relu_0_split_1"
  bottom: "res4b_branch2c_x"
  top: "res4b"
  eltwise_param {
  }
}
layer {
  name: "res4b_relu"
  type: "ReLU"
  bottom: "res4b"
  top: "res4b"
  relu_param {
  }
}
layer {
  name: "res4b_res4b_relu_0_split"
  type: "Split"
  bottom: "res4b"
  top: "res4b_res4b_relu_0_split_0"
  top: "res4b_res4b_relu_0_split_1"
}
layer {
  name: "res4c_branch2a"
  type: "Convolution"
  bottom: "res4b_res4b_relu_0_split_0"
  top: "res4c_branch2a"
  convolution_param {
    num_output: 256
    bias_term: false
    pad: 0
    kernel_size: 1
    stride: 1
    weight_filler {
      type: "xavier"
    }
    bias_filler {
      type: "constant"
      value: 0.2
    }
  }
}
layer {
  name: "bn4c_branch2a"
  type: "BatchNorm"
  bottom: "res4c_branch2a"
  top: "res4c_branch2a_x"
  batch_norm_param {
    bias_term: true
  }
}
layer {
  name: "res4c_branch2a_relu"
  type: "ReLU"
  bottom: "res4c_branch2a_x"
  top: "res4c_branch2a_x"
  relu_param {
  }
}
layer {
  name: "res4c_branch2b"
  type: "Convolution"
  bottom: "res4c_branch2a_x"
  top: "res4c_branch2b"
  convolution_param {
    num_output: 256
    bias_term: false
    pad: 1
    kernel_size: 3
    stride: 1
    weight_filler {
      type: "xavier"
    }
    bias_filler {
      type: "constant"
      value: 0.2
    }
  }
}
layer {
  name: "bn4c_branch2b"
  type: "BatchNorm"
  bottom: "res4c_branch2b"
  top: "res4c_branch2b_x"
  batch_norm_param {
    bias_term: true
  }
}
layer {
  name: "res4c_branch2b_relu"
  type: "ReLU"
  bottom: "res4c_branch2b_x"
  top: "res4c_branch2b_x"
  relu_param {
  }
}
layer {
  name: "res4c_branch2c"
  type: "Convolution"
  bottom: "res4c_branch2b_x"
  top: "res4c_branch2c"
  convolution_param {
    num_output: 1024
    bias_term: false
    pad: 0
    kernel_size: 1
    stride: 1
    weight_filler {
      type: "xavier"
    }
    bias_filler {
      type: "constant"
      value: 0.2
    }
  }
}
layer {
  name: "bn4c_branch2c"
  type: "BatchNorm"
  bottom: "res4c_branch2c"
  top: "res4c_branch2c_x"
  batch_norm_param {
    bias_term: true
  }
}
layer {
  name: "res4c"
  type: "Eltwise"
  bottom: "res4b_res4b_relu_0_split_1"
  bottom: "res4c_branch2c_x"
  top: "res4c"
  eltwise_param {
  }
}
layer {
  name: "res4c_relu"
  type: "ReLU"
  bottom: "res4c"
  top: "res4c"
  relu_param {
  }
}
layer {
  name: "res4c_res4c_relu_0_split"
  type: "Split"
  bottom: "res4c"
  top: "res4c_res4c_relu_0_split_0"
  top: "res4c_res4c_relu_0_split_1"
}
layer {
  name: "res4d_branch2a"
  type: "Convolution"
  bottom: "res4c_res4c_relu_0_split_0"
  top: "res4d_branch2a"
  convolution_param {
    num_output: 256
    bias_term: false
    pad: 0
    kernel_size: 1
    stride: 1
    weight_filler {
      type: "xavier"
    }
    bias_filler {
      type: "constant"
      value: 0.2
    }
  }
}
layer {
  name: "bn4d_branch2a"
  type: "BatchNorm"
  bottom: "res4d_branch2a"
  top: "res4d_branch2a_x"
  batch_norm_param {
    bias_term: true
  }
}
layer {
  name: "res4d_branch2a_relu"
  type: "ReLU"
  bottom: "res4d_branch2a_x"
  top: "res4d_branch2a_x"
  relu_param {
  }
}
layer {
  name: "res4d_branch2b"
  type: "Convolution"
  bottom: "res4d_branch2a_x"
  top: "res4d_branch2b"
  convolution_param {
    num_output: 256
    bias_term: false
    pad: 1
    kernel_size: 3
    stride: 1
    weight_filler {
      type: "xavier"
    }
    bias_filler {
      type: "constant"
      value: 0.2
    }
  }
}
layer {
  name: "bn4d_branch2b"
  type: "BatchNorm"
  bottom: "res4d_branch2b"
  top: "res4d_branch2b_x"
  batch_norm_param {
    bias_term: true
  }
}
layer {
  name: "res4d_branch2b_relu"
  type: "ReLU"
  bottom: "res4d_branch2b_x"
  top: "res4d_branch2b_x"
  relu_param {
  }
}
layer {
  name: "res4d_branch2c"
  type: "Convolution"
  bottom: "res4d_branch2b_x"
  top: "res4d_branch2c"
  convolution_param {
    num_output: 1024
    bias_term: false
    pad: 0
    kernel_size: 1
    stride: 1
    weight_filler {
      type: "xavier"
    }
    bias_filler {
      type: "constant"
      value: 0.2
    }
  }
}
layer {
  name: "bn4d_branch2c"
  type: "BatchNorm"
  bottom: "res4d_branch2c"
  top: "res4d_branch2c_x"
  batch_norm_param {
    bias_term: true
  }
}
layer {
  name: "res4d"
  type: "Eltwise"
  bottom: "res4c_res4c_relu_0_split_1"
  bottom: "res4d_branch2c_x"
  top: "res4d"
  eltwise_param {
  }
}
layer {
  name: "res4d_relu"
  type: "ReLU"
  bottom: "res4d"
  top: "res4d"
  relu_param {
  }
}
layer {
  name: "res4d_res4d_relu_0_split"
  type: "Split"
  bottom: "res4d"
  top: "res4d_res4d_relu_0_split_0"
  top: "res4d_res4d_relu_0_split_1"
}
layer {
  name: "res4e_branch2a"
  type: "Convolution"
  bottom: "res4d_res4d_relu_0_split_0"
  top: "res4e_branch2a"
  convolution_param {
    num_output: 256
    bias_term: false
    pad: 0
    kernel_size: 1
    stride: 1
    weight_filler {
      type: "xavier"
    }
    bias_filler {
      type: "constant"
      value: 0.2
    }
  }
}
layer {
  name: "bn4e_branch2a"
  type: "BatchNorm"
  bottom: "res4e_branch2a"
  top: "res4e_branch2a_x"
  batch_norm_param {
    bias_term: true
  }
}
layer {
  name: "res4e_branch2a_relu"
  type: "ReLU"
  bottom: "res4e_branch2a_x"
  top: "res4e_branch2a_x"
  relu_param {
  }
}
layer {
  name: "res4e_branch2b"
  type: "Convolution"
  bottom: "res4e_branch2a_x"
  top: "res4e_branch2b"
  convolution_param {
    num_output: 256
    bias_term: false
    pad: 1
    kernel_size: 3
    stride: 1
    weight_filler {
      type: "xavier"
    }
    bias_filler {
      type: "constant"
      value: 0.2
    }
  }
}
layer {
  name: "bn4e_branch2b"
  type: "BatchNorm"
  bottom: "res4e_branch2b"
  top: "res4e_branch2b_x"
  batch_norm_param {
    bias_term: true
  }
}
layer {
  name: "res4e_branch2b_relu"
  type: "ReLU"
  bottom: "res4e_branch2b_x"
  top: "res4e_branch2b_x"
  relu_param {
  }
}
layer {
  name: "res4e_branch2c"
  type: "Convolution"
  bottom: "res4e_branch2b_x"
  top: "res4e_branch2c"
  convolution_param {
    num_output: 1024
    bias_term: false
    pad: 0
    kernel_size: 1
    stride: 1
    weight_filler {
      type: "xavier"
    }
    bias_filler {
      type: "constant"
      value: 0.2
    }
  }
}
layer {
  name: "bn4e_branch2c"
  type: "BatchNorm"
  bottom: "res4e_branch2c"
  top: "res4e_branch2c_x"
  batch_norm_param {
    bias_term: true
  }
}
layer {
  name: "res4e"
  type: "Eltwise"
  bottom: "res4d_res4d_relu_0_split_1"
  bottom: "res4e_branch2c_x"
  top: "res4e"
  eltwise_param {
  }
}
layer {
  name: "res4e_relu"
  type: "ReLU"
  bottom: "res4e"
  top: "res4e"
  relu_param {
  }
}
layer {
  name: "res4e_res4e_relu_0_split"
  type: "Split"
  bottom: "res4e"
  top: "res4e_res4e_relu_0_split_0"
  top: "res4e_res4e_relu_0_split_1"
}
layer {
  name: "res4f_branch2a"
  type: "Convolution"
  bottom: "res4e_res4e_relu_0_split_0"
  top: "res4f_branch2a"
  convolution_param {
    num_output: 256
    bias_term: false
    pad: 0
    kernel_size: 1
    stride: 1
    weight_filler {
      type: "xavier"
    }
    bias_filler {
      type: "constant"
      value: 0.2
    }
  }
}
layer {
  name: "bn4f_branch2a"
  type: "BatchNorm"
  bottom: "res4f_branch2a"
  top: "res4f_branch2a_x"
  batch_norm_param {
    bias_term: true
  }
}
layer {
  name: "res4f_branch2a_relu"
  type: "ReLU"
  bottom: "res4f_branch2a_x"
  top: "res4f_branch2a_x"
  relu_param {
  }
}
layer {
  name: "res4f_branch2b"
  type: "Convolution"
  bottom: "res4f_branch2a_x"
  top: "res4f_branch2b"
  convolution_param {
    num_output: 256
    bias_term: false
    pad: 1
    kernel_size: 3
    stride: 1
    weight_filler {
      type: "xavier"
    }
    bias_filler {
      type: "constant"
      value: 0.2
    }
  }
}
layer {
  name: "bn4f_branch2b"
  type: "BatchNorm"
  bottom: "res4f_branch2b"
  top: "res4f_branch2b_x"
  batch_norm_param {
    bias_term: true
  }
}
layer {
  name: "res4f_branch2b_relu"
  type: "ReLU"
  bottom: "res4f_branch2b_x"
  top: "res4f_branch2b_x"
  relu_param {
  }
}
layer {
  name: "res4f_branch2c"
  type: "Convolution"
  bottom: "res4f_branch2b_x"
  top: "res4f_branch2c"
  convolution_param {
    num_output: 1024
    bias_term: false
    pad: 0
    kernel_size: 1
    stride: 1
    weight_filler {
      type: "xavier"
    }
    bias_filler {
      type: "constant"
      value: 0.2
    }
  }
}
layer {
  name: "bn4f_branch2c"
  type: "BatchNorm"
  bottom: "res4f_branch2c"
  top: "res4f_branch2c_x"
  batch_norm_param {
    bias_term: true
  }
}
layer {
  name: "res4f"
  type: "Eltwise"
  bottom: "res4e_res4e_relu_0_split_1"
  bottom: "res4f_branch2c_x"
  top: "res4f"
  eltwise_param {
  }
}
layer {
  name: "res4f_relu"
  type: "ReLU"
  bottom: "res4f"
  top: "res4f"
  relu_param {
  }
}
layer {
  name: "res4f_res4f_relu_0_split"
  type: "Split"
  bottom: "res4f"
  top: "res4f_res4f_relu_0_split_0"
  top: "res4f_res4f_relu_0_split_1"
}
layer {
  name: "res5a_branch1"
  type: "Convolution"
  bottom: "res4f_res4f_relu_0_split_0"
  top: "res5a_branch1"
  convolution_param {
    num_output: 2048
    bias_term: false
    pad: 0
    kernel_size: 1
    stride: 2
    weight_filler {
      type: "xavier"
    }
    bias_filler {
      type: "constant"
      value: 0.2
    }
  }
}
layer {
  name: "bn5a_branch1"
  type: "BatchNorm"
  bottom: "res5a_branch1"
  top: "res5a_branch1_x"
  batch_norm_param {
    bias_term: true
  }
}
layer {
  name: "res5a_branch2a"
  type: "Convolution"
  bottom: "res4f_res4f_relu_0_split_1"
  top: "res5a_branch2a"
  convolution_param {
    num_output: 512
    bias_term: false
    pad: 0
    kernel_size: 1
    stride: 2
    weight_filler {
      type: "xavier"
    }
    bias_filler {
      type: "constant"
      value: 0.2
    }
  }
}
layer {
  name: "bn5a_branch2a"
  type: "BatchNorm"
  bottom: "res5a_branch2a"
  top: "res5a_branch2a_x"
  batch_norm_param {
    bias_term: true
  }
}
layer {
  name: "res5a_branch2a_relu"
  type: "ReLU"
  bottom: "res5a_branch2a_x"
  top: "res5a_branch2a_x"
  relu_param {
  }
}
layer {
  name: "res5a_branch2b"
  type: "Convolution"
  bottom: "res5a_branch2a_x"
  top: "res5a_branch2b"
  convolution_param {
    num_output: 512
    bias_term: false
    pad: 1
    kernel_size: 3
    stride: 1
    weight_filler {
      type: "xavier"
    }
    bias_filler {
      type: "constant"
      value: 0.2
    }
  }
}
layer {
  name: "bn5a_branch2b"
  type: "BatchNorm"
  bottom: "res5a_branch2b"
  top: "res5a_branch2b_x"
  batch_norm_param {
    bias_term: true
  }
}
layer {
  name: "res5a_branch2b_relu"
  type: "ReLU"
  bottom: "res5a_branch2b_x"
  top: "res5a_branch2b_x"
  relu_param {
  }
}
layer {
  name: "res5a_branch2c"
  type: "Convolution"
  bottom: "res5a_branch2b_x"
  top: "res5a_branch2c"
  convolution_param {
    num_output: 2048
    bias_term: false
    pad: 0
    kernel_size: 1
    stride: 1
    weight_filler {
      type: "xavier"
    }
    bias_filler {
      type: "constant"
      value: 0.2
    }
  }
}
layer {
  name: "bn5a_branch2c"
  type: "BatchNorm"
  bottom: "res5a_branch2c"
  top: "res5a_branch2c_x"
  batch_norm_param {
    bias_term: true
  }
}
layer {
  name: "res5a"
  type: "Eltwise"
  bottom: "res5a_branch1_x"
  bottom: "res5a_branch2c_x"
  top: "res5a"
  eltwise_param {
  }
}
layer {
  name: "res5a_relu"
  type: "ReLU"
  bottom: "res5a"
  top: "res5a"
  relu_param {
  }
}
layer {
  name: "res5a_res5a_relu_0_split"
  type: "Split"
  bottom: "res5a"
  top: "res5a_res5a_relu_0_split_0"
  top: "res5a_res5a_relu_0_split_1"
}
layer {
  name: "res5b_branch2a"
  type: "Convolution"
  bottom: "res5a_res5a_relu_0_split_0"
  top: "res5b_branch2a"
  convolution_param {
    num_output: 512
    bias_term: false
    pad: 0
    kernel_size: 1
    stride: 1
    weight_filler {
      type: "xavier"
    }
    bias_filler {
      type: "constant"
      value: 0.2
    }
  }
}
layer {
  name: "bn5b_branch2a"
  type: "BatchNorm"
  bottom: "res5b_branch2a"
  top: "res5b_branch2a_x"
  batch_norm_param {
    bias_term: true
  }
}
layer {
  name: "res5b_branch2a_relu"
  type: "ReLU"
  bottom: "res5b_branch2a_x"
  top: "res5b_branch2a_x"
  relu_param {
  }
}
layer {
  name: "res5b_branch2b"
  type: "Convolution"
  bottom: "res5b_branch2a_x"
  top: "res5b_branch2b"
  convolution_param {
    num_output: 512
    bias_term: false
    pad: 1
    kernel_size: 3
    stride: 1
    weight_filler {
      type: "xavier"
    }
    bias_filler {
      type: "constant"
      value: 0.2
    }
  }
}
layer {
  name: "bn5b_branch2b"
  type: "BatchNorm"
  bottom: "res5b_branch2b"
  top: "res5b_branch2b_x"
  batch_norm_param {
    bias_term: true
  }
}
layer {
  name: "res5b_branch2b_relu"
  type: "ReLU"
  bottom: "res5b_branch2b_x"
  top: "res5b_branch2b_x"
  relu_param {
  }
}
layer {
  name: "res5b_branch2c"
  type: "Convolution"
  bottom: "res5b_branch2b_x"
  top: "res5b_branch2c"
  convolution_param {
    num_output: 2048
    bias_term: false
    pad: 0
    kernel_size: 1
    stride: 1
    weight_filler {
      type: "xavier"
    }
    bias_filler {
      type: "constant"
      value: 0.2
    }
  }
}
layer {
  name: "bn5b_branch2c"
  type: "BatchNorm"
  bottom: "res5b_branch2c"
  top: "res5b_branch2c_x"
  batch_norm_param {
    bias_term: true
  }
}
layer {
  name: "res5b"
  type: "Eltwise"
  bottom: "res5a_res5a_relu_0_split_1"
  bottom: "res5b_branch2c_x"
  top: "res5b"
  eltwise_param {
  }
}
layer {
  name: "res5b_relu"
  type: "ReLU"
  bottom: "res5b"
  top: "res5b"
  relu_param {
  }
}
layer {
  name: "res5b_res5b_relu_0_split"
  type: "Split"
  bottom: "res5b"
  top: "res5b_res5b_relu_0_split_0"
  top: "res5b_res5b_relu_0_split_1"
}
layer {
  name: "res5c_branch2a"
  type: "Convolution"
  bottom: "res5b_res5b_relu_0_split_0"
  top: "res5c_branch2a"
  convolution_param {
    num_output: 512
    bias_term: false
    pad: 0
    kernel_size: 1
    stride: 1
    weight_filler {
      type: "xavier"
    }
    bias_filler {
      type: "constant"
      value: 0.2
    }
  }
}
layer {
  name: "bn5c_branch2a"
  type: "BatchNorm"
  bottom: "res5c_branch2a"
  top: "res5c_branch2a_x"
  batch_norm_param {
    bias_term: true
  }
}
layer {
  name: "res5c_branch2a_relu"
  type: "ReLU"
  bottom: "res5c_branch2a_x"
  top: "res5c_branch2a_x"
  relu_param {
  }
}
layer {
  name: "res5c_branch2b"
  type: "Convolution"
  bottom: "res5c_branch2a_x"
  top: "res5c_branch2b"
  convolution_param {
    num_output: 512
    bias_term: false
    pad: 1
    kernel_size: 3
    stride: 1
    weight_filler {
      type: "xavier"
    }
    bias_filler {
      type: "constant"
      value: 0.2
    }
  }
}
layer {
  name: "bn5c_branch2b"
  type: "BatchNorm"
  bottom: "res5c_branch2b"
  top: "res5c_branch2b_x"
  batch_norm_param {
    bias_term: true
  }
}
layer {
  name: "res5c_branch2b_relu"
  type: "ReLU"
  bottom: "res5c_branch2b_x"
  top: "res5c_branch2b_x"
  relu_param {
  }
}
layer {
  name: "res5c_branch2c"
  type: "Convolution"
  bottom: "res5c_branch2b_x"
  top: "res5c_branch2c"
  convolution_param {
    num_output: 2048
    bias_term: false
    pad: 0
    kernel_size: 1
    stride: 1
    weight_filler {
      type: "xavier"
    }
    bias_filler {
      type: "constant"
      value: 0.2
    }
  }
}
layer {
  name: "bn5c_branch2c"
  type: "BatchNorm"
  bottom: "res5c_branch2c"
  top: "res5c_branch2c_x"
  batch_norm_param {
    bias_term: true
  }
}
layer {
  name: "res5c"
  type: "Eltwise"
  bottom: "res5b_res5b_relu_0_split_1"
  bottom: "res5c_branch2c_x"
  top: "res5c"
  eltwise_param {
  }
}
layer {
  name: "res5c_relu"
  type: "ReLU"
  bottom: "res5c"
  top: "res5c"
  relu_param {
  }
}
layer {
  name: "pool5"
  type: "Pooling"
  bottom: "res5c"
  top: "pool5"
  pooling_param {
    pool: AVE
    kernel_size: 7
    stride: 1
  }
}
layer {
  name: "fc1000"
  type: "InnerProduct"
  bottom: "pool5"
  top: "fc1000"
  inner_product_param {
    num_output: 1000
    weight_filler {
      type: "xavier"
    }
    bias_filler {
      type: "constant"
      value: 0
    }
  }
}
layer {
  name: "prob"
  type: "SoftmaxWithLoss"
  bottom: "fc1000"
  bottom: "label"
  top: "prob"
  include {
    phase: TRAIN
  }
}
I0619 10:28:48.434674 198871 layer_factory.hpp:114] Creating layer data
I0619 10:28:48.436602 198871 net.cpp:183] Creating Layer data
I0619 10:28:48.436709 198871 net.cpp:838] data -> data
I0619 10:28:48.436803 198871 net.cpp:838] data -> label
I0619 10:28:48.436925 198871 data_transformer.cpp:63] Loading mean file from: data/ilsvrc12/imagenet_mean.binaryproto
I0619 10:28:48.455368 198873 db_lmdb.cpp:72] Opened lmdb /home/wenxizhu/wenxi/internal-intel-caffe/examples/imagenet/ilsvrc12_train_lmdb
I0619 10:28:48.468654 198871 data_layer.cpp:80] output data size: 50,3,224,224
I0619 10:28:48.497397 198871 net.cpp:267] Setting up data
I0619 10:28:48.497566 198871 net.cpp:274] Top shape: 50 3 224 224 (7526400)
I0619 10:28:48.497611 198871 net.cpp:274] Top shape: 50 (50)
I0619 10:28:48.497639 198871 net.cpp:282] Memory required for data: 30105800
I0619 10:28:48.497684 198871 layer_factory.hpp:114] Creating layer conv1
I0619 10:28:48.497807 198871 net.cpp:183] Creating Layer conv1
I0619 10:28:48.497844 198871 net.cpp:864] conv1 <- data
I0619 10:28:48.497895 198871 net.cpp:838] conv1 -> conv1
I0619 10:28:48.707875 198871 net.cpp:267] Setting up conv1
I0619 10:28:48.708012 198871 net.cpp:274] Top shape: 50 64 112 112 (40140800)
I0619 10:28:48.708040 198871 net.cpp:282] Memory required for data: 190669000
I0619 10:28:48.708158 198871 layer_factory.hpp:114] Creating layer bn_conv1
I0619 10:28:48.708245 198871 net.cpp:183] Creating Layer bn_conv1
I0619 10:28:48.708279 198871 net.cpp:864] bn_conv1 <- conv1
I0619 10:28:48.708324 198871 net.cpp:838] bn_conv1 -> conv1_x
I0619 10:28:48.708484 198871 net.cpp:267] Setting up bn_conv1
I0619 10:28:48.708570 198871 net.cpp:274] Top shape: 50 64 112 112 (40140800)
I0619 10:28:48.708602 198871 net.cpp:282] Memory required for data: 351232200
I0619 10:28:48.708719 198871 layer_factory.hpp:114] Creating layer conv1_relu
I0619 10:28:48.708788 198871 net.cpp:183] Creating Layer conv1_relu
I0619 10:28:48.708822 198871 net.cpp:864] conv1_relu <- conv1_x
I0619 10:28:48.708863 198871 net.cpp:825] conv1_relu -> conv1_x (in-place)
I0619 10:28:48.708940 198871 net.cpp:267] Setting up conv1_relu
I0619 10:28:48.708981 198871 net.cpp:274] Top shape: 50 64 112 112 (40140800)
I0619 10:28:48.709010 198871 net.cpp:282] Memory required for data: 511795400
I0619 10:28:48.709041 198871 layer_factory.hpp:114] Creating layer pool1
I0619 10:28:48.709138 198871 net.cpp:183] Creating Layer pool1
I0619 10:28:48.709172 198871 net.cpp:864] pool1 <- conv1_x
I0619 10:28:48.709215 198871 net.cpp:838] pool1 -> pool1
I0619 10:28:48.709303 198871 net.cpp:267] Setting up pool1
I0619 10:28:48.709345 198871 net.cpp:274] Top shape: 50 64 56 56 (10035200)
I0619 10:28:48.709373 198871 net.cpp:282] Memory required for data: 551936200
I0619 10:28:48.709405 198871 layer_factory.hpp:114] Creating layer pool1_pool1_0_split
I0619 10:28:48.709461 198871 net.cpp:183] Creating Layer pool1_pool1_0_split
I0619 10:28:48.709493 198871 net.cpp:864] pool1_pool1_0_split <- pool1
I0619 10:28:48.709532 198871 net.cpp:838] pool1_pool1_0_split -> pool1_pool1_0_split_0
I0619 10:28:48.709575 198871 net.cpp:838] pool1_pool1_0_split -> pool1_pool1_0_split_1
I0619 10:28:48.709674 198871 net.cpp:267] Setting up pool1_pool1_0_split
I0619 10:28:48.709717 198871 net.cpp:274] Top shape: 50 64 56 56 (10035200)
I0619 10:28:48.709754 198871 net.cpp:274] Top shape: 50 64 56 56 (10035200)
I0619 10:28:48.709782 198871 net.cpp:282] Memory required for data: 632217800
I0619 10:28:48.709816 198871 layer_factory.hpp:114] Creating layer res2a_branch1
I0619 10:28:48.709894 198871 net.cpp:183] Creating Layer res2a_branch1
I0619 10:28:48.709928 198871 net.cpp:864] res2a_branch1 <- pool1_pool1_0_split_0
I0619 10:28:48.709971 198871 net.cpp:838] res2a_branch1 -> res2a_branch1
I0619 10:28:48.717705 198871 net.cpp:267] Setting up res2a_branch1
I0619 10:28:48.717840 198871 net.cpp:274] Top shape: 50 256 56 56 (40140800)
I0619 10:28:48.717870 198871 net.cpp:282] Memory required for data: 792781000
I0619 10:28:48.717924 198871 layer_factory.hpp:114] Creating layer bn2a_branch1
I0619 10:28:48.717993 198871 net.cpp:183] Creating Layer bn2a_branch1
I0619 10:28:48.718186 198871 net.cpp:864] bn2a_branch1 <- res2a_branch1
I0619 10:28:48.718245 198871 net.cpp:838] bn2a_branch1 -> res2a_branch1_x
I0619 10:28:48.718446 198871 net.cpp:267] Setting up bn2a_branch1
I0619 10:28:48.718503 198871 net.cpp:274] Top shape: 50 256 56 56 (40140800)
I0619 10:28:48.718536 198871 net.cpp:282] Memory required for data: 953344200
I0619 10:28:48.718652 198871 layer_factory.hpp:114] Creating layer res2a_branch2a
I0619 10:28:48.718778 198871 net.cpp:183] Creating Layer res2a_branch2a
I0619 10:28:48.718852 198871 net.cpp:864] res2a_branch2a <- pool1_pool1_0_split_1
I0619 10:28:48.718901 198871 net.cpp:838] res2a_branch2a -> res2a_branch2a
I0619 10:28:48.724483 198871 net.cpp:267] Setting up res2a_branch2a
I0619 10:28:48.724617 198871 net.cpp:274] Top shape: 50 64 56 56 (10035200)
I0619 10:28:48.724645 198871 net.cpp:282] Memory required for data: 993485000
I0619 10:28:48.724697 198871 layer_factory.hpp:114] Creating layer bn2a_branch2a
I0619 10:28:48.724766 198871 net.cpp:183] Creating Layer bn2a_branch2a
I0619 10:28:48.724802 198871 net.cpp:864] bn2a_branch2a <- res2a_branch2a
I0619 10:28:48.724858 198871 net.cpp:838] bn2a_branch2a -> res2a_branch2a_x
I0619 10:28:48.725009 198871 net.cpp:267] Setting up bn2a_branch2a
I0619 10:28:48.725059 198871 net.cpp:274] Top shape: 50 64 56 56 (10035200)
I0619 10:28:48.725116 198871 net.cpp:282] Memory required for data: 1033625800
I0619 10:28:48.725208 198871 layer_factory.hpp:114] Creating layer res2a_branch2a_relu
I0619 10:28:48.725304 198871 net.cpp:183] Creating Layer res2a_branch2a_relu
I0619 10:28:48.725343 198871 net.cpp:864] res2a_branch2a_relu <- res2a_branch2a_x
I0619 10:28:48.725399 198871 net.cpp:825] res2a_branch2a_relu -> res2a_branch2a_x (in-place)
I0619 10:28:48.725507 198871 net.cpp:267] Setting up res2a_branch2a_relu
I0619 10:28:48.725553 198871 net.cpp:274] Top shape: 50 64 56 56 (10035200)
I0619 10:28:48.725584 198871 net.cpp:282] Memory required for data: 1073766600
I0619 10:28:48.725620 198871 layer_factory.hpp:114] Creating layer res2a_branch2b
I0619 10:28:48.725708 198871 net.cpp:183] Creating Layer res2a_branch2b
I0619 10:28:48.725740 198871 net.cpp:864] res2a_branch2b <- res2a_branch2a_x
I0619 10:28:48.725847 198871 net.cpp:838] res2a_branch2b -> res2a_branch2b
I0619 10:28:48.741281 198871 net.cpp:267] Setting up res2a_branch2b
I0619 10:28:48.741412 198871 net.cpp:274] Top shape: 50 64 56 56 (10035200)
I0619 10:28:48.741441 198871 net.cpp:282] Memory required for data: 1113907400
I0619 10:28:48.741494 198871 layer_factory.hpp:114] Creating layer bn2a_branch2b
I0619 10:28:48.741577 198871 net.cpp:183] Creating Layer bn2a_branch2b
I0619 10:28:48.741614 198871 net.cpp:864] bn2a_branch2b <- res2a_branch2b
I0619 10:28:48.741658 198871 net.cpp:838] bn2a_branch2b -> res2a_branch2b_x
I0619 10:28:48.741806 198871 net.cpp:267] Setting up bn2a_branch2b
I0619 10:28:48.741860 198871 net.cpp:274] Top shape: 50 64 56 56 (10035200)
I0619 10:28:48.741889 198871 net.cpp:282] Memory required for data: 1154048200
I0619 10:28:48.741955 198871 layer_factory.hpp:114] Creating layer res2a_branch2b_relu
I0619 10:28:48.742022 198871 net.cpp:183] Creating Layer res2a_branch2b_relu
I0619 10:28:48.742054 198871 net.cpp:864] res2a_branch2b_relu <- res2a_branch2b_x
I0619 10:28:48.742144 198871 net.cpp:825] res2a_branch2b_relu -> res2a_branch2b_x (in-place)
I0619 10:28:48.742261 198871 net.cpp:267] Setting up res2a_branch2b_relu
I0619 10:28:48.742311 198871 net.cpp:274] Top shape: 50 64 56 56 (10035200)
I0619 10:28:48.742342 198871 net.cpp:282] Memory required for data: 1194189000
I0619 10:28:48.742408 198871 layer_factory.hpp:114] Creating layer res2a_branch2c
I0619 10:28:48.742501 198871 net.cpp:183] Creating Layer res2a_branch2c
I0619 10:28:48.742538 198871 net.cpp:864] res2a_branch2c <- res2a_branch2b_x
I0619 10:28:48.742589 198871 net.cpp:838] res2a_branch2c -> res2a_branch2c
I0619 10:28:48.750504 198871 net.cpp:267] Setting up res2a_branch2c
I0619 10:28:48.750641 198871 net.cpp:274] Top shape: 50 256 56 56 (40140800)
I0619 10:28:48.750792 198871 net.cpp:282] Memory required for data: 1354752200
I0619 10:28:48.750864 198871 layer_factory.hpp:114] Creating layer bn2a_branch2c
I0619 10:28:48.750952 198871 net.cpp:183] Creating Layer bn2a_branch2c
I0619 10:28:48.751003 198871 net.cpp:864] bn2a_branch2c <- res2a_branch2c
I0619 10:28:48.751101 198871 net.cpp:838] bn2a_branch2c -> res2a_branch2c_x
I0619 10:28:48.751282 198871 net.cpp:267] Setting up bn2a_branch2c
I0619 10:28:48.751384 198871 net.cpp:274] Top shape: 50 256 56 56 (40140800)
I0619 10:28:48.751420 198871 net.cpp:282] Memory required for data: 1515315400
I0619 10:28:48.751514 198871 layer_factory.hpp:114] Creating layer res2a
I0619 10:28:48.751600 198871 net.cpp:183] Creating Layer res2a
I0619 10:28:48.751639 198871 net.cpp:864] res2a <- res2a_branch1_x
I0619 10:28:48.751684 198871 net.cpp:864] res2a <- res2a_branch2c_x
I0619 10:28:48.751736 198871 net.cpp:838] res2a -> res2a
I0619 10:28:48.751874 198871 net.cpp:267] Setting up res2a
I0619 10:28:48.751940 198871 net.cpp:274] Top shape: 50 256 56 56 (40140800)
I0619 10:28:48.751974 198871 net.cpp:282] Memory required for data: 1675878600
I0619 10:28:48.752015 198871 layer_factory.hpp:114] Creating layer res2a_relu
I0619 10:28:48.752130 198871 net.cpp:183] Creating Layer res2a_relu
I0619 10:28:48.752182 198871 net.cpp:864] res2a_relu <- res2a
I0619 10:28:48.752235 198871 net.cpp:825] res2a_relu -> res2a (in-place)
I0619 10:28:48.752339 198871 net.cpp:267] Setting up res2a_relu
I0619 10:28:48.752395 198871 net.cpp:274] Top shape: 50 256 56 56 (40140800)
I0619 10:28:48.752430 198871 net.cpp:282] Memory required for data: 1836441800
I0619 10:28:48.752470 198871 layer_factory.hpp:114] Creating layer res2a_res2a_relu_0_split
I0619 10:28:48.752539 198871 net.cpp:183] Creating Layer res2a_res2a_relu_0_split
I0619 10:28:48.752579 198871 net.cpp:864] res2a_res2a_relu_0_split <- res2a
I0619 10:28:48.752629 198871 net.cpp:838] res2a_res2a_relu_0_split -> res2a_res2a_relu_0_split_0
I0619 10:28:48.752715 198871 net.cpp:838] res2a_res2a_relu_0_split -> res2a_res2a_relu_0_split_1
I0619 10:28:48.752801 198871 net.cpp:267] Setting up res2a_res2a_relu_0_split
I0619 10:28:48.752853 198871 net.cpp:274] Top shape: 50 256 56 56 (40140800)
I0619 10:28:48.752897 198871 net.cpp:274] Top shape: 50 256 56 56 (40140800)
I0619 10:28:48.752928 198871 net.cpp:282] Memory required for data: 2157568200
I0619 10:28:48.752967 198871 layer_factory.hpp:114] Creating layer res2b_branch2a
I0619 10:28:48.753063 198871 net.cpp:183] Creating Layer res2b_branch2a
I0619 10:28:48.753141 198871 net.cpp:864] res2b_branch2a <- res2a_res2a_relu_0_split_0
I0619 10:28:48.753213 198871 net.cpp:838] res2b_branch2a -> res2b_branch2a
I0619 10:28:48.760651 198871 net.cpp:267] Setting up res2b_branch2a
I0619 10:28:48.760797 198871 net.cpp:274] Top shape: 50 64 56 56 (10035200)
I0619 10:28:48.760841 198871 net.cpp:282] Memory required for data: 2197709000
I0619 10:28:48.760905 198871 layer_factory.hpp:114] Creating layer bn2b_branch2a
I0619 10:28:48.761008 198871 net.cpp:183] Creating Layer bn2b_branch2a
I0619 10:28:48.761054 198871 net.cpp:864] bn2b_branch2a <- res2b_branch2a
I0619 10:28:48.761183 198871 net.cpp:838] bn2b_branch2a -> res2b_branch2a_x
I0619 10:28:48.761389 198871 net.cpp:267] Setting up bn2b_branch2a
I0619 10:28:48.761469 198871 net.cpp:274] Top shape: 50 64 56 56 (10035200)
I0619 10:28:48.761513 198871 net.cpp:282] Memory required for data: 2237849800
I0619 10:28:48.761692 198871 layer_factory.hpp:114] Creating layer res2b_branch2a_relu
I0619 10:28:48.761857 198871 net.cpp:183] Creating Layer res2b_branch2a_relu
I0619 10:28:48.761936 198871 net.cpp:864] res2b_branch2a_relu <- res2b_branch2a_x
I0619 10:28:48.762004 198871 net.cpp:825] res2b_branch2a_relu -> res2b_branch2a_x (in-place)
I0619 10:28:48.762202 198871 net.cpp:267] Setting up res2b_branch2a_relu
I0619 10:28:48.762298 198871 net.cpp:274] Top shape: 50 64 56 56 (10035200)
I0619 10:28:48.762348 198871 net.cpp:282] Memory required for data: 2277990600
I0619 10:28:48.762403 198871 layer_factory.hpp:114] Creating layer res2b_branch2b
I0619 10:28:48.762677 198871 net.cpp:183] Creating Layer res2b_branch2b
I0619 10:28:48.762765 198871 net.cpp:864] res2b_branch2b <- res2b_branch2a_x
I0619 10:28:48.762918 198871 net.cpp:838] res2b_branch2b -> res2b_branch2b
I0619 10:28:48.778790 198871 net.cpp:267] Setting up res2b_branch2b
I0619 10:28:48.778944 198871 net.cpp:274] Top shape: 50 64 56 56 (10035200)
I0619 10:28:48.779002 198871 net.cpp:282] Memory required for data: 2318131400
I0619 10:28:48.779157 198871 layer_factory.hpp:114] Creating layer bn2b_branch2b
I0619 10:28:48.779305 198871 net.cpp:183] Creating Layer bn2b_branch2b
I0619 10:28:48.779422 198871 net.cpp:864] bn2b_branch2b <- res2b_branch2b
I0619 10:28:48.779523 198871 net.cpp:838] bn2b_branch2b -> res2b_branch2b_x
I0619 10:28:48.779913 198871 net.cpp:267] Setting up bn2b_branch2b
I0619 10:28:48.780066 198871 net.cpp:274] Top shape: 50 64 56 56 (10035200)
I0619 10:28:48.780169 198871 net.cpp:282] Memory required for data: 2358272200
I0619 10:28:48.780282 198871 layer_factory.hpp:114] Creating layer res2b_branch2b_relu
I0619 10:28:48.780416 198871 net.cpp:183] Creating Layer res2b_branch2b_relu
I0619 10:28:48.780500 198871 net.cpp:864] res2b_branch2b_relu <- res2b_branch2b_x
I0619 10:28:48.780596 198871 net.cpp:825] res2b_branch2b_relu -> res2b_branch2b_x (in-place)
I0619 10:28:48.780745 198871 net.cpp:267] Setting up res2b_branch2b_relu
I0619 10:28:48.780853 198871 net.cpp:274] Top shape: 50 64 56 56 (10035200)
I0619 10:28:48.780920 198871 net.cpp:282] Memory required for data: 2398413000
I0619 10:28:48.780974 198871 layer_factory.hpp:114] Creating layer res2b_branch2c
I0619 10:28:48.781142 198871 net.cpp:183] Creating Layer res2b_branch2c
I0619 10:28:48.781220 198871 net.cpp:864] res2b_branch2c <- res2b_branch2b_x
I0619 10:28:48.781293 198871 net.cpp:838] res2b_branch2c -> res2b_branch2c
I0619 10:28:48.789271 198871 net.cpp:267] Setting up res2b_branch2c
I0619 10:28:48.789422 198871 net.cpp:274] Top shape: 50 256 56 56 (40140800)
I0619 10:28:48.789489 198871 net.cpp:282] Memory required for data: 2558976200
I0619 10:28:48.789574 198871 layer_factory.hpp:114] Creating layer bn2b_branch2c
I0619 10:28:48.789700 198871 net.cpp:183] Creating Layer bn2b_branch2c
I0619 10:28:48.789777 198871 net.cpp:864] bn2b_branch2c <- res2b_branch2c
I0619 10:28:48.789849 198871 net.cpp:838] bn2b_branch2c -> res2b_branch2c_x
I0619 10:28:48.790199 198871 net.cpp:267] Setting up bn2b_branch2c
I0619 10:28:48.790370 198871 net.cpp:274] Top shape: 50 256 56 56 (40140800)
I0619 10:28:48.790463 198871 net.cpp:282] Memory required for data: 2719539400
I0619 10:28:48.790618 198871 layer_factory.hpp:114] Creating layer res2b
I0619 10:28:48.790714 198871 net.cpp:183] Creating Layer res2b
I0619 10:28:48.790777 198871 net.cpp:864] res2b <- res2a_res2a_relu_0_split_1
I0619 10:28:48.790848 198871 net.cpp:864] res2b <- res2b_branch2c_x
I0619 10:28:48.790942 198871 net.cpp:838] res2b -> res2b
I0619 10:28:48.791123 198871 net.cpp:267] Setting up res2b
I0619 10:28:48.791249 198871 net.cpp:274] Top shape: 50 256 56 56 (40140800)
I0619 10:28:48.791334 198871 net.cpp:282] Memory required for data: 2880102600
I0619 10:28:48.791404 198871 layer_factory.hpp:114] Creating layer res2b_relu
I0619 10:28:48.791529 198871 net.cpp:183] Creating Layer res2b_relu
I0619 10:28:48.791611 198871 net.cpp:864] res2b_relu <- res2b
I0619 10:28:48.791721 198871 net.cpp:825] res2b_relu -> res2b (in-place)
I0619 10:28:48.791913 198871 net.cpp:267] Setting up res2b_relu
I0619 10:28:48.792038 198871 net.cpp:274] Top shape: 50 256 56 56 (40140800)
I0619 10:28:48.792117 198871 net.cpp:282] Memory required for data: 3040665800
I0619 10:28:48.792177 198871 layer_factory.hpp:114] Creating layer res2b_res2b_relu_0_split
I0619 10:28:48.792302 198871 net.cpp:183] Creating Layer res2b_res2b_relu_0_split
I0619 10:28:48.792361 198871 net.cpp:864] res2b_res2b_relu_0_split <- res2b
I0619 10:28:48.792482 198871 net.cpp:838] res2b_res2b_relu_0_split -> res2b_res2b_relu_0_split_0
I0619 10:28:48.792805 198871 net.cpp:838] res2b_res2b_relu_0_split -> res2b_res2b_relu_0_split_1
I0619 10:28:48.793200 198871 net.cpp:267] Setting up res2b_res2b_relu_0_split
I0619 10:28:48.793370 198871 net.cpp:274] Top shape: 50 256 56 56 (40140800)
I0619 10:28:48.793429 198871 net.cpp:274] Top shape: 50 256 56 56 (40140800)
I0619 10:28:48.793473 198871 net.cpp:282] Memory required for data: 3361792200
I0619 10:28:48.793527 198871 layer_factory.hpp:114] Creating layer res2c_branch2a
I0619 10:28:48.793689 198871 net.cpp:183] Creating Layer res2c_branch2a
I0619 10:28:48.793859 198871 net.cpp:864] res2c_branch2a <- res2b_res2b_relu_0_split_0
I0619 10:28:48.793962 198871 net.cpp:838] res2c_branch2a -> res2c_branch2a
I0619 10:28:48.801668 198871 net.cpp:267] Setting up res2c_branch2a
I0619 10:28:48.801815 198871 net.cpp:274] Top shape: 50 64 56 56 (10035200)
I0619 10:28:48.801864 198871 net.cpp:282] Memory required for data: 3401933000
I0619 10:28:48.801937 198871 layer_factory.hpp:114] Creating layer bn2c_branch2a
I0619 10:28:48.802053 198871 net.cpp:183] Creating Layer bn2c_branch2a
I0619 10:28:48.802156 198871 net.cpp:864] bn2c_branch2a <- res2c_branch2a
I0619 10:28:48.802271 198871 net.cpp:838] bn2c_branch2a -> res2c_branch2a_x
I0619 10:28:48.802520 198871 net.cpp:267] Setting up bn2c_branch2a
I0619 10:28:48.802646 198871 net.cpp:274] Top shape: 50 64 56 56 (10035200)
I0619 10:28:48.802767 198871 net.cpp:282] Memory required for data: 3442073800
I0619 10:28:48.802953 198871 layer_factory.hpp:114] Creating layer res2c_branch2a_relu
I0619 10:28:48.803159 198871 net.cpp:183] Creating Layer res2c_branch2a_relu
I0619 10:28:48.803270 198871 net.cpp:864] res2c_branch2a_relu <- res2c_branch2a_x
I0619 10:28:48.803362 198871 net.cpp:825] res2c_branch2a_relu -> res2c_branch2a_x (in-place)
I0619 10:28:48.803567 198871 net.cpp:267] Setting up res2c_branch2a_relu
I0619 10:28:48.803666 198871 net.cpp:274] Top shape: 50 64 56 56 (10035200)
I0619 10:28:48.803726 198871 net.cpp:282] Memory required for data: 3482214600
I0619 10:28:48.803813 198871 layer_factory.hpp:114] Creating layer res2c_branch2b
I0619 10:28:48.804018 198871 net.cpp:183] Creating Layer res2c_branch2b
I0619 10:28:48.804155 198871 net.cpp:864] res2c_branch2b <- res2c_branch2a_x
I0619 10:28:48.804249 198871 net.cpp:838] res2c_branch2b -> res2c_branch2b
I0619 10:28:48.819911 198871 net.cpp:267] Setting up res2c_branch2b
I0619 10:28:48.820066 198871 net.cpp:274] Top shape: 50 64 56 56 (10035200)
I0619 10:28:48.820147 198871 net.cpp:282] Memory required for data: 3522355400
I0619 10:28:48.820214 198871 layer_factory.hpp:114] Creating layer bn2c_branch2b
I0619 10:28:48.820294 198871 net.cpp:183] Creating Layer bn2c_branch2b
I0619 10:28:48.820336 198871 net.cpp:864] bn2c_branch2b <- res2c_branch2b
I0619 10:28:48.820406 198871 net.cpp:838] bn2c_branch2b -> res2c_branch2b_x
I0619 10:28:48.820647 198871 net.cpp:267] Setting up bn2c_branch2b
I0619 10:28:48.820732 198871 net.cpp:274] Top shape: 50 64 56 56 (10035200)
I0619 10:28:48.820792 198871 net.cpp:282] Memory required for data: 3562496200
I0619 10:28:48.820883 198871 layer_factory.hpp:114] Creating layer res2c_branch2b_relu
I0619 10:28:48.821019 198871 net.cpp:183] Creating Layer res2c_branch2b_relu
I0619 10:28:48.821113 198871 net.cpp:864] res2c_branch2b_relu <- res2c_branch2b_x
I0619 10:28:48.821187 198871 net.cpp:825] res2c_branch2b_relu -> res2c_branch2b_x (in-place)
I0619 10:28:48.821306 198871 net.cpp:267] Setting up res2c_branch2b_relu
I0619 10:28:48.821379 198871 net.cpp:274] Top shape: 50 64 56 56 (10035200)
I0619 10:28:48.821439 198871 net.cpp:282] Memory required for data: 3602637000
I0619 10:28:48.821492 198871 layer_factory.hpp:114] Creating layer res2c_branch2c
I0619 10:28:48.821663 198871 net.cpp:183] Creating Layer res2c_branch2c
I0619 10:28:48.821732 198871 net.cpp:864] res2c_branch2c <- res2c_branch2b_x
I0619 10:28:48.821810 198871 net.cpp:838] res2c_branch2c -> res2c_branch2c
I0619 10:28:48.829530 198871 net.cpp:267] Setting up res2c_branch2c
I0619 10:28:48.829679 198871 net.cpp:274] Top shape: 50 256 56 56 (40140800)
I0619 10:28:48.829730 198871 net.cpp:282] Memory required for data: 3763200200
I0619 10:28:48.829967 198871 layer_factory.hpp:114] Creating layer bn2c_branch2c
I0619 10:28:48.830166 198871 net.cpp:183] Creating Layer bn2c_branch2c
I0619 10:28:48.830289 198871 net.cpp:864] bn2c_branch2c <- res2c_branch2c
I0619 10:28:48.830464 198871 net.cpp:838] bn2c_branch2c -> res2c_branch2c_x
I0619 10:28:48.830752 198871 net.cpp:267] Setting up bn2c_branch2c
I0619 10:28:48.830904 198871 net.cpp:274] Top shape: 50 256 56 56 (40140800)
I0619 10:28:48.830965 198871 net.cpp:282] Memory required for data: 3923763400
I0619 10:28:48.831207 198871 layer_factory.hpp:114] Creating layer res2c
I0619 10:28:48.831329 198871 net.cpp:183] Creating Layer res2c
I0619 10:28:48.831383 198871 net.cpp:864] res2c <- res2b_res2b_relu_0_split_1
I0619 10:28:48.831442 198871 net.cpp:864] res2c <- res2c_branch2c_x
I0619 10:28:48.831535 198871 net.cpp:838] res2c -> res2c
I0619 10:28:48.831708 198871 net.cpp:267] Setting up res2c
I0619 10:28:48.831868 198871 net.cpp:274] Top shape: 50 256 56 56 (40140800)
I0619 10:28:48.831943 198871 net.cpp:282] Memory required for data: 4084326600
I0619 10:28:48.832060 198871 layer_factory.hpp:114] Creating layer res2c_relu
I0619 10:28:48.832249 198871 net.cpp:183] Creating Layer res2c_relu
I0619 10:28:48.832366 198871 net.cpp:864] res2c_relu <- res2c
I0619 10:28:48.832437 198871 net.cpp:825] res2c_relu -> res2c (in-place)
I0619 10:28:48.832617 198871 net.cpp:267] Setting up res2c_relu
I0619 10:28:48.832756 198871 net.cpp:274] Top shape: 50 256 56 56 (40140800)
I0619 10:28:48.832859 198871 net.cpp:282] Memory required for data: 4244889800
I0619 10:28:48.832942 198871 layer_factory.hpp:114] Creating layer res2c_res2c_relu_0_split
I0619 10:28:48.833014 198871 net.cpp:183] Creating Layer res2c_res2c_relu_0_split
I0619 10:28:48.833108 198871 net.cpp:864] res2c_res2c_relu_0_split <- res2c
I0619 10:28:48.833217 198871 net.cpp:838] res2c_res2c_relu_0_split -> res2c_res2c_relu_0_split_0
I0619 10:28:48.833287 198871 net.cpp:838] res2c_res2c_relu_0_split -> res2c_res2c_relu_0_split_1
I0619 10:28:48.833408 198871 net.cpp:267] Setting up res2c_res2c_relu_0_split
I0619 10:28:48.833498 198871 net.cpp:274] Top shape: 50 256 56 56 (40140800)
I0619 10:28:48.833539 198871 net.cpp:274] Top shape: 50 256 56 56 (40140800)
I0619 10:28:48.833570 198871 net.cpp:282] Memory required for data: 4566016200
I0619 10:28:48.833606 198871 layer_factory.hpp:114] Creating layer res3a_branch1
I0619 10:28:48.833735 198871 net.cpp:183] Creating Layer res3a_branch1
I0619 10:28:48.833808 198871 net.cpp:864] res3a_branch1 <- res2c_res2c_relu_0_split_0
I0619 10:28:48.833863 198871 net.cpp:838] res3a_branch1 -> res3a_branch1
I0619 10:28:48.838708 198871 net.cpp:267] Setting up res3a_branch1
I0619 10:28:48.838832 198871 net.cpp:274] Top shape: 50 512 28 28 (20070400)
I0619 10:28:48.838863 198871 net.cpp:282] Memory required for data: 4646297800
I0619 10:28:48.838917 198871 layer_factory.hpp:114] Creating layer bn3a_branch1
I0619 10:28:48.839005 198871 net.cpp:183] Creating Layer bn3a_branch1
I0619 10:28:48.839046 198871 net.cpp:864] bn3a_branch1 <- res3a_branch1
I0619 10:28:48.839174 198871 net.cpp:838] bn3a_branch1 -> res3a_branch1_x
I0619 10:28:48.839365 198871 net.cpp:267] Setting up bn3a_branch1
I0619 10:28:48.839429 198871 net.cpp:274] Top shape: 50 512 28 28 (20070400)
I0619 10:28:48.839459 198871 net.cpp:282] Memory required for data: 4726579400
I0619 10:28:48.839534 198871 layer_factory.hpp:114] Creating layer res3a_branch2a
I0619 10:28:48.839650 198871 net.cpp:183] Creating Layer res3a_branch2a
I0619 10:28:48.839691 198871 net.cpp:864] res3a_branch2a <- res2c_res2c_relu_0_split_1
I0619 10:28:48.839740 198871 net.cpp:838] res3a_branch2a -> res3a_branch2a
I0619 10:28:48.841955 198871 net.cpp:267] Setting up res3a_branch2a
I0619 10:28:48.842118 198871 net.cpp:274] Top shape: 50 128 28 28 (5017600)
I0619 10:28:48.842152 198871 net.cpp:282] Memory required for data: 4746649800
I0619 10:28:48.842206 198871 layer_factory.hpp:114] Creating layer bn3a_branch2a
I0619 10:28:48.842275 198871 net.cpp:183] Creating Layer bn3a_branch2a
I0619 10:28:48.842412 198871 net.cpp:864] bn3a_branch2a <- res3a_branch2a
I0619 10:28:48.842495 198871 net.cpp:838] bn3a_branch2a -> res3a_branch2a_x
I0619 10:28:48.842710 198871 net.cpp:267] Setting up bn3a_branch2a
I0619 10:28:48.842829 198871 net.cpp:274] Top shape: 50 128 28 28 (5017600)
I0619 10:28:48.842870 198871 net.cpp:282] Memory required for data: 4766720200
I0619 10:28:48.843092 198871 layer_factory.hpp:114] Creating layer res3a_branch2a_relu
I0619 10:28:48.843260 198871 net.cpp:183] Creating Layer res3a_branch2a_relu
I0619 10:28:48.843394 198871 net.cpp:864] res3a_branch2a_relu <- res3a_branch2a_x
I0619 10:28:48.843483 198871 net.cpp:825] res3a_branch2a_relu -> res3a_branch2a_x (in-place)
I0619 10:28:48.843641 198871 net.cpp:267] Setting up res3a_branch2a_relu
I0619 10:28:48.843701 198871 net.cpp:274] Top shape: 50 128 28 28 (5017600)
I0619 10:28:48.843760 198871 net.cpp:282] Memory required for data: 4786790600
I0619 10:28:48.843811 198871 layer_factory.hpp:114] Creating layer res3a_branch2b
I0619 10:28:48.844183 198871 net.cpp:183] Creating Layer res3a_branch2b
I0619 10:28:48.844363 198871 net.cpp:864] res3a_branch2b <- res3a_branch2a_x
I0619 10:28:48.844434 198871 net.cpp:838] res3a_branch2b -> res3a_branch2b
I0619 10:28:48.851922 198871 net.cpp:267] Setting up res3a_branch2b
I0619 10:28:48.852054 198871 net.cpp:274] Top shape: 50 128 28 28 (5017600)
I0619 10:28:48.852118 198871 net.cpp:282] Memory required for data: 4806861000
I0619 10:28:48.852190 198871 layer_factory.hpp:114] Creating layer bn3a_branch2b
I0619 10:28:48.852298 198871 net.cpp:183] Creating Layer bn3a_branch2b
I0619 10:28:48.852358 198871 net.cpp:864] bn3a_branch2b <- res3a_branch2b
I0619 10:28:48.852429 198871 net.cpp:838] bn3a_branch2b -> res3a_branch2b_x
I0619 10:28:48.852737 198871 net.cpp:267] Setting up bn3a_branch2b
I0619 10:28:48.852900 198871 net.cpp:274] Top shape: 50 128 28 28 (5017600)
I0619 10:28:48.852947 198871 net.cpp:282] Memory required for data: 4826931400
I0619 10:28:48.853049 198871 layer_factory.hpp:114] Creating layer res3a_branch2b_relu
I0619 10:28:48.853199 198871 net.cpp:183] Creating Layer res3a_branch2b_relu
I0619 10:28:48.853286 198871 net.cpp:864] res3a_branch2b_relu <- res3a_branch2b_x
I0619 10:28:48.853356 198871 net.cpp:825] res3a_branch2b_relu -> res3a_branch2b_x (in-place)
I0619 10:28:48.853495 198871 net.cpp:267] Setting up res3a_branch2b_relu
I0619 10:28:48.853657 198871 net.cpp:274] Top shape: 50 128 28 28 (5017600)
I0619 10:28:48.853699 198871 net.cpp:282] Memory required for data: 4847001800
I0619 10:28:48.853747 198871 layer_factory.hpp:114] Creating layer res3a_branch2c
I0619 10:28:48.853907 198871 net.cpp:183] Creating Layer res3a_branch2c
I0619 10:28:48.853968 198871 net.cpp:864] res3a_branch2c <- res3a_branch2b_x
I0619 10:28:48.854066 198871 net.cpp:838] res3a_branch2c -> res3a_branch2c
I0619 10:28:48.863710 198871 net.cpp:267] Setting up res3a_branch2c
I0619 10:28:48.863852 198871 net.cpp:274] Top shape: 50 512 28 28 (20070400)
I0619 10:28:48.863889 198871 net.cpp:282] Memory required for data: 4927283400
I0619 10:28:48.863955 198871 layer_factory.hpp:114] Creating layer bn3a_branch2c
I0619 10:28:48.864056 198871 net.cpp:183] Creating Layer bn3a_branch2c
I0619 10:28:48.864147 198871 net.cpp:864] bn3a_branch2c <- res3a_branch2c
I0619 10:28:48.864241 198871 net.cpp:838] bn3a_branch2c -> res3a_branch2c_x
I0619 10:28:48.864496 198871 net.cpp:267] Setting up bn3a_branch2c
I0619 10:28:48.864634 198871 net.cpp:274] Top shape: 50 512 28 28 (20070400)
I0619 10:28:48.864681 198871 net.cpp:282] Memory required for data: 5007565000
I0619 10:28:48.864847 198871 layer_factory.hpp:114] Creating layer res3a
I0619 10:28:48.865000 198871 net.cpp:183] Creating Layer res3a
I0619 10:28:48.865113 198871 net.cpp:864] res3a <- res3a_branch1_x
I0619 10:28:48.865190 198871 net.cpp:864] res3a <- res3a_branch2c_x
I0619 10:28:48.865272 198871 net.cpp:838] res3a -> res3a
I0619 10:28:48.865423 198871 net.cpp:267] Setting up res3a
I0619 10:28:48.865504 198871 net.cpp:274] Top shape: 50 512 28 28 (20070400)
I0619 10:28:48.865661 198871 net.cpp:282] Memory required for data: 5087846600
I0619 10:28:48.865731 198871 layer_factory.hpp:114] Creating layer res3a_relu
I0619 10:28:48.865833 198871 net.cpp:183] Creating Layer res3a_relu
I0619 10:28:48.865895 198871 net.cpp:864] res3a_relu <- res3a
I0619 10:28:48.865988 198871 net.cpp:825] res3a_relu -> res3a (in-place)
I0619 10:28:48.866181 198871 net.cpp:267] Setting up res3a_relu
I0619 10:28:48.866283 198871 net.cpp:274] Top shape: 50 512 28 28 (20070400)
I0619 10:28:48.866392 198871 net.cpp:282] Memory required for data: 5168128200
I0619 10:28:48.866448 198871 layer_factory.hpp:114] Creating layer res3a_res3a_relu_0_split
I0619 10:28:48.866613 198871 net.cpp:183] Creating Layer res3a_res3a_relu_0_split
I0619 10:28:48.866866 198871 net.cpp:864] res3a_res3a_relu_0_split <- res3a
I0619 10:28:48.866935 198871 net.cpp:838] res3a_res3a_relu_0_split -> res3a_res3a_relu_0_split_0
I0619 10:28:48.867101 198871 net.cpp:838] res3a_res3a_relu_0_split -> res3a_res3a_relu_0_split_1
I0619 10:28:48.867420 198871 net.cpp:267] Setting up res3a_res3a_relu_0_split
I0619 10:28:48.867612 198871 net.cpp:274] Top shape: 50 512 28 28 (20070400)
I0619 10:28:48.867663 198871 net.cpp:274] Top shape: 50 512 28 28 (20070400)
I0619 10:28:48.867697 198871 net.cpp:282] Memory required for data: 5328691400
I0619 10:28:48.867768 198871 layer_factory.hpp:114] Creating layer res3b_branch2a
I0619 10:28:48.867897 198871 net.cpp:183] Creating Layer res3b_branch2a
I0619 10:28:48.868158 198871 net.cpp:864] res3b_branch2a <- res3a_res3a_relu_0_split_0
I0619 10:28:48.868255 198871 net.cpp:838] res3b_branch2a -> res3b_branch2a
I0619 10:28:48.878813 198871 net.cpp:267] Setting up res3b_branch2a
I0619 10:28:48.878959 198871 net.cpp:274] Top shape: 50 128 28 28 (5017600)
I0619 10:28:48.879005 198871 net.cpp:282] Memory required for data: 5348761800
I0619 10:28:48.879120 198871 layer_factory.hpp:114] Creating layer bn3b_branch2a
I0619 10:28:48.879217 198871 net.cpp:183] Creating Layer bn3b_branch2a
I0619 10:28:48.879286 198871 net.cpp:864] bn3b_branch2a <- res3b_branch2a
I0619 10:28:48.879392 198871 net.cpp:838] bn3b_branch2a -> res3b_branch2a_x
I0619 10:28:48.879634 198871 net.cpp:267] Setting up bn3b_branch2a
I0619 10:28:48.879755 198871 net.cpp:274] Top shape: 50 128 28 28 (5017600)
I0619 10:28:48.879883 198871 net.cpp:282] Memory required for data: 5368832200
I0619 10:28:48.880053 198871 layer_factory.hpp:114] Creating layer res3b_branch2a_relu
I0619 10:28:48.880198 198871 net.cpp:183] Creating Layer res3b_branch2a_relu
I0619 10:28:48.880261 198871 net.cpp:864] res3b_branch2a_relu <- res3b_branch2a_x
I0619 10:28:48.880354 198871 net.cpp:825] res3b_branch2a_relu -> res3b_branch2a_x (in-place)
I0619 10:28:48.880522 198871 net.cpp:267] Setting up res3b_branch2a_relu
I0619 10:28:48.880614 198871 net.cpp:274] Top shape: 50 128 28 28 (5017600)
I0619 10:28:48.880679 198871 net.cpp:282] Memory required for data: 5388902600
I0619 10:28:48.880738 198871 layer_factory.hpp:114] Creating layer res3b_branch2b
I0619 10:28:48.880936 198871 net.cpp:183] Creating Layer res3b_branch2b
I0619 10:28:48.881023 198871 net.cpp:864] res3b_branch2b <- res3b_branch2a_x
I0619 10:28:48.881182 198871 net.cpp:838] res3b_branch2b -> res3b_branch2b
I0619 10:28:48.888757 198871 net.cpp:267] Setting up res3b_branch2b
I0619 10:28:48.888892 198871 net.cpp:274] Top shape: 50 128 28 28 (5017600)
I0619 10:28:48.888931 198871 net.cpp:282] Memory required for data: 5408973000
I0619 10:28:48.888995 198871 layer_factory.hpp:114] Creating layer bn3b_branch2b
I0619 10:28:48.889137 198871 net.cpp:183] Creating Layer bn3b_branch2b
I0619 10:28:48.889204 198871 net.cpp:864] bn3b_branch2b <- res3b_branch2b
I0619 10:28:48.889273 198871 net.cpp:838] bn3b_branch2b -> res3b_branch2b_x
I0619 10:28:48.889570 198871 net.cpp:267] Setting up bn3b_branch2b
I0619 10:28:48.889693 198871 net.cpp:274] Top shape: 50 128 28 28 (5017600)
I0619 10:28:48.889767 198871 net.cpp:282] Memory required for data: 5429043400
I0619 10:28:48.889866 198871 layer_factory.hpp:114] Creating layer res3b_branch2b_relu
I0619 10:28:48.890120 198871 net.cpp:183] Creating Layer res3b_branch2b_relu
I0619 10:28:48.890213 198871 net.cpp:864] res3b_branch2b_relu <- res3b_branch2b_x
I0619 10:28:48.890293 198871 net.cpp:825] res3b_branch2b_relu -> res3b_branch2b_x (in-place)
I0619 10:28:48.890475 198871 net.cpp:267] Setting up res3b_branch2b_relu
I0619 10:28:48.890563 198871 net.cpp:274] Top shape: 50 128 28 28 (5017600)
I0619 10:28:48.890620 198871 net.cpp:282] Memory required for data: 5449113800
I0619 10:28:48.890676 198871 layer_factory.hpp:114] Creating layer res3b_branch2c
I0619 10:28:48.890827 198871 net.cpp:183] Creating Layer res3b_branch2c
I0619 10:28:48.890918 198871 net.cpp:864] res3b_branch2c <- res3b_branch2b_x
I0619 10:28:48.890972 198871 net.cpp:838] res3b_branch2c -> res3b_branch2c
I0619 10:28:48.901340 198871 net.cpp:267] Setting up res3b_branch2c
I0619 10:28:48.901479 198871 net.cpp:274] Top shape: 50 512 28 28 (20070400)
I0619 10:28:48.901520 198871 net.cpp:282] Memory required for data: 5529395400
I0619 10:28:48.901582 198871 layer_factory.hpp:114] Creating layer bn3b_branch2c
I0619 10:28:48.901700 198871 net.cpp:183] Creating Layer bn3b_branch2c
I0619 10:28:48.901769 198871 net.cpp:864] bn3b_branch2c <- res3b_branch2c
I0619 10:28:48.901829 198871 net.cpp:838] bn3b_branch2c -> res3b_branch2c_x
I0619 10:28:48.902024 198871 net.cpp:267] Setting up bn3b_branch2c
I0619 10:28:48.902140 198871 net.cpp:274] Top shape: 50 512 28 28 (20070400)
I0619 10:28:48.902228 198871 net.cpp:282] Memory required for data: 5609677000
I0619 10:28:48.902374 198871 layer_factory.hpp:114] Creating layer res3b
I0619 10:28:48.902456 198871 net.cpp:183] Creating Layer res3b
I0619 10:28:48.902498 198871 net.cpp:864] res3b <- res3a_res3a_relu_0_split_1
I0619 10:28:48.902541 198871 net.cpp:864] res3b <- res3b_branch2c_x
I0619 10:28:48.902595 198871 net.cpp:838] res3b -> res3b
I0619 10:28:48.902714 198871 net.cpp:267] Setting up res3b
I0619 10:28:48.902786 198871 net.cpp:274] Top shape: 50 512 28 28 (20070400)
I0619 10:28:48.902817 198871 net.cpp:282] Memory required for data: 5689958600
I0619 10:28:48.902856 198871 layer_factory.hpp:114] Creating layer res3b_relu
I0619 10:28:48.902935 198871 net.cpp:183] Creating Layer res3b_relu
I0619 10:28:48.902981 198871 net.cpp:864] res3b_relu <- res3b
I0619 10:28:48.903030 198871 net.cpp:825] res3b_relu -> res3b (in-place)
I0619 10:28:48.903157 198871 net.cpp:267] Setting up res3b_relu
I0619 10:28:48.903219 198871 net.cpp:274] Top shape: 50 512 28 28 (20070400)
I0619 10:28:48.903255 198871 net.cpp:282] Memory required for data: 5770240200
I0619 10:28:48.903297 198871 layer_factory.hpp:114] Creating layer res3b_res3b_relu_0_split
I0619 10:28:48.903403 198871 net.cpp:183] Creating Layer res3b_res3b_relu_0_split
I0619 10:28:48.903451 198871 net.cpp:864] res3b_res3b_relu_0_split <- res3b
I0619 10:28:48.903507 198871 net.cpp:838] res3b_res3b_relu_0_split -> res3b_res3b_relu_0_split_0
I0619 10:28:48.903563 198871 net.cpp:838] res3b_res3b_relu_0_split -> res3b_res3b_relu_0_split_1
I0619 10:28:48.903672 198871 net.cpp:267] Setting up res3b_res3b_relu_0_split
I0619 10:28:48.903736 198871 net.cpp:274] Top shape: 50 512 28 28 (20070400)
I0619 10:28:48.903777 198871 net.cpp:274] Top shape: 50 512 28 28 (20070400)
I0619 10:28:48.903805 198871 net.cpp:282] Memory required for data: 5930803400
I0619 10:28:48.903846 198871 layer_factory.hpp:114] Creating layer res3c_branch2a
I0619 10:28:48.903952 198871 net.cpp:183] Creating Layer res3c_branch2a
I0619 10:28:48.903998 198871 net.cpp:864] res3c_branch2a <- res3b_res3b_relu_0_split_0
I0619 10:28:48.904052 198871 net.cpp:838] res3c_branch2a -> res3c_branch2a
I0619 10:28:48.914634 198871 net.cpp:267] Setting up res3c_branch2a
I0619 10:28:48.914780 198871 net.cpp:274] Top shape: 50 128 28 28 (5017600)
I0619 10:28:48.914829 198871 net.cpp:282] Memory required for data: 5950873800
I0619 10:28:48.914898 198871 layer_factory.hpp:114] Creating layer bn3c_branch2a
I0619 10:28:48.915015 198871 net.cpp:183] Creating Layer bn3c_branch2a
I0619 10:28:48.915122 198871 net.cpp:864] bn3c_branch2a <- res3c_branch2a
I0619 10:28:48.915339 198871 net.cpp:838] bn3c_branch2a -> res3c_branch2a_x
I0619 10:28:48.915577 198871 net.cpp:267] Setting up bn3c_branch2a
I0619 10:28:48.915668 198871 net.cpp:274] Top shape: 50 128 28 28 (5017600)
I0619 10:28:48.915725 198871 net.cpp:282] Memory required for data: 5970944200
I0619 10:28:48.915854 198871 layer_factory.hpp:114] Creating layer res3c_branch2a_relu
I0619 10:28:48.915987 198871 net.cpp:183] Creating Layer res3c_branch2a_relu
I0619 10:28:48.916034 198871 net.cpp:864] res3c_branch2a_relu <- res3c_branch2a_x
I0619 10:28:48.916126 198871 net.cpp:825] res3c_branch2a_relu -> res3c_branch2a_x (in-place)
I0619 10:28:48.916259 198871 net.cpp:267] Setting up res3c_branch2a_relu
I0619 10:28:48.916326 198871 net.cpp:274] Top shape: 50 128 28 28 (5017600)
I0619 10:28:48.916357 198871 net.cpp:282] Memory required for data: 5991014600
I0619 10:28:48.916394 198871 layer_factory.hpp:114] Creating layer res3c_branch2b
I0619 10:28:48.916497 198871 net.cpp:183] Creating Layer res3c_branch2b
I0619 10:28:48.916553 198871 net.cpp:864] res3c_branch2b <- res3c_branch2a_x
I0619 10:28:48.916615 198871 net.cpp:838] res3c_branch2b -> res3c_branch2b
I0619 10:28:48.924368 198871 net.cpp:267] Setting up res3c_branch2b
I0619 10:28:48.924504 198871 net.cpp:274] Top shape: 50 128 28 28 (5017600)
I0619 10:28:48.924540 198871 net.cpp:282] Memory required for data: 6011085000
I0619 10:28:48.924597 198871 layer_factory.hpp:114] Creating layer bn3c_branch2b
I0619 10:28:48.924706 198871 net.cpp:183] Creating Layer bn3c_branch2b
I0619 10:28:48.924754 198871 net.cpp:864] bn3c_branch2b <- res3c_branch2b
I0619 10:28:48.924818 198871 net.cpp:838] bn3c_branch2b -> res3c_branch2b_x
I0619 10:28:48.925005 198871 net.cpp:267] Setting up bn3c_branch2b
I0619 10:28:48.925104 198871 net.cpp:274] Top shape: 50 128 28 28 (5017600)
I0619 10:28:48.925148 198871 net.cpp:282] Memory required for data: 6031155400
I0619 10:28:48.925230 198871 layer_factory.hpp:114] Creating layer res3c_branch2b_relu
I0619 10:28:48.925318 198871 net.cpp:183] Creating Layer res3c_branch2b_relu
I0619 10:28:48.925364 198871 net.cpp:864] res3c_branch2b_relu <- res3c_branch2b_x
I0619 10:28:48.925431 198871 net.cpp:825] res3c_branch2b_relu -> res3c_branch2b_x (in-place)
I0619 10:28:48.925576 198871 net.cpp:267] Setting up res3c_branch2b_relu
I0619 10:28:48.925669 198871 net.cpp:274] Top shape: 50 128 28 28 (5017600)
I0619 10:28:48.925703 198871 net.cpp:282] Memory required for data: 6051225800
I0619 10:28:48.925740 198871 layer_factory.hpp:114] Creating layer res3c_branch2c
I0619 10:28:48.925845 198871 net.cpp:183] Creating Layer res3c_branch2c
I0619 10:28:48.925895 198871 net.cpp:864] res3c_branch2c <- res3c_branch2b_x
I0619 10:28:48.925953 198871 net.cpp:838] res3c_branch2c -> res3c_branch2c
I0619 10:28:48.936233 198871 net.cpp:267] Setting up res3c_branch2c
I0619 10:28:48.936375 198871 net.cpp:274] Top shape: 50 512 28 28 (20070400)
I0619 10:28:48.936425 198871 net.cpp:282] Memory required for data: 6131507400
I0619 10:28:48.936498 198871 layer_factory.hpp:114] Creating layer bn3c_branch2c
I0619 10:28:48.936607 198871 net.cpp:183] Creating Layer bn3c_branch2c
I0619 10:28:48.936666 198871 net.cpp:864] bn3c_branch2c <- res3c_branch2c
I0619 10:28:48.936734 198871 net.cpp:838] bn3c_branch2c -> res3c_branch2c_x
I0619 10:28:48.936954 198871 net.cpp:267] Setting up bn3c_branch2c
I0619 10:28:48.937034 198871 net.cpp:274] Top shape: 50 512 28 28 (20070400)
I0619 10:28:48.937103 198871 net.cpp:282] Memory required for data: 6211789000
I0619 10:28:48.937197 198871 layer_factory.hpp:114] Creating layer res3c
I0619 10:28:48.937343 198871 net.cpp:183] Creating Layer res3c
I0619 10:28:48.937417 198871 net.cpp:864] res3c <- res3b_res3b_relu_0_split_1
I0619 10:28:48.937495 198871 net.cpp:864] res3c <- res3c_branch2c_x
I0619 10:28:48.937564 198871 net.cpp:838] res3c -> res3c
I0619 10:28:48.937674 198871 net.cpp:267] Setting up res3c
I0619 10:28:48.937747 198871 net.cpp:274] Top shape: 50 512 28 28 (20070400)
I0619 10:28:48.937791 198871 net.cpp:282] Memory required for data: 6292070600
I0619 10:28:48.937944 198871 layer_factory.hpp:114] Creating layer res3c_relu
I0619 10:28:48.938032 198871 net.cpp:183] Creating Layer res3c_relu
I0619 10:28:48.938118 198871 net.cpp:864] res3c_relu <- res3c
I0619 10:28:48.938179 198871 net.cpp:825] res3c_relu -> res3c (in-place)
I0619 10:28:48.938345 198871 net.cpp:267] Setting up res3c_relu
I0619 10:28:48.938490 198871 net.cpp:274] Top shape: 50 512 28 28 (20070400)
I0619 10:28:48.938580 198871 net.cpp:282] Memory required for data: 6372352200
I0619 10:28:48.938675 198871 layer_factory.hpp:114] Creating layer res3c_res3c_relu_0_split
I0619 10:28:48.938771 198871 net.cpp:183] Creating Layer res3c_res3c_relu_0_split
I0619 10:28:48.938830 198871 net.cpp:864] res3c_res3c_relu_0_split <- res3c
I0619 10:28:48.938948 198871 net.cpp:838] res3c_res3c_relu_0_split -> res3c_res3c_relu_0_split_0
I0619 10:28:48.939116 198871 net.cpp:838] res3c_res3c_relu_0_split -> res3c_res3c_relu_0_split_1
I0619 10:28:48.939374 198871 net.cpp:267] Setting up res3c_res3c_relu_0_split
I0619 10:28:48.939517 198871 net.cpp:274] Top shape: 50 512 28 28 (20070400)
I0619 10:28:48.939637 198871 net.cpp:274] Top shape: 50 512 28 28 (20070400)
I0619 10:28:48.939687 198871 net.cpp:282] Memory required for data: 6532915400
I0619 10:28:48.939736 198871 layer_factory.hpp:114] Creating layer res3d_branch2a
I0619 10:28:48.939893 198871 net.cpp:183] Creating Layer res3d_branch2a
I0619 10:28:48.939990 198871 net.cpp:864] res3d_branch2a <- res3c_res3c_relu_0_split_0
I0619 10:28:48.940096 198871 net.cpp:838] res3d_branch2a -> res3d_branch2a
I0619 10:28:48.949481 198871 net.cpp:267] Setting up res3d_branch2a
I0619 10:28:48.949617 198871 net.cpp:274] Top shape: 50 128 28 28 (5017600)
I0619 10:28:48.949651 198871 net.cpp:282] Memory required for data: 6552985800
I0619 10:28:48.949705 198871 layer_factory.hpp:114] Creating layer bn3d_branch2a
I0619 10:28:48.949800 198871 net.cpp:183] Creating Layer bn3d_branch2a
I0619 10:28:48.949844 198871 net.cpp:864] bn3d_branch2a <- res3d_branch2a
I0619 10:28:48.949887 198871 net.cpp:838] bn3d_branch2a -> res3d_branch2a_x
I0619 10:28:48.950063 198871 net.cpp:267] Setting up bn3d_branch2a
I0619 10:28:48.950202 198871 net.cpp:274] Top shape: 50 128 28 28 (5017600)
I0619 10:28:48.950235 198871 net.cpp:282] Memory required for data: 6573056200
I0619 10:28:48.950378 198871 layer_factory.hpp:114] Creating layer res3d_branch2a_relu
I0619 10:28:48.950490 198871 net.cpp:183] Creating Layer res3d_branch2a_relu
I0619 10:28:48.950572 198871 net.cpp:864] res3d_branch2a_relu <- res3d_branch2a_x
I0619 10:28:48.950670 198871 net.cpp:825] res3d_branch2a_relu -> res3d_branch2a_x (in-place)
I0619 10:28:48.950835 198871 net.cpp:267] Setting up res3d_branch2a_relu
I0619 10:28:48.951102 198871 net.cpp:274] Top shape: 50 128 28 28 (5017600)
I0619 10:28:48.951161 198871 net.cpp:282] Memory required for data: 6593126600
I0619 10:28:48.951218 198871 layer_factory.hpp:114] Creating layer res3d_branch2b
I0619 10:28:48.951369 198871 net.cpp:183] Creating Layer res3d_branch2b
I0619 10:28:48.951443 198871 net.cpp:864] res3d_branch2b <- res3d_branch2a_x
I0619 10:28:48.951539 198871 net.cpp:838] res3d_branch2b -> res3d_branch2b
I0619 10:28:48.959226 198871 net.cpp:267] Setting up res3d_branch2b
I0619 10:28:48.959364 198871 net.cpp:274] Top shape: 50 128 28 28 (5017600)
I0619 10:28:48.959408 198871 net.cpp:282] Memory required for data: 6613197000
I0619 10:28:48.959477 198871 layer_factory.hpp:114] Creating layer bn3d_branch2b
I0619 10:28:48.959615 198871 net.cpp:183] Creating Layer bn3d_branch2b
I0619 10:28:48.959703 198871 net.cpp:864] bn3d_branch2b <- res3d_branch2b
I0619 10:28:48.959780 198871 net.cpp:838] bn3d_branch2b -> res3d_branch2b_x
I0619 10:28:48.960060 198871 net.cpp:267] Setting up bn3d_branch2b
I0619 10:28:48.960242 198871 net.cpp:274] Top shape: 50 128 28 28 (5017600)
I0619 10:28:48.960325 198871 net.cpp:282] Memory required for data: 6633267400
I0619 10:28:48.960459 198871 layer_factory.hpp:114] Creating layer res3d_branch2b_relu
I0619 10:28:48.960577 198871 net.cpp:183] Creating Layer res3d_branch2b_relu
I0619 10:28:48.960744 198871 net.cpp:864] res3d_branch2b_relu <- res3d_branch2b_x
I0619 10:28:48.960882 198871 net.cpp:825] res3d_branch2b_relu -> res3d_branch2b_x (in-place)
I0619 10:28:48.961102 198871 net.cpp:267] Setting up res3d_branch2b_relu
I0619 10:28:48.961222 198871 net.cpp:274] Top shape: 50 128 28 28 (5017600)
I0619 10:28:48.961264 198871 net.cpp:282] Memory required for data: 6653337800
I0619 10:28:48.961341 198871 layer_factory.hpp:114] Creating layer res3d_branch2c
I0619 10:28:48.961580 198871 net.cpp:183] Creating Layer res3d_branch2c
I0619 10:28:48.961695 198871 net.cpp:864] res3d_branch2c <- res3d_branch2b_x
I0619 10:28:48.961781 198871 net.cpp:838] res3d_branch2c -> res3d_branch2c
I0619 10:28:48.970953 198871 net.cpp:267] Setting up res3d_branch2c
I0619 10:28:48.971163 198871 net.cpp:274] Top shape: 50 512 28 28 (20070400)
I0619 10:28:48.971210 198871 net.cpp:282] Memory required for data: 6733619400
I0619 10:28:48.971290 198871 layer_factory.hpp:114] Creating layer bn3d_branch2c
I0619 10:28:48.971405 198871 net.cpp:183] Creating Layer bn3d_branch2c
I0619 10:28:48.971491 198871 net.cpp:864] bn3d_branch2c <- res3d_branch2c
I0619 10:28:48.971580 198871 net.cpp:838] bn3d_branch2c -> res3d_branch2c_x
I0619 10:28:48.971829 198871 net.cpp:267] Setting up bn3d_branch2c
I0619 10:28:48.971984 198871 net.cpp:274] Top shape: 50 512 28 28 (20070400)
I0619 10:28:48.972121 198871 net.cpp:282] Memory required for data: 6813901000
I0619 10:28:48.972324 198871 layer_factory.hpp:114] Creating layer res3d
I0619 10:28:48.972455 198871 net.cpp:183] Creating Layer res3d
I0619 10:28:48.972535 198871 net.cpp:864] res3d <- res3c_res3c_relu_0_split_1
I0619 10:28:48.972622 198871 net.cpp:864] res3d <- res3d_branch2c_x
I0619 10:28:48.972719 198871 net.cpp:838] res3d -> res3d
I0619 10:28:48.972888 198871 net.cpp:267] Setting up res3d
I0619 10:28:48.972996 198871 net.cpp:274] Top shape: 50 512 28 28 (20070400)
I0619 10:28:48.973057 198871 net.cpp:282] Memory required for data: 6894182600
I0619 10:28:48.973163 198871 layer_factory.hpp:114] Creating layer res3d_relu
I0619 10:28:48.973302 198871 net.cpp:183] Creating Layer res3d_relu
I0619 10:28:48.973388 198871 net.cpp:864] res3d_relu <- res3d
I0619 10:28:48.973486 198871 net.cpp:825] res3d_relu -> res3d (in-place)
I0619 10:28:48.973673 198871 net.cpp:267] Setting up res3d_relu
I0619 10:28:48.973796 198871 net.cpp:274] Top shape: 50 512 28 28 (20070400)
I0619 10:28:48.973857 198871 net.cpp:282] Memory required for data: 6974464200
I0619 10:28:48.973907 198871 layer_factory.hpp:114] Creating layer res3d_res3d_relu_0_split
I0619 10:28:48.973996 198871 net.cpp:183] Creating Layer res3d_res3d_relu_0_split
I0619 10:28:48.974059 198871 net.cpp:864] res3d_res3d_relu_0_split <- res3d
I0619 10:28:48.974223 198871 net.cpp:838] res3d_res3d_relu_0_split -> res3d_res3d_relu_0_split_0
I0619 10:28:48.974331 198871 net.cpp:838] res3d_res3d_relu_0_split -> res3d_res3d_relu_0_split_1
I0619 10:28:48.974741 198871 net.cpp:267] Setting up res3d_res3d_relu_0_split
I0619 10:28:48.974827 198871 net.cpp:274] Top shape: 50 512 28 28 (20070400)
I0619 10:28:48.974881 198871 net.cpp:274] Top shape: 50 512 28 28 (20070400)
I0619 10:28:48.974920 198871 net.cpp:282] Memory required for data: 7135027400
I0619 10:28:48.974967 198871 layer_factory.hpp:114] Creating layer res4a_branch1
I0619 10:28:48.975132 198871 net.cpp:183] Creating Layer res4a_branch1
I0619 10:28:48.975203 198871 net.cpp:864] res4a_branch1 <- res3d_res3d_relu_0_split_0
I0619 10:28:48.975294 198871 net.cpp:838] res4a_branch1 -> res4a_branch1
I0619 10:28:48.989439 198871 net.cpp:267] Setting up res4a_branch1
I0619 10:28:48.989573 198871 net.cpp:274] Top shape: 50 1024 14 14 (10035200)
I0619 10:28:48.989609 198871 net.cpp:282] Memory required for data: 7175168200
I0619 10:28:48.989671 198871 layer_factory.hpp:114] Creating layer bn4a_branch1
I0619 10:28:48.989776 198871 net.cpp:183] Creating Layer bn4a_branch1
I0619 10:28:48.989830 198871 net.cpp:864] bn4a_branch1 <- res4a_branch1
I0619 10:28:48.989907 198871 net.cpp:838] bn4a_branch1 -> res4a_branch1_x
I0619 10:28:48.990378 198871 net.cpp:267] Setting up bn4a_branch1
I0619 10:28:48.990490 198871 net.cpp:274] Top shape: 50 1024 14 14 (10035200)
I0619 10:28:48.990535 198871 net.cpp:282] Memory required for data: 7215309000
I0619 10:28:48.990627 198871 layer_factory.hpp:114] Creating layer res4a_branch2a
I0619 10:28:48.990787 198871 net.cpp:183] Creating Layer res4a_branch2a
I0619 10:28:48.990845 198871 net.cpp:864] res4a_branch2a <- res3d_res3d_relu_0_split_1
I0619 10:28:48.990916 198871 net.cpp:838] res4a_branch2a -> res4a_branch2a
I0619 10:28:48.995589 198871 net.cpp:267] Setting up res4a_branch2a
I0619 10:28:48.995720 198871 net.cpp:274] Top shape: 50 256 14 14 (2508800)
I0619 10:28:48.995753 198871 net.cpp:282] Memory required for data: 7225344200
I0619 10:28:48.995807 198871 layer_factory.hpp:114] Creating layer bn4a_branch2a
I0619 10:28:48.995928 198871 net.cpp:183] Creating Layer bn4a_branch2a
I0619 10:28:48.996001 198871 net.cpp:864] bn4a_branch2a <- res4a_branch2a
I0619 10:28:48.996096 198871 net.cpp:838] bn4a_branch2a -> res4a_branch2a_x
I0619 10:28:48.996379 198871 net.cpp:267] Setting up bn4a_branch2a
I0619 10:28:48.996551 198871 net.cpp:274] Top shape: 50 256 14 14 (2508800)
I0619 10:28:48.996605 198871 net.cpp:282] Memory required for data: 7235379400
I0619 10:28:48.996737 198871 layer_factory.hpp:114] Creating layer res4a_branch2a_relu
I0619 10:28:48.996860 198871 net.cpp:183] Creating Layer res4a_branch2a_relu
I0619 10:28:48.996925 198871 net.cpp:864] res4a_branch2a_relu <- res4a_branch2a_x
I0619 10:28:48.996984 198871 net.cpp:825] res4a_branch2a_relu -> res4a_branch2a_x (in-place)
I0619 10:28:48.997128 198871 net.cpp:267] Setting up res4a_branch2a_relu
I0619 10:28:48.997252 198871 net.cpp:274] Top shape: 50 256 14 14 (2508800)
I0619 10:28:48.997341 198871 net.cpp:282] Memory required for data: 7245414600
I0619 10:28:48.997400 198871 layer_factory.hpp:114] Creating layer res4a_branch2b
I0619 10:28:48.997609 198871 net.cpp:183] Creating Layer res4a_branch2b
I0619 10:28:48.997668 198871 net.cpp:864] res4a_branch2b <- res4a_branch2a_x
I0619 10:28:48.997762 198871 net.cpp:838] res4a_branch2b -> res4a_branch2b
I0619 10:28:49.015182 198871 net.cpp:267] Setting up res4a_branch2b
I0619 10:28:49.015319 198871 net.cpp:274] Top shape: 50 256 14 14 (2508800)
I0619 10:28:49.015362 198871 net.cpp:282] Memory required for data: 7255449800
I0619 10:28:49.015427 198871 layer_factory.hpp:114] Creating layer bn4a_branch2b
I0619 10:28:49.015512 198871 net.cpp:183] Creating Layer bn4a_branch2b
I0619 10:28:49.015563 198871 net.cpp:864] bn4a_branch2b <- res4a_branch2b
I0619 10:28:49.015650 198871 net.cpp:838] bn4a_branch2b -> res4a_branch2b_x
I0619 10:28:49.015916 198871 net.cpp:267] Setting up bn4a_branch2b
I0619 10:28:49.016052 198871 net.cpp:274] Top shape: 50 256 14 14 (2508800)
I0619 10:28:49.016165 198871 net.cpp:282] Memory required for data: 7265485000
I0619 10:28:49.016325 198871 layer_factory.hpp:114] Creating layer res4a_branch2b_relu
I0619 10:28:49.016491 198871 net.cpp:183] Creating Layer res4a_branch2b_relu
I0619 10:28:49.016552 198871 net.cpp:864] res4a_branch2b_relu <- res4a_branch2b_x
I0619 10:28:49.016649 198871 net.cpp:825] res4a_branch2b_relu -> res4a_branch2b_x (in-place)
I0619 10:28:49.016839 198871 net.cpp:267] Setting up res4a_branch2b_relu
I0619 10:28:49.016933 198871 net.cpp:274] Top shape: 50 256 14 14 (2508800)
I0619 10:28:49.017024 198871 net.cpp:282] Memory required for data: 7275520200
I0619 10:28:49.017148 198871 layer_factory.hpp:114] Creating layer res4a_branch2c
I0619 10:28:49.017343 198871 net.cpp:183] Creating Layer res4a_branch2c
I0619 10:28:49.017427 198871 net.cpp:864] res4a_branch2c <- res4a_branch2b_x
I0619 10:28:49.017508 198871 net.cpp:838] res4a_branch2c -> res4a_branch2c
I0619 10:28:49.033538 198871 net.cpp:267] Setting up res4a_branch2c
I0619 10:28:49.033685 198871 net.cpp:274] Top shape: 50 1024 14 14 (10035200)
I0619 10:28:49.033726 198871 net.cpp:282] Memory required for data: 7315661000
I0619 10:28:49.033795 198871 layer_factory.hpp:114] Creating layer bn4a_branch2c
I0619 10:28:49.034024 198871 net.cpp:183] Creating Layer bn4a_branch2c
I0619 10:28:49.034152 198871 net.cpp:864] bn4a_branch2c <- res4a_branch2c
I0619 10:28:49.034236 198871 net.cpp:838] bn4a_branch2c -> res4a_branch2c_x
I0619 10:28:49.034595 198871 net.cpp:267] Setting up bn4a_branch2c
I0619 10:28:49.034745 198871 net.cpp:274] Top shape: 50 1024 14 14 (10035200)
I0619 10:28:49.034792 198871 net.cpp:282] Memory required for data: 7355801800
I0619 10:28:49.034960 198871 layer_factory.hpp:114] Creating layer res4a
I0619 10:28:49.035106 198871 net.cpp:183] Creating Layer res4a
I0619 10:28:49.035320 198871 net.cpp:864] res4a <- res4a_branch1_x
I0619 10:28:49.035384 198871 net.cpp:864] res4a <- res4a_branch2c_x
I0619 10:28:49.035451 198871 net.cpp:838] res4a -> res4a
I0619 10:28:49.035595 198871 net.cpp:267] Setting up res4a
I0619 10:28:49.035673 198871 net.cpp:274] Top shape: 50 1024 14 14 (10035200)
I0619 10:28:49.035718 198871 net.cpp:282] Memory required for data: 7395942600
I0619 10:28:49.035782 198871 layer_factory.hpp:114] Creating layer res4a_relu
I0619 10:28:49.035930 198871 net.cpp:183] Creating Layer res4a_relu
I0619 10:28:49.036047 198871 net.cpp:864] res4a_relu <- res4a
I0619 10:28:49.036197 198871 net.cpp:825] res4a_relu -> res4a (in-place)
I0619 10:28:49.036362 198871 net.cpp:267] Setting up res4a_relu
I0619 10:28:49.036548 198871 net.cpp:274] Top shape: 50 1024 14 14 (10035200)
I0619 10:28:49.036595 198871 net.cpp:282] Memory required for data: 7436083400
I0619 10:28:49.036671 198871 layer_factory.hpp:114] Creating layer res4a_res4a_relu_0_split
I0619 10:28:49.036808 198871 net.cpp:183] Creating Layer res4a_res4a_relu_0_split
I0619 10:28:49.037065 198871 net.cpp:864] res4a_res4a_relu_0_split <- res4a
I0619 10:28:49.037192 198871 net.cpp:838] res4a_res4a_relu_0_split -> res4a_res4a_relu_0_split_0
I0619 10:28:49.037288 198871 net.cpp:838] res4a_res4a_relu_0_split -> res4a_res4a_relu_0_split_1
I0619 10:28:49.037581 198871 net.cpp:267] Setting up res4a_res4a_relu_0_split
I0619 10:28:49.037755 198871 net.cpp:274] Top shape: 50 1024 14 14 (10035200)
I0619 10:28:49.037837 198871 net.cpp:274] Top shape: 50 1024 14 14 (10035200)
I0619 10:28:49.037873 198871 net.cpp:282] Memory required for data: 7516365000
I0619 10:28:49.037914 198871 layer_factory.hpp:114] Creating layer res4b_branch2a
I0619 10:28:49.038066 198871 net.cpp:183] Creating Layer res4b_branch2a
I0619 10:28:49.038318 198871 net.cpp:864] res4b_branch2a <- res4a_res4a_relu_0_split_0
I0619 10:28:49.038439 198871 net.cpp:838] res4b_branch2a -> res4b_branch2a
I0619 10:28:49.054396 198871 net.cpp:267] Setting up res4b_branch2a
I0619 10:28:49.054558 198871 net.cpp:274] Top shape: 50 256 14 14 (2508800)
I0619 10:28:49.054601 198871 net.cpp:282] Memory required for data: 7526400200
I0619 10:28:49.054666 198871 layer_factory.hpp:114] Creating layer bn4b_branch2a
I0619 10:28:49.054749 198871 net.cpp:183] Creating Layer bn4b_branch2a
I0619 10:28:49.054801 198871 net.cpp:864] bn4b_branch2a <- res4b_branch2a
I0619 10:28:49.054883 198871 net.cpp:838] bn4b_branch2a -> res4b_branch2a_x
I0619 10:28:49.055142 198871 net.cpp:267] Setting up bn4b_branch2a
I0619 10:28:49.055275 198871 net.cpp:274] Top shape: 50 256 14 14 (2508800)
I0619 10:28:49.055325 198871 net.cpp:282] Memory required for data: 7536435400
I0619 10:28:49.055485 198871 layer_factory.hpp:114] Creating layer res4b_branch2a_relu
I0619 10:28:49.055593 198871 net.cpp:183] Creating Layer res4b_branch2a_relu
I0619 10:28:49.055652 198871 net.cpp:864] res4b_branch2a_relu <- res4b_branch2a_x
I0619 10:28:49.055722 198871 net.cpp:825] res4b_branch2a_relu -> res4b_branch2a_x (in-place)
I0619 10:28:49.055819 198871 net.cpp:267] Setting up res4b_branch2a_relu
I0619 10:28:49.055877 198871 net.cpp:274] Top shape: 50 256 14 14 (2508800)
I0619 10:28:49.055913 198871 net.cpp:282] Memory required for data: 7546470600
I0619 10:28:49.055953 198871 layer_factory.hpp:114] Creating layer res4b_branch2b
I0619 10:28:49.056066 198871 net.cpp:183] Creating Layer res4b_branch2b
I0619 10:28:49.056147 198871 net.cpp:864] res4b_branch2b <- res4b_branch2a_x
I0619 10:28:49.056310 198871 net.cpp:838] res4b_branch2b -> res4b_branch2b
I0619 10:28:49.073705 198871 net.cpp:267] Setting up res4b_branch2b
I0619 10:28:49.073835 198871 net.cpp:274] Top shape: 50 256 14 14 (2508800)
I0619 10:28:49.073871 198871 net.cpp:282] Memory required for data: 7556505800
I0619 10:28:49.073926 198871 layer_factory.hpp:114] Creating layer bn4b_branch2b
I0619 10:28:49.074048 198871 net.cpp:183] Creating Layer bn4b_branch2b
I0619 10:28:49.074175 198871 net.cpp:864] bn4b_branch2b <- res4b_branch2b
I0619 10:28:49.074272 198871 net.cpp:838] bn4b_branch2b -> res4b_branch2b_x
I0619 10:28:49.074620 198871 net.cpp:267] Setting up bn4b_branch2b
I0619 10:28:49.074769 198871 net.cpp:274] Top shape: 50 256 14 14 (2508800)
I0619 10:28:49.074820 198871 net.cpp:282] Memory required for data: 7566541000
I0619 10:28:49.074919 198871 layer_factory.hpp:114] Creating layer res4b_branch2b_relu
I0619 10:28:49.075057 198871 net.cpp:183] Creating Layer res4b_branch2b_relu
I0619 10:28:49.075156 198871 net.cpp:864] res4b_branch2b_relu <- res4b_branch2b_x
I0619 10:28:49.075232 198871 net.cpp:825] res4b_branch2b_relu -> res4b_branch2b_x (in-place)
I0619 10:28:49.075393 198871 net.cpp:267] Setting up res4b_branch2b_relu
I0619 10:28:49.075470 198871 net.cpp:274] Top shape: 50 256 14 14 (2508800)
I0619 10:28:49.075527 198871 net.cpp:282] Memory required for data: 7576576200
I0619 10:28:49.075588 198871 layer_factory.hpp:114] Creating layer res4b_branch2c
I0619 10:28:49.075767 198871 net.cpp:183] Creating Layer res4b_branch2c
I0619 10:28:49.075845 198871 net.cpp:864] res4b_branch2c <- res4b_branch2b_x
I0619 10:28:49.075947 198871 net.cpp:838] res4b_branch2c -> res4b_branch2c
I0619 10:28:49.092015 198871 net.cpp:267] Setting up res4b_branch2c
I0619 10:28:49.092192 198871 net.cpp:274] Top shape: 50 1024 14 14 (10035200)
I0619 10:28:49.092231 198871 net.cpp:282] Memory required for data: 7616717000
I0619 10:28:49.092285 198871 layer_factory.hpp:114] Creating layer bn4b_branch2c
I0619 10:28:49.092412 198871 net.cpp:183] Creating Layer bn4b_branch2c
I0619 10:28:49.092497 198871 net.cpp:864] bn4b_branch2c <- res4b_branch2c
I0619 10:28:49.092599 198871 net.cpp:838] bn4b_branch2c -> res4b_branch2c_x
I0619 10:28:49.092974 198871 net.cpp:267] Setting up bn4b_branch2c
I0619 10:28:49.093150 198871 net.cpp:274] Top shape: 50 1024 14 14 (10035200)
I0619 10:28:49.093236 198871 net.cpp:282] Memory required for data: 7656857800
I0619 10:28:49.093346 198871 layer_factory.hpp:114] Creating layer res4b
I0619 10:28:49.093431 198871 net.cpp:183] Creating Layer res4b
I0619 10:28:49.093472 198871 net.cpp:864] res4b <- res4a_res4a_relu_0_split_1
I0619 10:28:49.093511 198871 net.cpp:864] res4b <- res4b_branch2c_x
I0619 10:28:49.093556 198871 net.cpp:838] res4b -> res4b
I0619 10:28:49.093678 198871 net.cpp:267] Setting up res4b
I0619 10:28:49.093760 198871 net.cpp:274] Top shape: 50 1024 14 14 (10035200)
I0619 10:28:49.093852 198871 net.cpp:282] Memory required for data: 7696998600
I0619 10:28:49.093910 198871 layer_factory.hpp:114] Creating layer res4b_relu
I0619 10:28:49.094135 198871 net.cpp:183] Creating Layer res4b_relu
I0619 10:28:49.094254 198871 net.cpp:864] res4b_relu <- res4b
I0619 10:28:49.094362 198871 net.cpp:825] res4b_relu -> res4b (in-place)
I0619 10:28:49.094506 198871 net.cpp:267] Setting up res4b_relu
I0619 10:28:49.094650 198871 net.cpp:274] Top shape: 50 1024 14 14 (10035200)
I0619 10:28:49.094746 198871 net.cpp:282] Memory required for data: 7737139400
I0619 10:28:49.094818 198871 layer_factory.hpp:114] Creating layer res4b_res4b_relu_0_split
I0619 10:28:49.095103 198871 net.cpp:183] Creating Layer res4b_res4b_relu_0_split
I0619 10:28:49.095254 198871 net.cpp:864] res4b_res4b_relu_0_split <- res4b
I0619 10:28:49.095356 198871 net.cpp:838] res4b_res4b_relu_0_split -> res4b_res4b_relu_0_split_0
I0619 10:28:49.095445 198871 net.cpp:838] res4b_res4b_relu_0_split -> res4b_res4b_relu_0_split_1
I0619 10:28:49.095727 198871 net.cpp:267] Setting up res4b_res4b_relu_0_split
I0619 10:28:49.095886 198871 net.cpp:274] Top shape: 50 1024 14 14 (10035200)
I0619 10:28:49.096153 198871 net.cpp:274] Top shape: 50 1024 14 14 (10035200)
I0619 10:28:49.096356 198871 net.cpp:282] Memory required for data: 7817421000
I0619 10:28:49.096453 198871 layer_factory.hpp:114] Creating layer res4c_branch2a
I0619 10:28:49.096652 198871 net.cpp:183] Creating Layer res4c_branch2a
I0619 10:28:49.096724 198871 net.cpp:864] res4c_branch2a <- res4b_res4b_relu_0_split_0
I0619 10:28:49.096801 198871 net.cpp:838] res4c_branch2a -> res4c_branch2a
I0619 10:28:49.112501 198871 net.cpp:267] Setting up res4c_branch2a
I0619 10:28:49.112649 198871 net.cpp:274] Top shape: 50 256 14 14 (2508800)
I0619 10:28:49.112691 198871 net.cpp:282] Memory required for data: 7827456200
I0619 10:28:49.112759 198871 layer_factory.hpp:114] Creating layer bn4c_branch2a
I0619 10:28:49.112841 198871 net.cpp:183] Creating Layer bn4c_branch2a
I0619 10:28:49.112887 198871 net.cpp:864] bn4c_branch2a <- res4c_branch2a
I0619 10:28:49.112973 198871 net.cpp:838] bn4c_branch2a -> res4c_branch2a_x
I0619 10:28:49.113323 198871 net.cpp:267] Setting up bn4c_branch2a
I0619 10:28:49.113452 198871 net.cpp:274] Top shape: 50 256 14 14 (2508800)
I0619 10:28:49.113498 198871 net.cpp:282] Memory required for data: 7837491400
I0619 10:28:49.113622 198871 layer_factory.hpp:114] Creating layer res4c_branch2a_relu
I0619 10:28:49.113764 198871 net.cpp:183] Creating Layer res4c_branch2a_relu
I0619 10:28:49.113857 198871 net.cpp:864] res4c_branch2a_relu <- res4c_branch2a_x
I0619 10:28:49.113950 198871 net.cpp:825] res4c_branch2a_relu -> res4c_branch2a_x (in-place)
I0619 10:28:49.114135 198871 net.cpp:267] Setting up res4c_branch2a_relu
I0619 10:28:49.114250 198871 net.cpp:274] Top shape: 50 256 14 14 (2508800)
I0619 10:28:49.114326 198871 net.cpp:282] Memory required for data: 7847526600
I0619 10:28:49.114388 198871 layer_factory.hpp:114] Creating layer res4c_branch2b
I0619 10:28:49.114572 198871 net.cpp:183] Creating Layer res4c_branch2b
I0619 10:28:49.114666 198871 net.cpp:864] res4c_branch2b <- res4c_branch2a_x
I0619 10:28:49.114720 198871 net.cpp:838] res4c_branch2b -> res4c_branch2b
I0619 10:28:49.132158 198871 net.cpp:267] Setting up res4c_branch2b
I0619 10:28:49.132297 198871 net.cpp:274] Top shape: 50 256 14 14 (2508800)
I0619 10:28:49.132338 198871 net.cpp:282] Memory required for data: 7857561800
I0619 10:28:49.132406 198871 layer_factory.hpp:114] Creating layer bn4c_branch2b
I0619 10:28:49.132535 198871 net.cpp:183] Creating Layer bn4c_branch2b
I0619 10:28:49.132618 198871 net.cpp:864] bn4c_branch2b <- res4c_branch2b
I0619 10:28:49.132709 198871 net.cpp:838] bn4c_branch2b -> res4c_branch2b_x
I0619 10:28:49.133028 198871 net.cpp:267] Setting up bn4c_branch2b
I0619 10:28:49.133239 198871 net.cpp:274] Top shape: 50 256 14 14 (2508800)
I0619 10:28:49.133285 198871 net.cpp:282] Memory required for data: 7867597000
I0619 10:28:49.133407 198871 layer_factory.hpp:114] Creating layer res4c_branch2b_relu
I0619 10:28:49.133512 198871 net.cpp:183] Creating Layer res4c_branch2b_relu
I0619 10:28:49.133601 198871 net.cpp:864] res4c_branch2b_relu <- res4c_branch2b_x
I0619 10:28:49.133682 198871 net.cpp:825] res4c_branch2b_relu -> res4c_branch2b_x (in-place)
I0619 10:28:49.133877 198871 net.cpp:267] Setting up res4c_branch2b_relu
I0619 10:28:49.133960 198871 net.cpp:274] Top shape: 50 256 14 14 (2508800)
I0619 10:28:49.134038 198871 net.cpp:282] Memory required for data: 7877632200
I0619 10:28:49.134130 198871 layer_factory.hpp:114] Creating layer res4c_branch2c
I0619 10:28:49.134341 198871 net.cpp:183] Creating Layer res4c_branch2c
I0619 10:28:49.134408 198871 net.cpp:864] res4c_branch2c <- res4c_branch2b_x
I0619 10:28:49.134465 198871 net.cpp:838] res4c_branch2c -> res4c_branch2c
I0619 10:28:49.151453 198871 net.cpp:267] Setting up res4c_branch2c
I0619 10:28:49.151594 198871 net.cpp:274] Top shape: 50 1024 14 14 (10035200)
I0619 10:28:49.151641 198871 net.cpp:282] Memory required for data: 7917773000
I0619 10:28:49.151707 198871 layer_factory.hpp:114] Creating layer bn4c_branch2c
I0619 10:28:49.151818 198871 net.cpp:183] Creating Layer bn4c_branch2c
I0619 10:28:49.151979 198871 net.cpp:864] bn4c_branch2c <- res4c_branch2c
I0619 10:28:49.152122 198871 net.cpp:838] bn4c_branch2c -> res4c_branch2c_x
I0619 10:28:49.152460 198871 net.cpp:267] Setting up bn4c_branch2c
I0619 10:28:49.152575 198871 net.cpp:274] Top shape: 50 1024 14 14 (10035200)
I0619 10:28:49.152632 198871 net.cpp:282] Memory required for data: 7957913800
I0619 10:28:49.152815 198871 layer_factory.hpp:114] Creating layer res4c
I0619 10:28:49.153110 198871 net.cpp:183] Creating Layer res4c
I0619 10:28:49.153190 198871 net.cpp:864] res4c <- res4b_res4b_relu_0_split_1
I0619 10:28:49.153249 198871 net.cpp:864] res4c <- res4c_branch2c_x
I0619 10:28:49.153332 198871 net.cpp:838] res4c -> res4c
I0619 10:28:49.153520 198871 net.cpp:267] Setting up res4c
I0619 10:28:49.153646 198871 net.cpp:274] Top shape: 50 1024 14 14 (10035200)
I0619 10:28:49.153743 198871 net.cpp:282] Memory required for data: 7998054600
I0619 10:28:49.153885 198871 layer_factory.hpp:114] Creating layer res4c_relu
I0619 10:28:49.154049 198871 net.cpp:183] Creating Layer res4c_relu
I0619 10:28:49.154181 198871 net.cpp:864] res4c_relu <- res4c
I0619 10:28:49.154268 198871 net.cpp:825] res4c_relu -> res4c (in-place)
I0619 10:28:49.154453 198871 net.cpp:267] Setting up res4c_relu
I0619 10:28:49.154582 198871 net.cpp:274] Top shape: 50 1024 14 14 (10035200)
I0619 10:28:49.154634 198871 net.cpp:282] Memory required for data: 8038195400
I0619 10:28:49.154700 198871 layer_factory.hpp:114] Creating layer res4c_res4c_relu_0_split
I0619 10:28:49.154790 198871 net.cpp:183] Creating Layer res4c_res4c_relu_0_split
I0619 10:28:49.154912 198871 net.cpp:864] res4c_res4c_relu_0_split <- res4c
I0619 10:28:49.155014 198871 net.cpp:838] res4c_res4c_relu_0_split -> res4c_res4c_relu_0_split_0
I0619 10:28:49.155346 198871 net.cpp:838] res4c_res4c_relu_0_split -> res4c_res4c_relu_0_split_1
I0619 10:28:49.155763 198871 net.cpp:267] Setting up res4c_res4c_relu_0_split
I0619 10:28:49.155956 198871 net.cpp:274] Top shape: 50 1024 14 14 (10035200)
I0619 10:28:49.156038 198871 net.cpp:274] Top shape: 50 1024 14 14 (10035200)
I0619 10:28:49.156092 198871 net.cpp:282] Memory required for data: 8118477000
I0619 10:28:49.156139 198871 layer_factory.hpp:114] Creating layer res4d_branch2a
I0619 10:28:49.156339 198871 net.cpp:183] Creating Layer res4d_branch2a
I0619 10:28:49.156647 198871 net.cpp:864] res4d_branch2a <- res4c_res4c_relu_0_split_0
I0619 10:28:49.156780 198871 net.cpp:838] res4d_branch2a -> res4d_branch2a
I0619 10:28:49.174052 198871 net.cpp:267] Setting up res4d_branch2a
I0619 10:28:49.174243 198871 net.cpp:274] Top shape: 50 256 14 14 (2508800)
I0619 10:28:49.174304 198871 net.cpp:282] Memory required for data: 8128512200
I0619 10:28:49.174386 198871 layer_factory.hpp:114] Creating layer bn4d_branch2a
I0619 10:28:49.174504 198871 net.cpp:183] Creating Layer bn4d_branch2a
I0619 10:28:49.174576 198871 net.cpp:864] bn4d_branch2a <- res4d_branch2a
I0619 10:28:49.174660 198871 net.cpp:838] bn4d_branch2a -> res4d_branch2a_x
I0619 10:28:49.174916 198871 net.cpp:267] Setting up bn4d_branch2a
I0619 10:28:49.175042 198871 net.cpp:274] Top shape: 50 256 14 14 (2508800)
I0619 10:28:49.175168 198871 net.cpp:282] Memory required for data: 8138547400
I0619 10:28:49.175371 198871 layer_factory.hpp:114] Creating layer res4d_branch2a_relu
I0619 10:28:49.175520 198871 net.cpp:183] Creating Layer res4d_branch2a_relu
I0619 10:28:49.175623 198871 net.cpp:864] res4d_branch2a_relu <- res4d_branch2a_x
I0619 10:28:49.175684 198871 net.cpp:825] res4d_branch2a_relu -> res4d_branch2a_x (in-place)
I0619 10:28:49.175843 198871 net.cpp:267] Setting up res4d_branch2a_relu
I0619 10:28:49.175961 198871 net.cpp:274] Top shape: 50 256 14 14 (2508800)
I0619 10:28:49.176026 198871 net.cpp:282] Memory required for data: 8148582600
I0619 10:28:49.176156 198871 layer_factory.hpp:114] Creating layer res4d_branch2b
I0619 10:28:49.176345 198871 net.cpp:183] Creating Layer res4d_branch2b
I0619 10:28:49.176473 198871 net.cpp:864] res4d_branch2b <- res4d_branch2a_x
I0619 10:28:49.176568 198871 net.cpp:838] res4d_branch2b -> res4d_branch2b
I0619 10:28:49.194319 198871 net.cpp:267] Setting up res4d_branch2b
I0619 10:28:49.194460 198871 net.cpp:274] Top shape: 50 256 14 14 (2508800)
I0619 10:28:49.194509 198871 net.cpp:282] Memory required for data: 8158617800
I0619 10:28:49.194583 198871 layer_factory.hpp:114] Creating layer bn4d_branch2b
I0619 10:28:49.194705 198871 net.cpp:183] Creating Layer bn4d_branch2b
I0619 10:28:49.194778 198871 net.cpp:864] bn4d_branch2b <- res4d_branch2b
I0619 10:28:49.194871 198871 net.cpp:838] bn4d_branch2b -> res4d_branch2b_x
I0619 10:28:49.195124 198871 net.cpp:267] Setting up bn4d_branch2b
I0619 10:28:49.195284 198871 net.cpp:274] Top shape: 50 256 14 14 (2508800)
I0619 10:28:49.195372 198871 net.cpp:282] Memory required for data: 8168653000
I0619 10:28:49.195551 198871 layer_factory.hpp:114] Creating layer res4d_branch2b_relu
I0619 10:28:49.195693 198871 net.cpp:183] Creating Layer res4d_branch2b_relu
I0619 10:28:49.195777 198871 net.cpp:864] res4d_branch2b_relu <- res4d_branch2b_x
I0619 10:28:49.195873 198871 net.cpp:825] res4d_branch2b_relu -> res4d_branch2b_x (in-place)
I0619 10:28:49.196050 198871 net.cpp:267] Setting up res4d_branch2b_relu
I0619 10:28:49.196219 198871 net.cpp:274] Top shape: 50 256 14 14 (2508800)
I0619 10:28:49.196322 198871 net.cpp:282] Memory required for data: 8178688200
I0619 10:28:49.196380 198871 layer_factory.hpp:114] Creating layer res4d_branch2c
I0619 10:28:49.196596 198871 net.cpp:183] Creating Layer res4d_branch2c
I0619 10:28:49.196708 198871 net.cpp:864] res4d_branch2c <- res4d_branch2b_x
I0619 10:28:49.196789 198871 net.cpp:838] res4d_branch2c -> res4d_branch2c
I0619 10:28:49.213927 198871 net.cpp:267] Setting up res4d_branch2c
I0619 10:28:49.214115 198871 net.cpp:274] Top shape: 50 1024 14 14 (10035200)
I0619 10:28:49.214201 198871 net.cpp:282] Memory required for data: 8218829000
I0619 10:28:49.214301 198871 layer_factory.hpp:114] Creating layer bn4d_branch2c
I0619 10:28:49.214438 198871 net.cpp:183] Creating Layer bn4d_branch2c
I0619 10:28:49.214526 198871 net.cpp:864] bn4d_branch2c <- res4d_branch2c
I0619 10:28:49.214680 198871 net.cpp:838] bn4d_branch2c -> res4d_branch2c_x
I0619 10:28:49.215040 198871 net.cpp:267] Setting up bn4d_branch2c
I0619 10:28:49.215198 198871 net.cpp:274] Top shape: 50 1024 14 14 (10035200)
I0619 10:28:49.215299 198871 net.cpp:282] Memory required for data: 8258969800
I0619 10:28:49.215459 198871 layer_factory.hpp:114] Creating layer res4d
I0619 10:28:49.215621 198871 net.cpp:183] Creating Layer res4d
I0619 10:28:49.215737 198871 net.cpp:864] res4d <- res4c_res4c_relu_0_split_1
I0619 10:28:49.215797 198871 net.cpp:864] res4d <- res4d_branch2c_x
I0619 10:28:49.215854 198871 net.cpp:838] res4d -> res4d
I0619 10:28:49.216013 198871 net.cpp:267] Setting up res4d
I0619 10:28:49.216151 198871 net.cpp:274] Top shape: 50 1024 14 14 (10035200)
I0619 10:28:49.216251 198871 net.cpp:282] Memory required for data: 8299110600
I0619 10:28:49.216330 198871 layer_factory.hpp:114] Creating layer res4d_relu
I0619 10:28:49.216526 198871 net.cpp:183] Creating Layer res4d_relu
I0619 10:28:49.216799 198871 net.cpp:864] res4d_relu <- res4d
I0619 10:28:49.216948 198871 net.cpp:825] res4d_relu -> res4d (in-place)
I0619 10:28:49.217324 198871 net.cpp:267] Setting up res4d_relu
I0619 10:28:49.217504 198871 net.cpp:274] Top shape: 50 1024 14 14 (10035200)
I0619 10:28:49.217581 198871 net.cpp:282] Memory required for data: 8339251400
I0619 10:28:49.217631 198871 layer_factory.hpp:114] Creating layer res4d_res4d_relu_0_split
I0619 10:28:49.217738 198871 net.cpp:183] Creating Layer res4d_res4d_relu_0_split
I0619 10:28:49.217793 198871 net.cpp:864] res4d_res4d_relu_0_split <- res4d
I0619 10:28:49.217890 198871 net.cpp:838] res4d_res4d_relu_0_split -> res4d_res4d_relu_0_split_0
I0619 10:28:49.218245 198871 net.cpp:838] res4d_res4d_relu_0_split -> res4d_res4d_relu_0_split_1
I0619 10:28:49.218588 198871 net.cpp:267] Setting up res4d_res4d_relu_0_split
I0619 10:28:49.218761 198871 net.cpp:274] Top shape: 50 1024 14 14 (10035200)
I0619 10:28:49.218844 198871 net.cpp:274] Top shape: 50 1024 14 14 (10035200)
I0619 10:28:49.219017 198871 net.cpp:282] Memory required for data: 8419533000
I0619 10:28:49.219110 198871 layer_factory.hpp:114] Creating layer res4e_branch2a
I0619 10:28:49.219317 198871 net.cpp:183] Creating Layer res4e_branch2a
I0619 10:28:49.219388 198871 net.cpp:864] res4e_branch2a <- res4d_res4d_relu_0_split_0
I0619 10:28:49.219506 198871 net.cpp:838] res4e_branch2a -> res4e_branch2a
I0619 10:28:49.236560 198871 net.cpp:267] Setting up res4e_branch2a
I0619 10:28:49.236709 198871 net.cpp:274] Top shape: 50 256 14 14 (2508800)
I0619 10:28:49.236766 198871 net.cpp:282] Memory required for data: 8429568200
I0619 10:28:49.236846 198871 layer_factory.hpp:114] Creating layer bn4e_branch2a
I0619 10:28:49.236959 198871 net.cpp:183] Creating Layer bn4e_branch2a
I0619 10:28:49.237031 198871 net.cpp:864] bn4e_branch2a <- res4e_branch2a
I0619 10:28:49.237154 198871 net.cpp:838] bn4e_branch2a -> res4e_branch2a_x
I0619 10:28:49.237433 198871 net.cpp:267] Setting up bn4e_branch2a
I0619 10:28:49.237578 198871 net.cpp:274] Top shape: 50 256 14 14 (2508800)
I0619 10:28:49.237640 198871 net.cpp:282] Memory required for data: 8439603400
I0619 10:28:49.237772 198871 layer_factory.hpp:114] Creating layer res4e_branch2a_relu
I0619 10:28:49.237900 198871 net.cpp:183] Creating Layer res4e_branch2a_relu
I0619 10:28:49.237975 198871 net.cpp:864] res4e_branch2a_relu <- res4e_branch2a_x
I0619 10:28:49.238044 198871 net.cpp:825] res4e_branch2a_relu -> res4e_branch2a_x (in-place)
I0619 10:28:49.238214 198871 net.cpp:267] Setting up res4e_branch2a_relu
I0619 10:28:49.238289 198871 net.cpp:274] Top shape: 50 256 14 14 (2508800)
I0619 10:28:49.238329 198871 net.cpp:282] Memory required for data: 8449638600
I0619 10:28:49.238380 198871 layer_factory.hpp:114] Creating layer res4e_branch2b
I0619 10:28:49.238507 198871 net.cpp:183] Creating Layer res4e_branch2b
I0619 10:28:49.238561 198871 net.cpp:864] res4e_branch2b <- res4e_branch2a_x
I0619 10:28:49.238622 198871 net.cpp:838] res4e_branch2b -> res4e_branch2b
I0619 10:28:49.256111 198871 net.cpp:267] Setting up res4e_branch2b
I0619 10:28:49.256252 198871 net.cpp:274] Top shape: 50 256 14 14 (2508800)
I0619 10:28:49.256295 198871 net.cpp:282] Memory required for data: 8459673800
I0619 10:28:49.256363 198871 layer_factory.hpp:114] Creating layer bn4e_branch2b
I0619 10:28:49.256471 198871 net.cpp:183] Creating Layer bn4e_branch2b
I0619 10:28:49.256533 198871 net.cpp:864] bn4e_branch2b <- res4e_branch2b
I0619 10:28:49.256628 198871 net.cpp:838] bn4e_branch2b -> res4e_branch2b_x
I0619 10:28:49.256965 198871 net.cpp:267] Setting up bn4e_branch2b
I0619 10:28:49.257144 198871 net.cpp:274] Top shape: 50 256 14 14 (2508800)
I0619 10:28:49.257230 198871 net.cpp:282] Memory required for data: 8469709000
I0619 10:28:49.257334 198871 layer_factory.hpp:114] Creating layer res4e_branch2b_relu
I0619 10:28:49.257452 198871 net.cpp:183] Creating Layer res4e_branch2b_relu
I0619 10:28:49.257519 198871 net.cpp:864] res4e_branch2b_relu <- res4e_branch2b_x
I0619 10:28:49.257587 198871 net.cpp:825] res4e_branch2b_relu -> res4e_branch2b_x (in-place)
I0619 10:28:49.257779 198871 net.cpp:267] Setting up res4e_branch2b_relu
I0619 10:28:49.257895 198871 net.cpp:274] Top shape: 50 256 14 14 (2508800)
I0619 10:28:49.257971 198871 net.cpp:282] Memory required for data: 8479744200
I0619 10:28:49.258052 198871 layer_factory.hpp:114] Creating layer res4e_branch2c
I0619 10:28:49.258448 198871 net.cpp:183] Creating Layer res4e_branch2c
I0619 10:28:49.258548 198871 net.cpp:864] res4e_branch2c <- res4e_branch2b_x
I0619 10:28:49.258618 198871 net.cpp:838] res4e_branch2c -> res4e_branch2c
I0619 10:28:49.275430 198871 net.cpp:267] Setting up res4e_branch2c
I0619 10:28:49.275600 198871 net.cpp:274] Top shape: 50 1024 14 14 (10035200)
I0619 10:28:49.275643 198871 net.cpp:282] Memory required for data: 8519885000
I0619 10:28:49.275704 198871 layer_factory.hpp:114] Creating layer bn4e_branch2c
I0619 10:28:49.275874 198871 net.cpp:183] Creating Layer bn4e_branch2c
I0619 10:28:49.275972 198871 net.cpp:864] bn4e_branch2c <- res4e_branch2c
I0619 10:28:49.276284 198871 net.cpp:838] bn4e_branch2c -> res4e_branch2c_x
I0619 10:28:49.276630 198871 net.cpp:267] Setting up bn4e_branch2c
I0619 10:28:49.276749 198871 net.cpp:274] Top shape: 50 1024 14 14 (10035200)
I0619 10:28:49.276793 198871 net.cpp:282] Memory required for data: 8560025800
I0619 10:28:49.276901 198871 layer_factory.hpp:114] Creating layer res4e
I0619 10:28:49.276994 198871 net.cpp:183] Creating Layer res4e
I0619 10:28:49.277117 198871 net.cpp:864] res4e <- res4d_res4d_relu_0_split_1
I0619 10:28:49.277168 198871 net.cpp:864] res4e <- res4e_branch2c_x
I0619 10:28:49.277269 198871 net.cpp:838] res4e -> res4e
I0619 10:28:49.277386 198871 net.cpp:267] Setting up res4e
I0619 10:28:49.277483 198871 net.cpp:274] Top shape: 50 1024 14 14 (10035200)
I0619 10:28:49.277542 198871 net.cpp:282] Memory required for data: 8600166600
I0619 10:28:49.277595 198871 layer_factory.hpp:114] Creating layer res4e_relu
I0619 10:28:49.277710 198871 net.cpp:183] Creating Layer res4e_relu
I0619 10:28:49.277781 198871 net.cpp:864] res4e_relu <- res4e
I0619 10:28:49.277885 198871 net.cpp:825] res4e_relu -> res4e (in-place)
I0619 10:28:49.278054 198871 net.cpp:267] Setting up res4e_relu
I0619 10:28:49.278223 198871 net.cpp:274] Top shape: 50 1024 14 14 (10035200)
I0619 10:28:49.278271 198871 net.cpp:282] Memory required for data: 8640307400
I0619 10:28:49.278360 198871 layer_factory.hpp:114] Creating layer res4e_res4e_relu_0_split
I0619 10:28:49.278442 198871 net.cpp:183] Creating Layer res4e_res4e_relu_0_split
I0619 10:28:49.278566 198871 net.cpp:864] res4e_res4e_relu_0_split <- res4e
I0619 10:28:49.278690 198871 net.cpp:838] res4e_res4e_relu_0_split -> res4e_res4e_relu_0_split_0
I0619 10:28:49.278755 198871 net.cpp:838] res4e_res4e_relu_0_split -> res4e_res4e_relu_0_split_1
I0619 10:28:49.278919 198871 net.cpp:267] Setting up res4e_res4e_relu_0_split
I0619 10:28:49.278980 198871 net.cpp:274] Top shape: 50 1024 14 14 (10035200)
I0619 10:28:49.279018 198871 net.cpp:274] Top shape: 50 1024 14 14 (10035200)
I0619 10:28:49.279101 198871 net.cpp:282] Memory required for data: 8720589000
I0619 10:28:49.279172 198871 layer_factory.hpp:114] Creating layer res4f_branch2a
I0619 10:28:49.279284 198871 net.cpp:183] Creating Layer res4f_branch2a
I0619 10:28:49.279332 198871 net.cpp:864] res4f_branch2a <- res4e_res4e_relu_0_split_0
I0619 10:28:49.279412 198871 net.cpp:838] res4f_branch2a -> res4f_branch2a
I0619 10:28:49.295272 198871 net.cpp:267] Setting up res4f_branch2a
I0619 10:28:49.295405 198871 net.cpp:274] Top shape: 50 256 14 14 (2508800)
I0619 10:28:49.295438 198871 net.cpp:282] Memory required for data: 8730624200
I0619 10:28:49.295493 198871 layer_factory.hpp:114] Creating layer bn4f_branch2a
I0619 10:28:49.295585 198871 net.cpp:183] Creating Layer bn4f_branch2a
I0619 10:28:49.295629 198871 net.cpp:864] bn4f_branch2a <- res4f_branch2a
I0619 10:28:49.295683 198871 net.cpp:838] bn4f_branch2a -> res4f_branch2a_x
I0619 10:28:49.295862 198871 net.cpp:267] Setting up bn4f_branch2a
I0619 10:28:49.295933 198871 net.cpp:274] Top shape: 50 256 14 14 (2508800)
I0619 10:28:49.295964 198871 net.cpp:282] Memory required for data: 8740659400
I0619 10:28:49.296041 198871 layer_factory.hpp:114] Creating layer res4f_branch2a_relu
I0619 10:28:49.296193 198871 net.cpp:183] Creating Layer res4f_branch2a_relu
I0619 10:28:49.296347 198871 net.cpp:864] res4f_branch2a_relu <- res4f_branch2a_x
I0619 10:28:49.296421 198871 net.cpp:825] res4f_branch2a_relu -> res4f_branch2a_x (in-place)
I0619 10:28:49.296620 198871 net.cpp:267] Setting up res4f_branch2a_relu
I0619 10:28:49.296731 198871 net.cpp:274] Top shape: 50 256 14 14 (2508800)
I0619 10:28:49.296784 198871 net.cpp:282] Memory required for data: 8750694600
I0619 10:28:49.296839 198871 layer_factory.hpp:114] Creating layer res4f_branch2b
I0619 10:28:49.297006 198871 net.cpp:183] Creating Layer res4f_branch2b
I0619 10:28:49.297130 198871 net.cpp:864] res4f_branch2b <- res4f_branch2a_x
I0619 10:28:49.297255 198871 net.cpp:838] res4f_branch2b -> res4f_branch2b
I0619 10:28:49.314811 198871 net.cpp:267] Setting up res4f_branch2b
I0619 10:28:49.314947 198871 net.cpp:274] Top shape: 50 256 14 14 (2508800)
I0619 10:28:49.314990 198871 net.cpp:282] Memory required for data: 8760729800
I0619 10:28:49.315059 198871 layer_factory.hpp:114] Creating layer bn4f_branch2b
I0619 10:28:49.315232 198871 net.cpp:183] Creating Layer bn4f_branch2b
I0619 10:28:49.315328 198871 net.cpp:864] bn4f_branch2b <- res4f_branch2b
I0619 10:28:49.315423 198871 net.cpp:838] bn4f_branch2b -> res4f_branch2b_x
I0619 10:28:49.315714 198871 net.cpp:267] Setting up bn4f_branch2b
I0619 10:28:49.315889 198871 net.cpp:274] Top shape: 50 256 14 14 (2508800)
I0619 10:28:49.315951 198871 net.cpp:282] Memory required for data: 8770765000
I0619 10:28:49.316159 198871 layer_factory.hpp:114] Creating layer res4f_branch2b_relu
I0619 10:28:49.316282 198871 net.cpp:183] Creating Layer res4f_branch2b_relu
I0619 10:28:49.316334 198871 net.cpp:864] res4f_branch2b_relu <- res4f_branch2b_x
I0619 10:28:49.316409 198871 net.cpp:825] res4f_branch2b_relu -> res4f_branch2b_x (in-place)
I0619 10:28:49.316547 198871 net.cpp:267] Setting up res4f_branch2b_relu
I0619 10:28:49.316624 198871 net.cpp:274] Top shape: 50 256 14 14 (2508800)
I0619 10:28:49.316684 198871 net.cpp:282] Memory required for data: 8780800200
I0619 10:28:49.316740 198871 layer_factory.hpp:114] Creating layer res4f_branch2c
I0619 10:28:49.316912 198871 net.cpp:183] Creating Layer res4f_branch2c
I0619 10:28:49.316980 198871 net.cpp:864] res4f_branch2c <- res4f_branch2b_x
I0619 10:28:49.317095 198871 net.cpp:838] res4f_branch2c -> res4f_branch2c
I0619 10:28:49.332857 198871 net.cpp:267] Setting up res4f_branch2c
I0619 10:28:49.333006 198871 net.cpp:274] Top shape: 50 1024 14 14 (10035200)
I0619 10:28:49.333050 198871 net.cpp:282] Memory required for data: 8820941000
I0619 10:28:49.333189 198871 layer_factory.hpp:114] Creating layer bn4f_branch2c
I0619 10:28:49.333343 198871 net.cpp:183] Creating Layer bn4f_branch2c
I0619 10:28:49.333456 198871 net.cpp:864] bn4f_branch2c <- res4f_branch2c
I0619 10:28:49.333544 198871 net.cpp:838] bn4f_branch2c -> res4f_branch2c_x
I0619 10:28:49.333894 198871 net.cpp:267] Setting up bn4f_branch2c
I0619 10:28:49.334053 198871 net.cpp:274] Top shape: 50 1024 14 14 (10035200)
I0619 10:28:49.334156 198871 net.cpp:282] Memory required for data: 8861081800
I0619 10:28:49.334380 198871 layer_factory.hpp:114] Creating layer res4f
I0619 10:28:49.334532 198871 net.cpp:183] Creating Layer res4f
I0619 10:28:49.334633 198871 net.cpp:864] res4f <- res4e_res4e_relu_0_split_1
I0619 10:28:49.334693 198871 net.cpp:864] res4f <- res4f_branch2c_x
I0619 10:28:49.334780 198871 net.cpp:838] res4f -> res4f
I0619 10:28:49.334935 198871 net.cpp:267] Setting up res4f
I0619 10:28:49.335034 198871 net.cpp:274] Top shape: 50 1024 14 14 (10035200)
I0619 10:28:49.335104 198871 net.cpp:282] Memory required for data: 8901222600
I0619 10:28:49.335196 198871 layer_factory.hpp:114] Creating layer res4f_relu
I0619 10:28:49.335347 198871 net.cpp:183] Creating Layer res4f_relu
I0619 10:28:49.335557 198871 net.cpp:864] res4f_relu <- res4f
I0619 10:28:49.335638 198871 net.cpp:825] res4f_relu -> res4f (in-place)
I0619 10:28:49.335772 198871 net.cpp:267] Setting up res4f_relu
I0619 10:28:49.335923 198871 net.cpp:274] Top shape: 50 1024 14 14 (10035200)
I0619 10:28:49.335973 198871 net.cpp:282] Memory required for data: 8941363400
I0619 10:28:49.336026 198871 layer_factory.hpp:114] Creating layer res4f_res4f_relu_0_split
I0619 10:28:49.336184 198871 net.cpp:183] Creating Layer res4f_res4f_relu_0_split
I0619 10:28:49.336355 198871 net.cpp:864] res4f_res4f_relu_0_split <- res4f
I0619 10:28:49.336431 198871 net.cpp:838] res4f_res4f_relu_0_split -> res4f_res4f_relu_0_split_0
I0619 10:28:49.336712 198871 net.cpp:838] res4f_res4f_relu_0_split -> res4f_res4f_relu_0_split_1
I0619 10:28:49.337033 198871 net.cpp:267] Setting up res4f_res4f_relu_0_split
I0619 10:28:49.337172 198871 net.cpp:274] Top shape: 50 1024 14 14 (10035200)
I0619 10:28:49.337224 198871 net.cpp:274] Top shape: 50 1024 14 14 (10035200)
I0619 10:28:49.337399 198871 net.cpp:282] Memory required for data: 9021645000
I0619 10:28:49.337469 198871 layer_factory.hpp:114] Creating layer res5a_branch1
I0619 10:28:49.337678 198871 net.cpp:183] Creating Layer res5a_branch1
I0619 10:28:49.337746 198871 net.cpp:864] res5a_branch1 <- res4f_res4f_relu_0_split_0
I0619 10:28:49.337884 198871 net.cpp:838] res5a_branch1 -> res5a_branch1
I0619 10:28:49.385545 198871 net.cpp:267] Setting up res5a_branch1
I0619 10:28:49.385680 198871 net.cpp:274] Top shape: 50 2048 7 7 (5017600)
I0619 10:28:49.385716 198871 net.cpp:282] Memory required for data: 9041715400
I0619 10:28:49.385779 198871 layer_factory.hpp:114] Creating layer bn5a_branch1
I0619 10:28:49.385860 198871 net.cpp:183] Creating Layer bn5a_branch1
I0619 10:28:49.385905 198871 net.cpp:864] bn5a_branch1 <- res5a_branch1
I0619 10:28:49.385989 198871 net.cpp:838] bn5a_branch1 -> res5a_branch1_x
I0619 10:28:49.386309 198871 net.cpp:267] Setting up bn5a_branch1
I0619 10:28:49.386415 198871 net.cpp:274] Top shape: 50 2048 7 7 (5017600)
I0619 10:28:49.386497 198871 net.cpp:282] Memory required for data: 9061785800
I0619 10:28:49.386633 198871 layer_factory.hpp:114] Creating layer res5a_branch2a
I0619 10:28:49.386813 198871 net.cpp:183] Creating Layer res5a_branch2a
I0619 10:28:49.386904 198871 net.cpp:864] res5a_branch2a <- res4f_res4f_relu_0_split_1
I0619 10:28:49.387017 198871 net.cpp:838] res5a_branch2a -> res5a_branch2a
I0619 10:28:49.401540 198871 net.cpp:267] Setting up res5a_branch2a
I0619 10:28:49.401696 198871 net.cpp:274] Top shape: 50 512 7 7 (1254400)
I0619 10:28:49.401741 198871 net.cpp:282] Memory required for data: 9066803400
I0619 10:28:49.401832 198871 layer_factory.hpp:114] Creating layer bn5a_branch2a
I0619 10:28:49.401958 198871 net.cpp:183] Creating Layer bn5a_branch2a
I0619 10:28:49.402043 198871 net.cpp:864] bn5a_branch2a <- res5a_branch2a
I0619 10:28:49.402189 198871 net.cpp:838] bn5a_branch2a -> res5a_branch2a_x
I0619 10:28:49.402493 198871 net.cpp:267] Setting up bn5a_branch2a
I0619 10:28:49.402647 198871 net.cpp:274] Top shape: 50 512 7 7 (1254400)
I0619 10:28:49.402727 198871 net.cpp:282] Memory required for data: 9071821000
I0619 10:28:49.402914 198871 layer_factory.hpp:114] Creating layer res5a_branch2a_relu
I0619 10:28:49.403101 198871 net.cpp:183] Creating Layer res5a_branch2a_relu
I0619 10:28:49.403239 198871 net.cpp:864] res5a_branch2a_relu <- res5a_branch2a_x
I0619 10:28:49.403378 198871 net.cpp:825] res5a_branch2a_relu -> res5a_branch2a_x (in-place)
I0619 10:28:49.403538 198871 net.cpp:267] Setting up res5a_branch2a_relu
I0619 10:28:49.403645 198871 net.cpp:274] Top shape: 50 512 7 7 (1254400)
I0619 10:28:49.403714 198871 net.cpp:282] Memory required for data: 9076838600
I0619 10:28:49.403775 198871 layer_factory.hpp:114] Creating layer res5a_branch2b
I0619 10:28:49.403956 198871 net.cpp:183] Creating Layer res5a_branch2b
I0619 10:28:49.404060 198871 net.cpp:864] res5a_branch2b <- res5a_branch2a_x
I0619 10:28:49.404162 198871 net.cpp:838] res5a_branch2b -> res5a_branch2b
I0619 10:28:49.458731 198871 net.cpp:267] Setting up res5a_branch2b
I0619 10:28:49.458873 198871 net.cpp:274] Top shape: 50 512 7 7 (1254400)
I0619 10:28:49.458914 198871 net.cpp:282] Memory required for data: 9081856200
I0619 10:28:49.458979 198871 layer_factory.hpp:114] Creating layer bn5a_branch2b
I0619 10:28:49.459151 198871 net.cpp:183] Creating Layer bn5a_branch2b
I0619 10:28:49.459295 198871 net.cpp:864] bn5a_branch2b <- res5a_branch2b
I0619 10:28:49.459403 198871 net.cpp:838] bn5a_branch2b -> res5a_branch2b_x
I0619 10:28:49.459727 198871 net.cpp:267] Setting up bn5a_branch2b
I0619 10:28:49.459861 198871 net.cpp:274] Top shape: 50 512 7 7 (1254400)
I0619 10:28:49.459913 198871 net.cpp:282] Memory required for data: 9086873800
I0619 10:28:49.460017 198871 layer_factory.hpp:114] Creating layer res5a_branch2b_relu
I0619 10:28:49.460141 198871 net.cpp:183] Creating Layer res5a_branch2b_relu
I0619 10:28:49.460211 198871 net.cpp:864] res5a_branch2b_relu <- res5a_branch2b_x
I0619 10:28:49.460290 198871 net.cpp:825] res5a_branch2b_relu -> res5a_branch2b_x (in-place)
I0619 10:28:49.460578 198871 net.cpp:267] Setting up res5a_branch2b_relu
I0619 10:28:49.460708 198871 net.cpp:274] Top shape: 50 512 7 7 (1254400)
I0619 10:28:49.460784 198871 net.cpp:282] Memory required for data: 9091891400
I0619 10:28:49.460853 198871 layer_factory.hpp:114] Creating layer res5a_branch2c
I0619 10:28:49.461022 198871 net.cpp:183] Creating Layer res5a_branch2c
I0619 10:28:49.461120 198871 net.cpp:864] res5a_branch2c <- res5a_branch2b_x
I0619 10:28:49.461201 198871 net.cpp:838] res5a_branch2c -> res5a_branch2c
I0619 10:28:49.496356 198871 net.cpp:267] Setting up res5a_branch2c
I0619 10:28:49.496510 198871 net.cpp:274] Top shape: 50 2048 7 7 (5017600)
I0619 10:28:49.496573 198871 net.cpp:282] Memory required for data: 9111961800
I0619 10:28:49.496655 198871 layer_factory.hpp:114] Creating layer bn5a_branch2c
I0619 10:28:49.496780 198871 net.cpp:183] Creating Layer bn5a_branch2c
I0619 10:28:49.496860 198871 net.cpp:864] bn5a_branch2c <- res5a_branch2c
I0619 10:28:49.496997 198871 net.cpp:838] bn5a_branch2c -> res5a_branch2c_x
I0619 10:28:49.497493 198871 net.cpp:267] Setting up bn5a_branch2c
I0619 10:28:49.497622 198871 net.cpp:274] Top shape: 50 2048 7 7 (5017600)
I0619 10:28:49.497673 198871 net.cpp:282] Memory required for data: 9132032200
I0619 10:28:49.497767 198871 layer_factory.hpp:114] Creating layer res5a
I0619 10:28:49.497885 198871 net.cpp:183] Creating Layer res5a
I0619 10:28:49.497967 198871 net.cpp:864] res5a <- res5a_branch1_x
I0619 10:28:49.498031 198871 net.cpp:864] res5a <- res5a_branch2c_x
I0619 10:28:49.498145 198871 net.cpp:838] res5a -> res5a
I0619 10:28:49.498353 198871 net.cpp:267] Setting up res5a
I0619 10:28:49.498453 198871 net.cpp:274] Top shape: 50 2048 7 7 (5017600)
I0619 10:28:49.498499 198871 net.cpp:282] Memory required for data: 9152102600
I0619 10:28:49.498554 198871 layer_factory.hpp:114] Creating layer res5a_relu
I0619 10:28:49.498669 198871 net.cpp:183] Creating Layer res5a_relu
I0619 10:28:49.498883 198871 net.cpp:864] res5a_relu <- res5a
I0619 10:28:49.498965 198871 net.cpp:825] res5a_relu -> res5a (in-place)
I0619 10:28:49.499202 198871 net.cpp:267] Setting up res5a_relu
I0619 10:28:49.499347 198871 net.cpp:274] Top shape: 50 2048 7 7 (5017600)
I0619 10:28:49.499397 198871 net.cpp:282] Memory required for data: 9172173000
I0619 10:28:49.499449 198871 layer_factory.hpp:114] Creating layer res5a_res5a_relu_0_split
I0619 10:28:49.499533 198871 net.cpp:183] Creating Layer res5a_res5a_relu_0_split
I0619 10:28:49.499588 198871 net.cpp:864] res5a_res5a_relu_0_split <- res5a
I0619 10:28:49.499653 198871 net.cpp:838] res5a_res5a_relu_0_split -> res5a_res5a_relu_0_split_0
I0619 10:28:49.499730 198871 net.cpp:838] res5a_res5a_relu_0_split -> res5a_res5a_relu_0_split_1
I0619 10:28:49.499868 198871 net.cpp:267] Setting up res5a_res5a_relu_0_split
I0619 10:28:49.500053 198871 net.cpp:274] Top shape: 50 2048 7 7 (5017600)
I0619 10:28:49.500151 198871 net.cpp:274] Top shape: 50 2048 7 7 (5017600)
I0619 10:28:49.500223 198871 net.cpp:282] Memory required for data: 9212313800
I0619 10:28:49.500277 198871 layer_factory.hpp:114] Creating layer res5b_branch2a
I0619 10:28:49.500452 198871 net.cpp:183] Creating Layer res5b_branch2a
I0619 10:28:49.500632 198871 net.cpp:864] res5b_branch2a <- res5a_res5a_relu_0_split_0
I0619 10:28:49.500707 198871 net.cpp:838] res5b_branch2a -> res5b_branch2a
I0619 10:28:49.535377 198871 net.cpp:267] Setting up res5b_branch2a
I0619 10:28:49.535531 198871 net.cpp:274] Top shape: 50 512 7 7 (1254400)
I0619 10:28:49.535593 198871 net.cpp:282] Memory required for data: 9217331400
I0619 10:28:49.535678 198871 layer_factory.hpp:114] Creating layer bn5b_branch2a
I0619 10:28:49.535799 198871 net.cpp:183] Creating Layer bn5b_branch2a
I0619 10:28:49.535893 198871 net.cpp:864] bn5b_branch2a <- res5b_branch2a
I0619 10:28:49.535972 198871 net.cpp:838] bn5b_branch2a -> res5b_branch2a_x
I0619 10:28:49.536345 198871 net.cpp:267] Setting up bn5b_branch2a
I0619 10:28:49.536463 198871 net.cpp:274] Top shape: 50 512 7 7 (1254400)
I0619 10:28:49.536653 198871 net.cpp:282] Memory required for data: 9222349000
I0619 10:28:49.536862 198871 layer_factory.hpp:114] Creating layer res5b_branch2a_relu
I0619 10:28:49.536988 198871 net.cpp:183] Creating Layer res5b_branch2a_relu
I0619 10:28:49.537065 198871 net.cpp:864] res5b_branch2a_relu <- res5b_branch2a_x
I0619 10:28:49.537231 198871 net.cpp:825] res5b_branch2a_relu -> res5b_branch2a_x (in-place)
I0619 10:28:49.537358 198871 net.cpp:267] Setting up res5b_branch2a_relu
I0619 10:28:49.537421 198871 net.cpp:274] Top shape: 50 512 7 7 (1254400)
I0619 10:28:49.537461 198871 net.cpp:282] Memory required for data: 9227366600
I0619 10:28:49.537510 198871 layer_factory.hpp:114] Creating layer res5b_branch2b
I0619 10:28:49.537634 198871 net.cpp:183] Creating Layer res5b_branch2b
I0619 10:28:49.537685 198871 net.cpp:864] res5b_branch2b <- res5b_branch2a_x
I0619 10:28:49.537739 198871 net.cpp:838] res5b_branch2b -> res5b_branch2b
I0619 10:28:49.590767 198871 net.cpp:267] Setting up res5b_branch2b
I0619 10:28:49.590901 198871 net.cpp:274] Top shape: 50 512 7 7 (1254400)
I0619 10:28:49.590942 198871 net.cpp:282] Memory required for data: 9232384200
I0619 10:28:49.591002 198871 layer_factory.hpp:114] Creating layer bn5b_branch2b
I0619 10:28:49.591164 198871 net.cpp:183] Creating Layer bn5b_branch2b
I0619 10:28:49.591296 198871 net.cpp:864] bn5b_branch2b <- res5b_branch2b
I0619 10:28:49.591379 198871 net.cpp:838] bn5b_branch2b -> res5b_branch2b_x
I0619 10:28:49.591665 198871 net.cpp:267] Setting up bn5b_branch2b
I0619 10:28:49.591814 198871 net.cpp:274] Top shape: 50 512 7 7 (1254400)
I0619 10:28:49.591892 198871 net.cpp:282] Memory required for data: 9237401800
I0619 10:28:49.592056 198871 layer_factory.hpp:114] Creating layer res5b_branch2b_relu
I0619 10:28:49.592202 198871 net.cpp:183] Creating Layer res5b_branch2b_relu
I0619 10:28:49.592280 198871 net.cpp:864] res5b_branch2b_relu <- res5b_branch2b_x
I0619 10:28:49.592361 198871 net.cpp:825] res5b_branch2b_relu -> res5b_branch2b_x (in-place)
I0619 10:28:49.592506 198871 net.cpp:267] Setting up res5b_branch2b_relu
I0619 10:28:49.592578 198871 net.cpp:274] Top shape: 50 512 7 7 (1254400)
I0619 10:28:49.592639 198871 net.cpp:282] Memory required for data: 9242419400
I0619 10:28:49.592700 198871 layer_factory.hpp:114] Creating layer res5b_branch2c
I0619 10:28:49.592900 198871 net.cpp:183] Creating Layer res5b_branch2c
I0619 10:28:49.592988 198871 net.cpp:864] res5b_branch2c <- res5b_branch2b_x
I0619 10:28:49.593099 198871 net.cpp:838] res5b_branch2c -> res5b_branch2c
I0619 10:28:49.628371 198871 net.cpp:267] Setting up res5b_branch2c
I0619 10:28:49.628562 198871 net.cpp:274] Top shape: 50 2048 7 7 (5017600)
I0619 10:28:49.628645 198871 net.cpp:282] Memory required for data: 9262489800
I0619 10:28:49.628733 198871 layer_factory.hpp:114] Creating layer bn5b_branch2c
I0619 10:28:49.628846 198871 net.cpp:183] Creating Layer bn5b_branch2c
I0619 10:28:49.628933 198871 net.cpp:864] bn5b_branch2c <- res5b_branch2c
I0619 10:28:49.629035 198871 net.cpp:838] bn5b_branch2c -> res5b_branch2c_x
I0619 10:28:49.629451 198871 net.cpp:267] Setting up bn5b_branch2c
I0619 10:28:49.629619 198871 net.cpp:274] Top shape: 50 2048 7 7 (5017600)
I0619 10:28:49.629689 198871 net.cpp:282] Memory required for data: 9282560200
I0619 10:28:49.629804 198871 layer_factory.hpp:114] Creating layer res5b
I0619 10:28:49.629936 198871 net.cpp:183] Creating Layer res5b
I0619 10:28:49.630045 198871 net.cpp:864] res5b <- res5a_res5a_relu_0_split_1
I0619 10:28:49.630170 198871 net.cpp:864] res5b <- res5b_branch2c_x
I0619 10:28:49.630280 198871 net.cpp:838] res5b -> res5b
I0619 10:28:49.630518 198871 net.cpp:267] Setting up res5b
I0619 10:28:49.630667 198871 net.cpp:274] Top shape: 50 2048 7 7 (5017600)
I0619 10:28:49.630779 198871 net.cpp:282] Memory required for data: 9302630600
I0619 10:28:49.630885 198871 layer_factory.hpp:114] Creating layer res5b_relu
I0619 10:28:49.631047 198871 net.cpp:183] Creating Layer res5b_relu
I0619 10:28:49.631186 198871 net.cpp:864] res5b_relu <- res5b
I0619 10:28:49.631299 198871 net.cpp:825] res5b_relu -> res5b (in-place)
I0619 10:28:49.631726 198871 net.cpp:267] Setting up res5b_relu
I0619 10:28:49.631881 198871 net.cpp:274] Top shape: 50 2048 7 7 (5017600)
I0619 10:28:49.631958 198871 net.cpp:282] Memory required for data: 9322701000
I0619 10:28:49.632010 198871 layer_factory.hpp:114] Creating layer res5b_res5b_relu_0_split
I0619 10:28:49.632151 198871 net.cpp:183] Creating Layer res5b_res5b_relu_0_split
I0619 10:28:49.632225 198871 net.cpp:864] res5b_res5b_relu_0_split <- res5b
I0619 10:28:49.632362 198871 net.cpp:838] res5b_res5b_relu_0_split -> res5b_res5b_relu_0_split_0
I0619 10:28:49.632479 198871 net.cpp:838] res5b_res5b_relu_0_split -> res5b_res5b_relu_0_split_1
I0619 10:28:49.632855 198871 net.cpp:267] Setting up res5b_res5b_relu_0_split
I0619 10:28:49.633056 198871 net.cpp:274] Top shape: 50 2048 7 7 (5017600)
I0619 10:28:49.633168 198871 net.cpp:274] Top shape: 50 2048 7 7 (5017600)
I0619 10:28:49.633206 198871 net.cpp:282] Memory required for data: 9362841800
I0619 10:28:49.633254 198871 layer_factory.hpp:114] Creating layer res5c_branch2a
I0619 10:28:49.633424 198871 net.cpp:183] Creating Layer res5c_branch2a
I0619 10:28:49.633669 198871 net.cpp:864] res5c_branch2a <- res5b_res5b_relu_0_split_0
I0619 10:28:49.633752 198871 net.cpp:838] res5c_branch2a -> res5c_branch2a
I0619 10:28:49.667196 198871 net.cpp:267] Setting up res5c_branch2a
I0619 10:28:49.667340 198871 net.cpp:274] Top shape: 50 512 7 7 (1254400)
I0619 10:28:49.667387 198871 net.cpp:282] Memory required for data: 9367859400
I0619 10:28:49.667454 198871 layer_factory.hpp:114] Creating layer bn5c_branch2a
I0619 10:28:49.667562 198871 net.cpp:183] Creating Layer bn5c_branch2a
I0619 10:28:49.667619 198871 net.cpp:864] bn5c_branch2a <- res5c_branch2a
I0619 10:28:49.667690 198871 net.cpp:838] bn5c_branch2a -> res5c_branch2a_x
I0619 10:28:49.667925 198871 net.cpp:267] Setting up bn5c_branch2a
I0619 10:28:49.668112 198871 net.cpp:274] Top shape: 50 512 7 7 (1254400)
I0619 10:28:49.668206 198871 net.cpp:282] Memory required for data: 9372877000
I0619 10:28:49.668380 198871 layer_factory.hpp:114] Creating layer res5c_branch2a_relu
I0619 10:28:49.668531 198871 net.cpp:183] Creating Layer res5c_branch2a_relu
I0619 10:28:49.668597 198871 net.cpp:864] res5c_branch2a_relu <- res5c_branch2a_x
I0619 10:28:49.668676 198871 net.cpp:825] res5c_branch2a_relu -> res5c_branch2a_x (in-place)
I0619 10:28:49.668802 198871 net.cpp:267] Setting up res5c_branch2a_relu
I0619 10:28:49.668910 198871 net.cpp:274] Top shape: 50 512 7 7 (1254400)
I0619 10:28:49.668979 198871 net.cpp:282] Memory required for data: 9377894600
I0619 10:28:49.669039 198871 layer_factory.hpp:114] Creating layer res5c_branch2b
I0619 10:28:49.669281 198871 net.cpp:183] Creating Layer res5c_branch2b
I0619 10:28:49.669405 198871 net.cpp:864] res5c_branch2b <- res5c_branch2a_x
I0619 10:28:49.669486 198871 net.cpp:838] res5c_branch2b -> res5c_branch2b
I0619 10:28:49.724306 198871 net.cpp:267] Setting up res5c_branch2b
I0619 10:28:49.724447 198871 net.cpp:274] Top shape: 50 512 7 7 (1254400)
I0619 10:28:49.724498 198871 net.cpp:282] Memory required for data: 9382912200
I0619 10:28:49.724576 198871 layer_factory.hpp:114] Creating layer bn5c_branch2b
I0619 10:28:49.724694 198871 net.cpp:183] Creating Layer bn5c_branch2b
I0619 10:28:49.724761 198871 net.cpp:864] bn5c_branch2b <- res5c_branch2b
I0619 10:28:49.724854 198871 net.cpp:838] bn5c_branch2b -> res5c_branch2b_x
I0619 10:28:49.725201 198871 net.cpp:267] Setting up bn5c_branch2b
I0619 10:28:49.725353 198871 net.cpp:274] Top shape: 50 512 7 7 (1254400)
I0619 10:28:49.725443 198871 net.cpp:282] Memory required for data: 9387929800
I0619 10:28:49.725577 198871 layer_factory.hpp:114] Creating layer res5c_branch2b_relu
I0619 10:28:49.725697 198871 net.cpp:183] Creating Layer res5c_branch2b_relu
I0619 10:28:49.725785 198871 net.cpp:864] res5c_branch2b_relu <- res5c_branch2b_x
I0619 10:28:49.725863 198871 net.cpp:825] res5c_branch2b_relu -> res5c_branch2b_x (in-place)
I0619 10:28:49.726058 198871 net.cpp:267] Setting up res5c_branch2b_relu
I0619 10:28:49.726377 198871 net.cpp:274] Top shape: 50 512 7 7 (1254400)
I0619 10:28:49.726475 198871 net.cpp:282] Memory required for data: 9392947400
I0619 10:28:49.726543 198871 layer_factory.hpp:114] Creating layer res5c_branch2c
I0619 10:28:49.726734 198871 net.cpp:183] Creating Layer res5c_branch2c
I0619 10:28:49.726861 198871 net.cpp:864] res5c_branch2c <- res5c_branch2b_x
I0619 10:28:49.726990 198871 net.cpp:838] res5c_branch2c -> res5c_branch2c
I0619 10:28:49.760835 198871 net.cpp:267] Setting up res5c_branch2c
I0619 10:28:49.760977 198871 net.cpp:274] Top shape: 50 2048 7 7 (5017600)
I0619 10:28:49.761018 198871 net.cpp:282] Memory required for data: 9413017800
I0619 10:28:49.761112 198871 layer_factory.hpp:114] Creating layer bn5c_branch2c
I0619 10:28:49.761201 198871 net.cpp:183] Creating Layer bn5c_branch2c
I0619 10:28:49.761245 198871 net.cpp:864] bn5c_branch2c <- res5c_branch2c
I0619 10:28:49.761373 198871 net.cpp:838] bn5c_branch2c -> res5c_branch2c_x
I0619 10:28:49.761708 198871 net.cpp:267] Setting up bn5c_branch2c
I0619 10:28:49.761819 198871 net.cpp:274] Top shape: 50 2048 7 7 (5017600)
I0619 10:28:49.761874 198871 net.cpp:282] Memory required for data: 9433088200
I0619 10:28:49.761976 198871 layer_factory.hpp:114] Creating layer res5c
I0619 10:28:49.762107 198871 net.cpp:183] Creating Layer res5c
I0619 10:28:49.762177 198871 net.cpp:864] res5c <- res5b_res5b_relu_0_split_1
I0619 10:28:49.762228 198871 net.cpp:864] res5c <- res5c_branch2c_x
I0619 10:28:49.762297 198871 net.cpp:838] res5c -> res5c
I0619 10:28:49.762409 198871 net.cpp:267] Setting up res5c
I0619 10:28:49.762483 198871 net.cpp:274] Top shape: 50 2048 7 7 (5017600)
I0619 10:28:49.762518 198871 net.cpp:282] Memory required for data: 9453158600
I0619 10:28:49.762555 198871 layer_factory.hpp:114] Creating layer res5c_relu
I0619 10:28:49.762622 198871 net.cpp:183] Creating Layer res5c_relu
I0619 10:28:49.762666 198871 net.cpp:864] res5c_relu <- res5c
I0619 10:28:49.762725 198871 net.cpp:825] res5c_relu -> res5c (in-place)
I0619 10:28:49.762845 198871 net.cpp:267] Setting up res5c_relu
I0619 10:28:49.762913 198871 net.cpp:274] Top shape: 50 2048 7 7 (5017600)
I0619 10:28:49.762946 198871 net.cpp:282] Memory required for data: 9473229000
I0619 10:28:49.762985 198871 layer_factory.hpp:114] Creating layer pool5
I0619 10:28:49.763067 198871 net.cpp:183] Creating Layer pool5
I0619 10:28:49.763145 198871 net.cpp:864] pool5 <- res5c
I0619 10:28:49.763198 198871 net.cpp:838] pool5 -> pool5
I0619 10:28:49.763334 198871 net.cpp:267] Setting up pool5
I0619 10:28:49.763507 198871 net.cpp:274] Top shape: 50 2048 1 1 (102400)
I0619 10:28:49.763567 198871 net.cpp:282] Memory required for data: 9473638600
I0619 10:28:49.763650 198871 layer_factory.hpp:114] Creating layer fc1000
I0619 10:28:49.763880 198871 net.cpp:183] Creating Layer fc1000
I0619 10:28:49.764001 198871 net.cpp:864] fc1000 <- pool5
I0619 10:28:49.764119 198871 net.cpp:838] fc1000 -> fc1000
I0619 10:28:49.809613 198871 net.cpp:267] Setting up fc1000
I0619 10:28:49.809756 198871 net.cpp:274] Top shape: 50 1000 (50000)
I0619 10:28:49.809800 198871 net.cpp:282] Memory required for data: 9473838600
I0619 10:28:49.809895 198871 layer_factory.hpp:114] Creating layer prob
I0619 10:28:49.810039 198871 net.cpp:183] Creating Layer prob
I0619 10:28:49.810173 198871 net.cpp:864] prob <- fc1000
I0619 10:28:49.810258 198871 net.cpp:864] prob <- label
I0619 10:28:49.810360 198871 net.cpp:838] prob -> prob
I0619 10:28:49.810737 198871 layer_factory.hpp:114] Creating layer prob
…
