…
I0619 10:19:41.556795  2028 net.cpp:323] The NetState phase (0) differed from the phase (1) specified by a rule in layer probt
I0619 10:19:41.558362  2028 net.cpp:52] Initializing net from parameters: 
name: "ResNet-50"
state {
  phase: TRAIN
}
layer {
  name: "data"
  type: "Data"
  top: "data"
  top: "label"
  include {
    phase: TRAIN
  }
  transform_param {
    mirror: true
    crop_size: 224
    mean_file: "/home/wenxizhu/wenxi/internal-intel-caffe/examples/imagenet/imagenet_mean.binaryproto"
  }
  data_param {
    source: "/home/wenxizhu/wenxi/internal-intel-caffe/examples/imagenet/ilsvrc12_train_lmdb"
    batch_size: 50
    backend: LMDB
    prefetch: 2
  }
}
layer {
  name: "conv1"
  type: "Convolution"
  bottom: "data"
  top: "conv1"
  convolution_param {
    num_output: 64
    pad: 3
    kernel_size: 7
    stride: 2
    weight_filler {
      type: "xavier"
    }
    bias_filler {
      type: "constant"
      value: 0.2
    }
  }
}
layer {
  name: "bn_conv1"
  type: "BatchNorm"
  bottom: "conv1"
  top: "conv1"
  batch_norm_param {
  }
}
layer {
  name: "scale_conv1"
  type: "Scale"
  bottom: "conv1"
  top: "conv1"
  scale_param {
    bias_term: true
  }
}
layer {
  name: "conv1_relu"
  type: "ReLU"
  bottom: "conv1"
  top: "conv1"
  relu_param {
  }
}
layer {
  name: "pool1"
  type: "Pooling"
  bottom: "conv1"
  top: "pool1"
  pooling_param {
    pool: MAX
    kernel_size: 3
    stride: 2
  }
}
layer {
  name: "res2a_branch1"
  type: "Convolution"
  bottom: "pool1"
  top: "res2a_branch1"
  convolution_param {
    num_output: 256
    bias_term: false
    pad: 0
    kernel_size: 1
    stride: 1
    weight_filler {
      type: "xavier"
    }
    bias_filler {
      type: "constant"
      value: 0.2
    }
  }
}
layer {
  name: "bn2a_branch1"
  type: "BatchNorm"
  bottom: "res2a_branch1"
  top: "res2a_branch1"
  batch_norm_param {
  }
}
layer {
  name: "scale2a_branch1"
  type: "Scale"
  bottom: "res2a_branch1"
  top: "res2a_branch1"
  scale_param {
    bias_term: true
  }
}
layer {
  name: "res2a_branch2a"
  type: "Convolution"
  bottom: "pool1"
  top: "res2a_branch2a"
  convolution_param {
    num_output: 64
    bias_term: false
    pad: 0
    kernel_size: 1
    stride: 1
    weight_filler {
      type: "xavier"
    }
    bias_filler {
      type: "constant"
      value: 0.2
    }
  }
}
layer {
  name: "bn2a_branch2a"
  type: "BatchNorm"
  bottom: "res2a_branch2a"
  top: "res2a_branch2a"
  batch_norm_param {
  }
}
layer {
  name: "scale2a_branch2a"
  type: "Scale"
  bottom: "res2a_branch2a"
  top: "res2a_branch2a"
  scale_param {
    bias_term: true
  }
}
layer {
  name: "res2a_branch2a_relu"
  type: "ReLU"
  bottom: "res2a_branch2a"
  top: "res2a_branch2a"
  relu_param {
  }
}
layer {
  name: "res2a_branch2b"
  type: "Convolution"
  bottom: "res2a_branch2a"
  top: "res2a_branch2b"
  convolution_param {
    num_output: 64
    bias_term: false
    pad: 1
    kernel_size: 3
    stride: 1
    weight_filler {
      type: "xavier"
    }
    bias_filler {
      type: "constant"
      value: 0.2
    }
  }
}
layer {
  name: "bn2a_branch2b"
  type: "BatchNorm"
  bottom: "res2a_branch2b"
  top: "res2a_branch2b"
  batch_norm_param {
  }
}
layer {
  name: "scale2a_branch2b"
  type: "Scale"
  bottom: "res2a_branch2b"
  top: "res2a_branch2b"
  scale_param {
    bias_term: true
  }
}
layer {
  name: "res2a_branch2b_relu"
  type: "ReLU"
  bottom: "res2a_branch2b"
  top: "res2a_branch2b"
  relu_param {
  }
}
layer {
  name: "res2a_branch2c"
  type: "Convolution"
  bottom: "res2a_branch2b"
  top: "res2a_branch2c"
  convolution_param {
    num_output: 256
    bias_term: false
    pad: 0
    kernel_size: 1
    stride: 1
    weight_filler {
      type: "xavier"
    }
    bias_filler {
      type: "constant"
      value: 0.2
    }
  }
}
layer {
  name: "bn2a_branch2c"
  type: "BatchNorm"
  bottom: "res2a_branch2c"
  top: "res2a_branch2c"
  batch_norm_param {
  }
}
layer {
  name: "scale2a_branch2c"
  type: "Scale"
  bottom: "res2a_branch2c"
  top: "res2a_branch2c"
  scale_param {
    bias_term: true
  }
}
layer {
  name: "res2a"
  type: "Eltwise"
  bottom: "res2a_branch1"
  bottom: "res2a_branch2c"
  top: "res2a"
  eltwise_param {
  }
}
layer {
  name: "res2a_relu"
  type: "ReLU"
  bottom: "res2a"
  top: "res2a"
  relu_param {
  }
}
layer {
  name: "res2b_branch2a"
  type: "Convolution"
  bottom: "res2a"
  top: "res2b_branch2a"
  convolution_param {
    num_output: 64
    bias_term: false
    pad: 0
    kernel_size: 1
    stride: 1
    weight_filler {
      type: "xavier"
    }
    bias_filler {
      type: "constant"
      value: 0.2
    }
  }
}
layer {
  name: "bn2b_branch2a"
  type: "BatchNorm"
  bottom: "res2b_branch2a"
  top: "res2b_branch2a"
  batch_norm_param {
  }
}
layer {
  name: "scale2b_branch2a"
  type: "Scale"
  bottom: "res2b_branch2a"
  top: "res2b_branch2a"
  scale_param {
    bias_term: true
  }
}
layer {
  name: "res2b_branch2a_relu"
  type: "ReLU"
  bottom: "res2b_branch2a"
  top: "res2b_branch2a"
  relu_param {
  }
}
layer {
  name: "res2b_branch2b"
  type: "Convolution"
  bottom: "res2b_branch2a"
  top: "res2b_branch2b"
  convolution_param {
    num_output: 64
    bias_term: false
    pad: 1
    kernel_size: 3
    stride: 1
    weight_filler {
      type: "xavier"
    }
    bias_filler {
      type: "constant"
      value: 0.2
    }
  }
}
layer {
  name: "bn2b_branch2b"
  type: "BatchNorm"
  bottom: "res2b_branch2b"
  top: "res2b_branch2b"
  batch_norm_param {
  }
}
layer {
  name: "scale2b_branch2b"
  type: "Scale"
  bottom: "res2b_branch2b"
  top: "res2b_branch2b"
  scale_param {
    bias_term: true
  }
}
layer {
  name: "res2b_branch2b_relu"
  type: "ReLU"
  bottom: "res2b_branch2b"
  top: "res2b_branch2b"
  relu_param {
  }
}
layer {
  name: "res2b_branch2c"
  type: "Convolution"
  bottom: "res2b_branch2b"
  top: "res2b_branch2c"
  convolution_param {
    num_output: 256
    bias_term: false
    pad: 0
    kernel_size: 1
    stride: 1
    weight_filler {
      type: "xavier"
    }
    bias_filler {
      type: "constant"
      value: 0.2
    }
  }
}
layer {
  name: "bn2b_branch2c"
  type: "BatchNorm"
  bottom: "res2b_branch2c"
  top: "res2b_branch2c"
  batch_norm_param {
  }
}
layer {
  name: "scale2b_branch2c"
  type: "Scale"
  bottom: "res2b_branch2c"
  top: "res2b_branch2c"
  scale_param {
    bias_term: true
  }
}
layer {
  name: "res2b"
  type: "Eltwise"
  bottom: "res2a"
  bottom: "res2b_branch2c"
  top: "res2b"
  eltwise_param {
  }
}
layer {
  name: "res2b_relu"
  type: "ReLU"
  bottom: "res2b"
  top: "res2b"
  relu_param {
  }
}
layer {
  name: "res2c_branch2a"
  type: "Convolution"
  bottom: "res2b"
  top: "res2c_branch2a"
  convolution_param {
    num_output: 64
    bias_term: false
    pad: 0
    kernel_size: 1
    stride: 1
    weight_filler {
      type: "xavier"
    }
    bias_filler {
      type: "constant"
      value: 0.2
    }
  }
}
layer {
  name: "bn2c_branch2a"
  type: "BatchNorm"
  bottom: "res2c_branch2a"
  top: "res2c_branch2a"
  batch_norm_param {
  }
}
layer {
  name: "scale2c_branch2a"
  type: "Scale"
  bottom: "res2c_branch2a"
  top: "res2c_branch2a"
  scale_param {
    bias_term: true
  }
}
layer {
  name: "res2c_branch2a_relu"
  type: "ReLU"
  bottom: "res2c_branch2a"
  top: "res2c_branch2a"
  relu_param {
  }
}
layer {
  name: "res2c_branch2b"
  type: "Convolution"
  bottom: "res2c_branch2a"
  top: "res2c_branch2b"
  convolution_param {
    num_output: 64
    bias_term: false
    pad: 1
    kernel_size: 3
    stride: 1
    weight_filler {
      type: "xavier"
    }
    bias_filler {
      type: "constant"
      value: 0.2
    }
  }
}
layer {
  name: "bn2c_branch2b"
  type: "BatchNorm"
  bottom: "res2c_branch2b"
  top: "res2c_branch2b"
  batch_norm_param {
  }
}
layer {
  name: "scale2c_branch2b"
  type: "Scale"
  bottom: "res2c_branch2b"
  top: "res2c_branch2b"
  scale_param {
    bias_term: true
  }
}
layer {
  name: "res2c_branch2b_relu"
  type: "ReLU"
  bottom: "res2c_branch2b"
  top: "res2c_branch2b"
  relu_param {
  }
}
layer {
  name: "res2c_branch2c"
  type: "Convolution"
  bottom: "res2c_branch2b"
  top: "res2c_branch2c"
  convolution_param {
    num_output: 256
    bias_term: false
    pad: 0
    kernel_size: 1
    stride: 1
    weight_filler {
      type: "xavier"
    }
    bias_filler {
      type: "constant"
      value: 0.2
    }
  }
}
layer {
  name: "bn2c_branch2c"
  type: "BatchNorm"
  bottom: "res2c_branch2c"
  top: "res2c_branch2c"
  batch_norm_param {
  }
}
layer {
  name: "scale2c_branch2c"
  type: "Scale"
  bottom: "res2c_branch2c"
  top: "res2c_branch2c"
  scale_param {
    bias_term: true
  }
}
layer {
  name: "res2c"
  type: "Eltwise"
  bottom: "res2b"
  bottom: "res2c_branch2c"
  top: "res2c"
  eltwise_param {
  }
}
layer {
  name: "res2c_relu"
  type: "ReLU"
  bottom: "res2c"
  top: "res2c"
  relu_param {
  }
}
layer {
  name: "res3a_branch1"
  type: "Convolution"
  bottom: "res2c"
  top: "res3a_branch1"
  convolution_param {
    num_output: 512
    bias_term: false
    pad: 0
    kernel_size: 1
    stride: 2
    weight_filler {
      type: "xavier"
    }
    bias_filler {
      type: "constant"
      value: 0.2
    }
  }
}
layer {
  name: "bn3a_branch1"
  type: "BatchNorm"
  bottom: "res3a_branch1"
  top: "res3a_branch1"
  batch_norm_param {
  }
}
layer {
  name: "scale3a_branch1"
  type: "Scale"
  bottom: "res3a_branch1"
  top: "res3a_branch1"
  scale_param {
    bias_term: true
  }
}
layer {
  name: "res3a_branch2a"
  type: "Convolution"
  bottom: "res2c"
  top: "res3a_branch2a"
  convolution_param {
    num_output: 128
    bias_term: false
    pad: 0
    kernel_size: 1
    stride: 2
    weight_filler {
      type: "xavier"
    }
    bias_filler {
      type: "constant"
      value: 0.2
    }
  }
}
layer {
  name: "bn3a_branch2a"
  type: "BatchNorm"
  bottom: "res3a_branch2a"
  top: "res3a_branch2a"
  batch_norm_param {
  }
}
layer {
  name: "scale3a_branch2a"
  type: "Scale"
  bottom: "res3a_branch2a"
  top: "res3a_branch2a"
  scale_param {
    bias_term: true
  }
}
layer {
  name: "res3a_branch2a_relu"
  type: "ReLU"
  bottom: "res3a_branch2a"
  top: "res3a_branch2a"
  relu_param {
  }
}
layer {
  name: "res3a_branch2b"
  type: "Convolution"
  bottom: "res3a_branch2a"
  top: "res3a_branch2b"
  convolution_param {
    num_output: 128
    bias_term: false
    pad: 1
    kernel_size: 3
    stride: 1
    weight_filler {
      type: "xavier"
    }
    bias_filler {
      type: "constant"
      value: 0.2
    }
  }
}
layer {
  name: "bn3a_branch2b"
  type: "BatchNorm"
  bottom: "res3a_branch2b"
  top: "res3a_branch2b"
  batch_norm_param {
  }
}
layer {
  name: "scale3a_branch2b"
  type: "Scale"
  bottom: "res3a_branch2b"
  top: "res3a_branch2b"
  scale_param {
    bias_term: true
  }
}
layer {
  name: "res3a_branch2b_relu"
  type: "ReLU"
  bottom: "res3a_branch2b"
  top: "res3a_branch2b"
  relu_param {
  }
}
layer {
  name: "res3a_branch2c"
  type: "Convolution"
  bottom: "res3a_branch2b"
  top: "res3a_branch2c"
  convolution_param {
    num_output: 512
    bias_term: false
    pad: 0
    kernel_size: 1
    stride: 1
    weight_filler {
      type: "xavier"
    }
    bias_filler {
      type: "constant"
      value: 0.2
    }
  }
}
layer {
  name: "bn3a_branch2c"
  type: "BatchNorm"
  bottom: "res3a_branch2c"
  top: "res3a_branch2c"
  batch_norm_param {
  }
}
layer {
  name: "scale3a_branch2c"
  type: "Scale"
  bottom: "res3a_branch2c"
  top: "res3a_branch2c"
  scale_param {
    bias_term: true
  }
}
layer {
  name: "res3a"
  type: "Eltwise"
  bottom: "res3a_branch1"
  bottom: "res3a_branch2c"
  top: "res3a"
  eltwise_param {
  }
}
layer {
  name: "res3a_relu"
  type: "ReLU"
  bottom: "res3a"
  top: "res3a"
  relu_param {
  }
}
layer {
  name: "res3b_branch2a"
  type: "Convolution"
  bottom: "res3a"
  top: "res3b_branch2a"
  convolution_param {
    num_output: 128
    bias_term: false
    pad: 0
    kernel_size: 1
    stride: 1
    weight_filler {
      type: "xavier"
    }
    bias_filler {
      type: "constant"
      value: 0.2
    }
  }
}
layer {
  name: "bn3b_branch2a"
  type: "BatchNorm"
  bottom: "res3b_branch2a"
  top: "res3b_branch2a"
  batch_norm_param {
  }
}
layer {
  name: "scale3b_branch2a"
  type: "Scale"
  bottom: "res3b_branch2a"
  top: "res3b_branch2a"
  scale_param {
    bias_term: true
  }
}
layer {
  name: "res3b_branch2a_relu"
  type: "ReLU"
  bottom: "res3b_branch2a"
  top: "res3b_branch2a"
  relu_param {
  }
}
layer {
  name: "res3b_branch2b"
  type: "Convolution"
  bottom: "res3b_branch2a"
  top: "res3b_branch2b"
  convolution_param {
    num_output: 128
    bias_term: false
    pad: 1
    kernel_size: 3
    stride: 1
    weight_filler {
      type: "xavier"
    }
    bias_filler {
      type: "constant"
      value: 0.2
    }
  }
}
layer {
  name: "bn3b_branch2b"
  type: "BatchNorm"
  bottom: "res3b_branch2b"
  top: "res3b_branch2b"
  batch_norm_param {
  }
}
layer {
  name: "scale3b_branch2b"
  type: "Scale"
  bottom: "res3b_branch2b"
  top: "res3b_branch2b"
  scale_param {
    bias_term: true
  }
}
layer {
  name: "res3b_branch2b_relu"
  type: "ReLU"
  bottom: "res3b_branch2b"
  top: "res3b_branch2b"
  relu_param {
  }
}
layer {
  name: "res3b_branch2c"
  type: "Convolution"
  bottom: "res3b_branch2b"
  top: "res3b_branch2c"
  convolution_param {
    num_output: 512
    bias_term: false
    pad: 0
    kernel_size: 1
    stride: 1
    weight_filler {
      type: "xavier"
    }
    bias_filler {
      type: "constant"
      value: 0.2
    }
  }
}
layer {
  name: "bn3b_branch2c"
  type: "BatchNorm"
  bottom: "res3b_branch2c"
  top: "res3b_branch2c"
  batch_norm_param {
  }
}
layer {
  name: "scale3b_branch2c"
  type: "Scale"
  bottom: "res3b_branch2c"
  top: "res3b_branch2c"
  scale_param {
    bias_term: true
  }
}
layer {
  name: "res3b"
  type: "Eltwise"
  bottom: "res3a"
  bottom: "res3b_branch2c"
  top: "res3b"
  eltwise_param {
  }
}
layer {
  name: "res3b_relu"
  type: "ReLU"
  bottom: "res3b"
  top: "res3b"
  relu_param {
  }
}
layer {
  name: "res3c_branch2a"
  type: "Convolution"
  bottom: "res3b"
  top: "res3c_branch2a"
  convolution_param {
    num_output: 128
    bias_term: false
    pad: 0
    kernel_size: 1
    stride: 1
    weight_filler {
      type: "xavier"
    }
    bias_filler {
      type: "constant"
      value: 0.2
    }
  }
}
layer {
  name: "bn3c_branch2a"
  type: "BatchNorm"
  bottom: "res3c_branch2a"
  top: "res3c_branch2a"
  batch_norm_param {
  }
}
layer {
  name: "scale3c_branch2a"
  type: "Scale"
  bottom: "res3c_branch2a"
  top: "res3c_branch2a"
  scale_param {
    bias_term: true
  }
}
layer {
  name: "res3c_branch2a_relu"
  type: "ReLU"
  bottom: "res3c_branch2a"
  top: "res3c_branch2a"
  relu_param {
  }
}
layer {
  name: "res3c_branch2b"
  type: "Convolution"
  bottom: "res3c_branch2a"
  top: "res3c_branch2b"
  convolution_param {
    num_output: 128
    bias_term: false
    pad: 1
    kernel_size: 3
    stride: 1
    weight_filler {
      type: "xavier"
    }
    bias_filler {
      type: "constant"
      value: 0.2
    }
  }
}
layer {
  name: "bn3c_branch2b"
  type: "BatchNorm"
  bottom: "res3c_branch2b"
  top: "res3c_branch2b"
  batch_norm_param {
  }
}
layer {
  name: "scale3c_branch2b"
  type: "Scale"
  bottom: "res3c_branch2b"
  top: "res3c_branch2b"
  scale_param {
    bias_term: true
  }
}
layer {
  name: "res3c_branch2b_relu"
  type: "ReLU"
  bottom: "res3c_branch2b"
  top: "res3c_branch2b"
  relu_param {
  }
}
layer {
  name: "res3c_branch2c"
  type: "Convolution"
  bottom: "res3c_branch2b"
  top: "res3c_branch2c"
  convolution_param {
    num_output: 512
    bias_term: false
    pad: 0
    kernel_size: 1
    stride: 1
    weight_filler {
      type: "xavier"
    }
    bias_filler {
      type: "constant"
      value: 0.2
    }
  }
}
layer {
  name: "bn3c_branch2c"
  type: "BatchNorm"
  bottom: "res3c_branch2c"
  top: "res3c_branch2c"
  batch_norm_param {
  }
}
layer {
  name: "scale3c_branch2c"
  type: "Scale"
  bottom: "res3c_branch2c"
  top: "res3c_branch2c"
  scale_param {
    bias_term: true
  }
}
layer {
  name: "res3c"
  type: "Eltwise"
  bottom: "res3b"
  bottom: "res3c_branch2c"
  top: "res3c"
  eltwise_param {
  }
}
layer {
  name: "res3c_relu"
  type: "ReLU"
  bottom: "res3c"
  top: "res3c"
  relu_param {
  }
}
layer {
  name: "res3d_branch2a"
  type: "Convolution"
  bottom: "res3c"
  top: "res3d_branch2a"
  convolution_param {
    num_output: 128
    bias_term: false
    pad: 0
    kernel_size: 1
    stride: 1
    weight_filler {
      type: "xavier"
    }
    bias_filler {
      type: "constant"
      value: 0.2
    }
  }
}
layer {
  name: "bn3d_branch2a"
  type: "BatchNorm"
  bottom: "res3d_branch2a"
  top: "res3d_branch2a"
  batch_norm_param {
  }
}
layer {
  name: "scale3d_branch2a"
  type: "Scale"
  bottom: "res3d_branch2a"
  top: "res3d_branch2a"
  scale_param {
    bias_term: true
  }
}
layer {
  name: "res3d_branch2a_relu"
  type: "ReLU"
  bottom: "res3d_branch2a"
  top: "res3d_branch2a"
  relu_param {
  }
}
layer {
  name: "res3d_branch2b"
  type: "Convolution"
  bottom: "res3d_branch2a"
  top: "res3d_branch2b"
  convolution_param {
    num_output: 128
    bias_term: false
    pad: 1
    kernel_size: 3
    stride: 1
    weight_filler {
      type: "xavier"
    }
    bias_filler {
      type: "constant"
      value: 0.2
    }
  }
}
layer {
  name: "bn3d_branch2b"
  type: "BatchNorm"
  bottom: "res3d_branch2b"
  top: "res3d_branch2b"
  batch_norm_param {
  }
}
layer {
  name: "scale3d_branch2b"
  type: "Scale"
  bottom: "res3d_branch2b"
  top: "res3d_branch2b"
  scale_param {
    bias_term: true
  }
}
layer {
  name: "res3d_branch2b_relu"
  type: "ReLU"
  bottom: "res3d_branch2b"
  top: "res3d_branch2b"
  relu_param {
  }
}
layer {
  name: "res3d_branch2c"
  type: "Convolution"
  bottom: "res3d_branch2b"
  top: "res3d_branch2c"
  convolution_param {
    num_output: 512
    bias_term: false
    pad: 0
    kernel_size: 1
    stride: 1
    weight_filler {
      type: "xavier"
    }
    bias_filler {
      type: "constant"
      value: 0.2
    }
  }
}
layer {
  name: "bn3d_branch2c"
  type: "BatchNorm"
  bottom: "res3d_branch2c"
  top: "res3d_branch2c"
  batch_norm_param {
  }
}
layer {
  name: "scale3d_branch2c"
  type: "Scale"
  bottom: "res3d_branch2c"
  top: "res3d_branch2c"
  scale_param {
    bias_term: true
  }
}
layer {
  name: "res3d"
  type: "Eltwise"
  bottom: "res3c"
  bottom: "res3d_branch2c"
  top: "res3d"
  eltwise_param {
  }
}
layer {
  name: "res3d_relu"
  type: "ReLU"
  bottom: "res3d"
  top: "res3d"
  relu_param {
  }
}
layer {
  name: "res4a_branch1"
  type: "Convolution"
  bottom: "res3d"
  top: "res4a_branch1"
  convolution_param {
    num_output: 1024
    bias_term: false
    pad: 0
    kernel_size: 1
    stride: 2
    weight_filler {
      type: "xavier"
    }
    bias_filler {
      type: "constant"
      value: 0.2
    }
  }
}
layer {
  name: "bn4a_branch1"
  type: "BatchNorm"
  bottom: "res4a_branch1"
  top: "res4a_branch1"
  batch_norm_param {
  }
}
layer {
  name: "scale4a_branch1"
  type: "Scale"
  bottom: "res4a_branch1"
  top: "res4a_branch1"
  scale_param {
    bias_term: true
  }
}
layer {
  name: "res4a_branch2a"
  type: "Convolution"
  bottom: "res3d"
  top: "res4a_branch2a"
  convolution_param {
    num_output: 256
    bias_term: false
    pad: 0
    kernel_size: 1
    stride: 2
    weight_filler {
      type: "xavier"
    }
    bias_filler {
      type: "constant"
      value: 0.2
    }
  }
}
layer {
  name: "bn4a_branch2a"
  type: "BatchNorm"
  bottom: "res4a_branch2a"
  top: "res4a_branch2a"
  batch_norm_param {
  }
}
layer {
  name: "scale4a_branch2a"
  type: "Scale"
  bottom: "res4a_branch2a"
  top: "res4a_branch2a"
  scale_param {
    bias_term: true
  }
}
layer {
  name: "res4a_branch2a_relu"
  type: "ReLU"
  bottom: "res4a_branch2a"
  top: "res4a_branch2a"
  relu_param {
  }
}
layer {
  name: "res4a_branch2b"
  type: "Convolution"
  bottom: "res4a_branch2a"
  top: "res4a_branch2b"
  convolution_param {
    num_output: 256
    bias_term: false
    pad: 1
    kernel_size: 3
    stride: 1
    weight_filler {
      type: "xavier"
    }
    bias_filler {
      type: "constant"
      value: 0.2
    }
  }
}
layer {
  name: "bn4a_branch2b"
  type: "BatchNorm"
  bottom: "res4a_branch2b"
  top: "res4a_branch2b"
  batch_norm_param {
  }
}
layer {
  name: "scale4a_branch2b"
  type: "Scale"
  bottom: "res4a_branch2b"
  top: "res4a_branch2b"
  scale_param {
    bias_term: true
  }
}
layer {
  name: "res4a_branch2b_relu"
  type: "ReLU"
  bottom: "res4a_branch2b"
  top: "res4a_branch2b"
  relu_param {
  }
}
layer {
  name: "res4a_branch2c"
  type: "Convolution"
  bottom: "res4a_branch2b"
  top: "res4a_branch2c"
  convolution_param {
    num_output: 1024
    bias_term: false
    pad: 0
    kernel_size: 1
    stride: 1
    weight_filler {
      type: "xavier"
    }
    bias_filler {
      type: "constant"
      value: 0.2
    }
  }
}
layer {
  name: "bn4a_branch2c"
  type: "BatchNorm"
  bottom: "res4a_branch2c"
  top: "res4a_branch2c"
  batch_norm_param {
  }
}
layer {
  name: "scale4a_branch2c"
  type: "Scale"
  bottom: "res4a_branch2c"
  top: "res4a_branch2c"
  scale_param {
    bias_term: true
  }
}
layer {
  name: "res4a"
  type: "Eltwise"
  bottom: "res4a_branch1"
  bottom: "res4a_branch2c"
  top: "res4a"
  eltwise_param {
  }
}
layer {
  name: "res4a_relu"
  type: "ReLU"
  bottom: "res4a"
  top: "res4a"
  relu_param {
  }
}
layer {
  name: "res4b_branch2a"
  type: "Convolution"
  bottom: "res4a"
  top: "res4b_branch2a"
  convolution_param {
    num_output: 256
    bias_term: false
    pad: 0
    kernel_size: 1
    stride: 1
    weight_filler {
      type: "xavier"
    }
    bias_filler {
      type: "constant"
      value: 0.2
    }
  }
}
layer {
  name: "bn4b_branch2a"
  type: "BatchNorm"
  bottom: "res4b_branch2a"
  top: "res4b_branch2a"
  batch_norm_param {
  }
}
layer {
  name: "scale4b_branch2a"
  type: "Scale"
  bottom: "res4b_branch2a"
  top: "res4b_branch2a"
  scale_param {
    bias_term: true
  }
}
layer {
  name: "res4b_branch2a_relu"
  type: "ReLU"
  bottom: "res4b_branch2a"
  top: "res4b_branch2a"
  relu_param {
  }
}
layer {
  name: "res4b_branch2b"
  type: "Convolution"
  bottom: "res4b_branch2a"
  top: "res4b_branch2b"
  convolution_param {
    num_output: 256
    bias_term: false
    pad: 1
    kernel_size: 3
    stride: 1
    weight_filler {
      type: "xavier"
    }
    bias_filler {
      type: "constant"
      value: 0.2
    }
  }
}
layer {
  name: "bn4b_branch2b"
  type: "BatchNorm"
  bottom: "res4b_branch2b"
  top: "res4b_branch2b"
  batch_norm_param {
  }
}
layer {
  name: "scale4b_branch2b"
  type: "Scale"
  bottom: "res4b_branch2b"
  top: "res4b_branch2b"
  scale_param {
    bias_term: true
  }
}
layer {
  name: "res4b_branch2b_relu"
  type: "ReLU"
  bottom: "res4b_branch2b"
  top: "res4b_branch2b"
  relu_param {
  }
}
layer {
  name: "res4b_branch2c"
  type: "Convolution"
  bottom: "res4b_branch2b"
  top: "res4b_branch2c"
  convolution_param {
    num_output: 1024
    bias_term: false
    pad: 0
    kernel_size: 1
    stride: 1
    weight_filler {
      type: "xavier"
    }
    bias_filler {
      type: "constant"
      value: 0.2
    }
  }
}
layer {
  name: "bn4b_branch2c"
  type: "BatchNorm"
  bottom: "res4b_branch2c"
  top: "res4b_branch2c"
  batch_norm_param {
  }
}
layer {
  name: "scale4b_branch2c"
  type: "Scale"
  bottom: "res4b_branch2c"
  top: "res4b_branch2c"
  scale_param {
    bias_term: true
  }
}
layer {
  name: "res4b"
  type: "Eltwise"
  bottom: "res4a"
  bottom: "res4b_branch2c"
  top: "res4b"
  eltwise_param {
  }
}
layer {
  name: "res4b_relu"
  type: "ReLU"
  bottom: "res4b"
  top: "res4b"
  relu_param {
  }
}
layer {
  name: "res4c_branch2a"
  type: "Convolution"
  bottom: "res4b"
  top: "res4c_branch2a"
  convolution_param {
    num_output: 256
    bias_term: false
    pad: 0
    kernel_size: 1
    stride: 1
    weight_filler {
      type: "xavier"
    }
    bias_filler {
      type: "constant"
      value: 0.2
    }
  }
}
layer {
  name: "bn4c_branch2a"
  type: "BatchNorm"
  bottom: "res4c_branch2a"
  top: "res4c_branch2a"
  batch_norm_param {
  }
}
layer {
  name: "scale4c_branch2a"
  type: "Scale"
  bottom: "res4c_branch2a"
  top: "res4c_branch2a"
  scale_param {
    bias_term: true
  }
}
layer {
  name: "res4c_branch2a_relu"
  type: "ReLU"
  bottom: "res4c_branch2a"
  top: "res4c_branch2a"
  relu_param {
  }
}
layer {
  name: "res4c_branch2b"
  type: "Convolution"
  bottom: "res4c_branch2a"
  top: "res4c_branch2b"
  convolution_param {
    num_output: 256
    bias_term: false
    pad: 1
    kernel_size: 3
    stride: 1
    weight_filler {
      type: "xavier"
    }
    bias_filler {
      type: "constant"
      value: 0.2
    }
  }
}
layer {
  name: "bn4c_branch2b"
  type: "BatchNorm"
  bottom: "res4c_branch2b"
  top: "res4c_branch2b"
  batch_norm_param {
  }
}
layer {
  name: "scale4c_branch2b"
  type: "Scale"
  bottom: "res4c_branch2b"
  top: "res4c_branch2b"
  scale_param {
    bias_term: true
  }
}
layer {
  name: "res4c_branch2b_relu"
  type: "ReLU"
  bottom: "res4c_branch2b"
  top: "res4c_branch2b"
  relu_param {
  }
}
layer {
  name: "res4c_branch2c"
  type: "Convolution"
  bottom: "res4c_branch2b"
  top: "res4c_branch2c"
  convolution_param {
    num_output: 1024
    bias_term: false
    pad: 0
    kernel_size: 1
    stride: 1
    weight_filler {
      type: "xavier"
    }
    bias_filler {
      type: "constant"
      value: 0.2
    }
  }
}
layer {
  name: "bn4c_branch2c"
  type: "BatchNorm"
  bottom: "res4c_branch2c"
  top: "res4c_branch2c"
  batch_norm_param {
  }
}
layer {
  name: "scale4c_branch2c"
  type: "Scale"
  bottom: "res4c_branch2c"
  top: "res4c_branch2c"
  scale_param {
    bias_term: true
  }
}
layer {
  name: "res4c"
  type: "Eltwise"
  bottom: "res4b"
  bottom: "res4c_branch2c"
  top: "res4c"
  eltwise_param {
  }
}
layer {
  name: "res4c_relu"
  type: "ReLU"
  bottom: "res4c"
  top: "res4c"
  relu_param {
  }
}
layer {
  name: "res4d_branch2a"
  type: "Convolution"
  bottom: "res4c"
  top: "res4d_branch2a"
  convolution_param {
    num_output: 256
    bias_term: false
    pad: 0
    kernel_size: 1
    stride: 1
    weight_filler {
      type: "xavier"
    }
    bias_filler {
      type: "constant"
      value: 0.2
    }
  }
}
layer {
  name: "bn4d_branch2a"
  type: "BatchNorm"
  bottom: "res4d_branch2a"
  top: "res4d_branch2a"
  batch_norm_param {
  }
}
layer {
  name: "scale4d_branch2a"
  type: "Scale"
  bottom: "res4d_branch2a"
  top: "res4d_branch2a"
  scale_param {
    bias_term: true
  }
}
layer {
  name: "res4d_branch2a_relu"
  type: "ReLU"
  bottom: "res4d_branch2a"
  top: "res4d_branch2a"
  relu_param {
  }
}
layer {
  name: "res4d_branch2b"
  type: "Convolution"
  bottom: "res4d_branch2a"
  top: "res4d_branch2b"
  convolution_param {
    num_output: 256
    bias_term: false
    pad: 1
    kernel_size: 3
    stride: 1
    weight_filler {
      type: "xavier"
    }
    bias_filler {
      type: "constant"
      value: 0.2
    }
  }
}
layer {
  name: "bn4d_branch2b"
  type: "BatchNorm"
  bottom: "res4d_branch2b"
  top: "res4d_branch2b"
  batch_norm_param {
  }
}
layer {
  name: "scale4d_branch2b"
  type: "Scale"
  bottom: "res4d_branch2b"
  top: "res4d_branch2b"
  scale_param {
    bias_term: true
  }
}
layer {
  name: "res4d_branch2b_relu"
  type: "ReLU"
  bottom: "res4d_branch2b"
  top: "res4d_branch2b"
  relu_param {
  }
}
layer {
  name: "res4d_branch2c"
  type: "Convolution"
  bottom: "res4d_branch2b"
  top: "res4d_branch2c"
  convolution_param {
    num_output: 1024
    bias_term: false
    pad: 0
    kernel_size: 1
    stride: 1
    weight_filler {
      type: "xavier"
    }
    bias_filler {
      type: "constant"
      value: 0.2
    }
  }
}
layer {
  name: "bn4d_branch2c"
  type: "BatchNorm"
  bottom: "res4d_branch2c"
  top: "res4d_branch2c"
  batch_norm_param {
  }
}
layer {
  name: "scale4d_branch2c"
  type: "Scale"
  bottom: "res4d_branch2c"
  top: "res4d_branch2c"
  scale_param {
    bias_term: true
  }
}
layer {
  name: "res4d"
  type: "Eltwise"
  bottom: "res4c"
  bottom: "res4d_branch2c"
  top: "res4d"
  eltwise_param {
  }
}
layer {
  name: "res4d_relu"
  type: "ReLU"
  bottom: "res4d"
  top: "res4d"
  relu_param {
  }
}
layer {
  name: "res4e_branch2a"
  type: "Convolution"
  bottom: "res4d"
  top: "res4e_branch2a"
  convolution_param {
    num_output: 256
    bias_term: false
    pad: 0
    kernel_size: 1
    stride: 1
    weight_filler {
      type: "xavier"
    }
    bias_filler {
      type: "constant"
      value: 0.2
    }
  }
}
layer {
  name: "bn4e_branch2a"
  type: "BatchNorm"
  bottom: "res4e_branch2a"
  top: "res4e_branch2a"
  batch_norm_param {
  }
}
layer {
  name: "scale4e_branch2a"
  type: "Scale"
  bottom: "res4e_branch2a"
  top: "res4e_branch2a"
  scale_param {
    bias_term: true
  }
}
layer {
  name: "res4e_branch2a_relu"
  type: "ReLU"
  bottom: "res4e_branch2a"
  top: "res4e_branch2a"
  relu_param {
  }
}
layer {
  name: "res4e_branch2b"
  type: "Convolution"
  bottom: "res4e_branch2a"
  top: "res4e_branch2b"
  convolution_param {
    num_output: 256
    bias_term: false
    pad: 1
    kernel_size: 3
    stride: 1
    weight_filler {
      type: "xavier"
    }
    bias_filler {
      type: "constant"
      value: 0.2
    }
  }
}
layer {
  name: "bn4e_branch2b"
  type: "BatchNorm"
  bottom: "res4e_branch2b"
  top: "res4e_branch2b"
  batch_norm_param {
  }
}
layer {
  name: "scale4e_branch2b"
  type: "Scale"
  bottom: "res4e_branch2b"
  top: "res4e_branch2b"
  scale_param {
    bias_term: true
  }
}
layer {
  name: "res4e_branch2b_relu"
  type: "ReLU"
  bottom: "res4e_branch2b"
  top: "res4e_branch2b"
  relu_param {
  }
}
layer {
  name: "res4e_branch2c"
  type: "Convolution"
  bottom: "res4e_branch2b"
  top: "res4e_branch2c"
  convolution_param {
    num_output: 1024
    bias_term: false
    pad: 0
    kernel_size: 1
    stride: 1
    weight_filler {
      type: "xavier"
    }
    bias_filler {
      type: "constant"
      value: 0.2
    }
  }
}
layer {
  name: "bn4e_branch2c"
  type: "BatchNorm"
  bottom: "res4e_branch2c"
  top: 
I0619 10:19:41.559839  2028 layer_factory.hpp:77] Creating layer data
I0619 10:19:41.569948  2028 net.cpp:94] Creating Layer data
I0619 10:19:41.569983  2028 net.cpp:409] data -> data
I0619 10:19:41.570039  2028 net.cpp:409] data -> label
I0619 10:19:41.570070  2028 data_transformer.cpp:25] Loading mean file from: /home/wenxizhu/wenxi/internal-intel-caffe/examples/imagenet/imagenet_mean.binaryproto
I0619 10:19:41.570637  2034 db_lmdb.cpp:35] Opened lmdb /home/wenxizhu/wenxi/internal-intel-caffe/examples/imagenet/ilsvrc12_train_lmdb
I0619 10:19:41.583667  2028 data_layer.cpp:76] output data size: 50,3,224,224
I0619 10:19:41.665649  2028 net.cpp:144] Setting up data
I0619 10:19:41.665725  2028 net.cpp:151] Top shape: 50 3 224 224 (7526400)
I0619 10:19:41.665735  2028 net.cpp:151] Top shape: 50 (50)
I0619 10:19:41.665738  2028 net.cpp:159] Memory required for data: 30105800
I0619 10:19:41.665763  2028 layer_factory.hpp:77] Creating layer conv1
I0619 10:19:41.665804  2028 net.cpp:94] Creating Layer conv1
I0619 10:19:41.665814  2028 net.cpp:435] conv1 <- data
I0619 10:19:41.665838  2028 net.cpp:409] conv1 -> conv1
I0619 10:19:41.738078  2028 net.cpp:144] Setting up conv1
I0619 10:19:41.738104  2028 net.cpp:151] Top shape: 50 64 112 112 (40140800)
I0619 10:19:41.738109  2028 net.cpp:159] Memory required for data: 190669000
I0619 10:19:41.738157  2028 layer_factory.hpp:77] Creating layer bn_conv1
I0619 10:19:41.738773  2028 net.cpp:94] Creating Layer bn_conv1
I0619 10:19:41.738782  2028 net.cpp:435] bn_conv1 <- conv1
I0619 10:19:41.738790  2028 net.cpp:396] bn_conv1 -> conv1 (in-place)
I0619 10:19:41.741044  2028 net.cpp:144] Setting up bn_conv1
I0619 10:19:41.741060  2028 net.cpp:151] Top shape: 50 64 112 112 (40140800)
I0619 10:19:41.741065  2028 net.cpp:159] Memory required for data: 351232200
I0619 10:19:41.741084  2028 layer_factory.hpp:77] Creating layer scale_conv1
I0619 10:19:41.741102  2028 net.cpp:94] Creating Layer scale_conv1
I0619 10:19:41.741107  2028 net.cpp:435] scale_conv1 <- conv1
I0619 10:19:41.741114  2028 net.cpp:396] scale_conv1 -> conv1 (in-place)
I0619 10:19:41.741180  2028 layer_factory.hpp:77] Creating layer scale_conv1
I0619 10:19:41.741338  2028 net.cpp:144] Setting up scale_conv1
I0619 10:19:41.741348  2028 net.cpp:151] Top shape: 50 64 112 112 (40140800)
I0619 10:19:41.741353  2028 net.cpp:159] Memory required for data: 511795400
I0619 10:19:41.741369  2028 layer_factory.hpp:77] Creating layer conv1_relu
I0619 10:19:41.741416  2028 net.cpp:94] Creating Layer conv1_relu
I0619 10:19:41.741423  2028 net.cpp:435] conv1_relu <- conv1
I0619 10:19:41.741431  2028 net.cpp:396] conv1_relu -> conv1 (in-place)
I0619 10:19:41.741456  2028 net.cpp:144] Setting up conv1_relu
I0619 10:19:41.741464  2028 net.cpp:151] Top shape: 50 64 112 112 (40140800)
I0619 10:19:41.741468  2028 net.cpp:159] Memory required for data: 672358600
I0619 10:19:41.741472  2028 layer_factory.hpp:77] Creating layer pool1
I0619 10:19:41.741488  2028 net.cpp:94] Creating Layer pool1
I0619 10:19:41.741493  2028 net.cpp:435] pool1 <- conv1
I0619 10:19:41.741500  2028 net.cpp:409] pool1 -> pool1
I0619 10:19:41.741560  2028 net.cpp:144] Setting up pool1
I0619 10:19:41.741569  2028 net.cpp:151] Top shape: 50 64 56 56 (10035200)
I0619 10:19:41.741574  2028 net.cpp:159] Memory required for data: 712499400
I0619 10:19:41.741577  2028 layer_factory.hpp:77] Creating layer pool1_pool1_0_split
I0619 10:19:41.741588  2028 net.cpp:94] Creating Layer pool1_pool1_0_split
I0619 10:19:41.741595  2028 net.cpp:435] pool1_pool1_0_split <- pool1
I0619 10:19:41.741602  2028 net.cpp:409] pool1_pool1_0_split -> pool1_pool1_0_split_0
I0619 10:19:41.741613  2028 net.cpp:409] pool1_pool1_0_split -> pool1_pool1_0_split_1
I0619 10:19:41.741658  2028 net.cpp:144] Setting up pool1_pool1_0_split
I0619 10:19:41.741667  2028 net.cpp:151] Top shape: 50 64 56 56 (10035200)
I0619 10:19:41.741672  2028 net.cpp:151] Top shape: 50 64 56 56 (10035200)
I0619 10:19:41.741677  2028 net.cpp:159] Memory required for data: 792781000
I0619 10:19:41.741681  2028 layer_factory.hpp:77] Creating layer res2a_branch1
I0619 10:19:41.741694  2028 net.cpp:94] Creating Layer res2a_branch1
I0619 10:19:41.741700  2028 net.cpp:435] res2a_branch1 <- pool1_pool1_0_split_0
I0619 10:19:41.741708  2028 net.cpp:409] res2a_branch1 -> res2a_branch1
I0619 10:19:41.769286  2028 net.cpp:144] Setting up res2a_branch1
I0619 10:19:41.769310  2028 net.cpp:151] Top shape: 50 256 56 56 (40140800)
I0619 10:19:41.769315  2028 net.cpp:159] Memory required for data: 953344200
I0619 10:19:41.769325  2028 layer_factory.hpp:77] Creating layer bn2a_branch1
I0619 10:19:41.769337  2028 net.cpp:94] Creating Layer bn2a_branch1
I0619 10:19:41.769343  2028 net.cpp:435] bn2a_branch1 <- res2a_branch1
I0619 10:19:41.769351  2028 net.cpp:396] bn2a_branch1 -> res2a_branch1 (in-place)
I0619 10:19:41.771636  2028 net.cpp:144] Setting up bn2a_branch1
I0619 10:19:41.771657  2028 net.cpp:151] Top shape: 50 256 56 56 (40140800)
I0619 10:19:41.771662  2028 net.cpp:159] Memory required for data: 1113907400
I0619 10:19:41.771678  2028 layer_factory.hpp:77] Creating layer scale2a_branch1
I0619 10:19:41.771689  2028 net.cpp:94] Creating Layer scale2a_branch1
I0619 10:19:41.771695  2028 net.cpp:435] scale2a_branch1 <- res2a_branch1
I0619 10:19:41.771703  2028 net.cpp:396] scale2a_branch1 -> res2a_branch1 (in-place)
I0619 10:19:41.771759  2028 layer_factory.hpp:77] Creating layer scale2a_branch1
I0619 10:19:41.771895  2028 net.cpp:144] Setting up scale2a_branch1
I0619 10:19:41.771905  2028 net.cpp:151] Top shape: 50 256 56 56 (40140800)
I0619 10:19:41.771910  2028 net.cpp:159] Memory required for data: 1274470600
I0619 10:19:41.771924  2028 layer_factory.hpp:77] Creating layer res2a_branch2a
I0619 10:19:41.771940  2028 net.cpp:94] Creating Layer res2a_branch2a
I0619 10:19:41.771945  2028 net.cpp:435] res2a_branch2a <- pool1_pool1_0_split_1
I0619 10:19:41.771955  2028 net.cpp:409] res2a_branch2a -> res2a_branch2a
I0619 10:19:41.786694  2028 net.cpp:144] Setting up res2a_branch2a
I0619 10:19:41.786715  2028 net.cpp:151] Top shape: 50 64 56 56 (10035200)
I0619 10:19:41.786721  2028 net.cpp:159] Memory required for data: 1314611400
I0619 10:19:41.786731  2028 layer_factory.hpp:77] Creating layer bn2a_branch2a
I0619 10:19:41.786741  2028 net.cpp:94] Creating Layer bn2a_branch2a
I0619 10:19:41.786747  2028 net.cpp:435] bn2a_branch2a <- res2a_branch2a
I0619 10:19:41.786756  2028 net.cpp:396] bn2a_branch2a -> res2a_branch2a (in-place)
I0619 10:19:41.787483  2028 net.cpp:144] Setting up bn2a_branch2a
I0619 10:19:41.787519  2028 net.cpp:151] Top shape: 50 64 56 56 (10035200)
I0619 10:19:41.787526  2028 net.cpp:159] Memory required for data: 1354752200
I0619 10:19:41.787541  2028 layer_factory.hpp:77] Creating layer scale2a_branch2a
I0619 10:19:41.787551  2028 net.cpp:94] Creating Layer scale2a_branch2a
I0619 10:19:41.787556  2028 net.cpp:435] scale2a_branch2a <- res2a_branch2a
I0619 10:19:41.787564  2028 net.cpp:396] scale2a_branch2a -> res2a_branch2a (in-place)
I0619 10:19:41.787624  2028 layer_factory.hpp:77] Creating layer scale2a_branch2a
I0619 10:19:41.787775  2028 net.cpp:144] Setting up scale2a_branch2a
I0619 10:19:41.787786  2028 net.cpp:151] Top shape: 50 64 56 56 (10035200)
I0619 10:19:41.787793  2028 net.cpp:159] Memory required for data: 1394893000
I0619 10:19:41.787802  2028 layer_factory.hpp:77] Creating layer res2a_branch2a_relu
I0619 10:19:41.787811  2028 net.cpp:94] Creating Layer res2a_branch2a_relu
I0619 10:19:41.787817  2028 net.cpp:435] res2a_branch2a_relu <- res2a_branch2a
I0619 10:19:41.787825  2028 net.cpp:396] res2a_branch2a_relu -> res2a_branch2a (in-place)
I0619 10:19:41.787834  2028 net.cpp:144] Setting up res2a_branch2a_relu
I0619 10:19:41.787842  2028 net.cpp:151] Top shape: 50 64 56 56 (10035200)
I0619 10:19:41.787844  2028 net.cpp:159] Memory required for data: 1435033800
I0619 10:19:41.787849  2028 layer_factory.hpp:77] Creating layer res2a_branch2b
I0619 10:19:41.787863  2028 net.cpp:94] Creating Layer res2a_branch2b
I0619 10:19:41.787868  2028 net.cpp:435] res2a_branch2b <- res2a_branch2a
I0619 10:19:41.787875  2028 net.cpp:409] res2a_branch2b -> res2a_branch2b
I0619 10:19:41.826988  2028 net.cpp:144] Setting up res2a_branch2b
I0619 10:19:41.827018  2028 net.cpp:151] Top shape: 50 64 56 56 (10035200)
I0619 10:19:41.827023  2028 net.cpp:159] Memory required for data: 1475174600
I0619 10:19:41.827033  2028 layer_factory.hpp:77] Creating layer bn2a_branch2b
I0619 10:19:41.827047  2028 net.cpp:94] Creating Layer bn2a_branch2b
I0619 10:19:41.827054  2028 net.cpp:435] bn2a_branch2b <- res2a_branch2b
I0619 10:19:41.827064  2028 net.cpp:396] bn2a_branch2b -> res2a_branch2b (in-place)
I0619 10:19:41.828241  2028 net.cpp:144] Setting up bn2a_branch2b
I0619 10:19:41.828261  2028 net.cpp:151] Top shape: 50 64 56 56 (10035200)
I0619 10:19:41.828268  2028 net.cpp:159] Memory required for data: 1515315400
I0619 10:19:41.828282  2028 layer_factory.hpp:77] Creating layer scale2a_branch2b
I0619 10:19:41.828299  2028 net.cpp:94] Creating Layer scale2a_branch2b
I0619 10:19:41.828305  2028 net.cpp:435] scale2a_branch2b <- res2a_branch2b
I0619 10:19:41.828313  2028 net.cpp:396] scale2a_branch2b -> res2a_branch2b (in-place)
I0619 10:19:41.828378  2028 layer_factory.hpp:77] Creating layer scale2a_branch2b
I0619 10:19:41.828539  2028 net.cpp:144] Setting up scale2a_branch2b
I0619 10:19:41.828552  2028 net.cpp:151] Top shape: 50 64 56 56 (10035200)
I0619 10:19:41.828557  2028 net.cpp:159] Memory required for data: 1555456200
I0619 10:19:41.828573  2028 layer_factory.hpp:77] Creating layer res2a_branch2b_relu
I0619 10:19:41.828586  2028 net.cpp:94] Creating Layer res2a_branch2b_relu
I0619 10:19:41.828593  2028 net.cpp:435] res2a_branch2b_relu <- res2a_branch2b
I0619 10:19:41.828601  2028 net.cpp:396] res2a_branch2b_relu -> res2a_branch2b (in-place)
I0619 10:19:41.828613  2028 net.cpp:144] Setting up res2a_branch2b_relu
I0619 10:19:41.828621  2028 net.cpp:151] Top shape: 50 64 56 56 (10035200)
I0619 10:19:41.828625  2028 net.cpp:159] Memory required for data: 1595597000
I0619 10:19:41.828630  2028 layer_factory.hpp:77] Creating layer res2a_branch2c
I0619 10:19:41.828644  2028 net.cpp:94] Creating Layer res2a_branch2c
I0619 10:19:41.828649  2028 net.cpp:435] res2a_branch2c <- res2a_branch2b
I0619 10:19:41.828658  2028 net.cpp:409] res2a_branch2c -> res2a_branch2c
I0619 10:19:41.848575  2028 net.cpp:144] Setting up res2a_branch2c
I0619 10:19:41.848601  2028 net.cpp:151] Top shape: 50 256 56 56 (40140800)
I0619 10:19:41.848606  2028 net.cpp:159] Memory required for data: 1756160200
I0619 10:19:41.848642  2028 layer_factory.hpp:77] Creating layer bn2a_branch2c
I0619 10:19:41.848656  2028 net.cpp:94] Creating Layer bn2a_branch2c
I0619 10:19:41.848662  2028 net.cpp:435] bn2a_branch2c <- res2a_branch2c
I0619 10:19:41.848671  2028 net.cpp:396] bn2a_branch2c -> res2a_branch2c (in-place)
I0619 10:19:41.849396  2028 net.cpp:144] Setting up bn2a_branch2c
I0619 10:19:41.849414  2028 net.cpp:151] Top shape: 50 256 56 56 (40140800)
I0619 10:19:41.849419  2028 net.cpp:159] Memory required for data: 1916723400
I0619 10:19:41.849436  2028 layer_factory.hpp:77] Creating layer scale2a_branch2c
I0619 10:19:41.849447  2028 net.cpp:94] Creating Layer scale2a_branch2c
I0619 10:19:41.849453  2028 net.cpp:435] scale2a_branch2c <- res2a_branch2c
I0619 10:19:41.849465  2028 net.cpp:396] scale2a_branch2c -> res2a_branch2c (in-place)
I0619 10:19:41.849525  2028 layer_factory.hpp:77] Creating layer scale2a_branch2c
I0619 10:19:41.849678  2028 net.cpp:144] Setting up scale2a_branch2c
I0619 10:19:41.849690  2028 net.cpp:151] Top shape: 50 256 56 56 (40140800)
I0619 10:19:41.849699  2028 net.cpp:159] Memory required for data: 2077286600
I0619 10:19:41.849707  2028 layer_factory.hpp:77] Creating layer res2a
I0619 10:19:41.849725  2028 net.cpp:94] Creating Layer res2a
I0619 10:19:41.849732  2028 net.cpp:435] res2a <- res2a_branch1
I0619 10:19:41.849738  2028 net.cpp:435] res2a <- res2a_branch2c
I0619 10:19:41.849746  2028 net.cpp:409] res2a -> res2a
I0619 10:19:41.849799  2028 net.cpp:144] Setting up res2a
I0619 10:19:41.849812  2028 net.cpp:151] Top shape: 50 256 56 56 (40140800)
I0619 10:19:41.849815  2028 net.cpp:159] Memory required for data: 2237849800
I0619 10:19:41.849822  2028 layer_factory.hpp:77] Creating layer res2a_relu
I0619 10:19:41.849830  2028 net.cpp:94] Creating Layer res2a_relu
I0619 10:19:41.849838  2028 net.cpp:435] res2a_relu <- res2a
I0619 10:19:41.849848  2028 net.cpp:396] res2a_relu -> res2a (in-place)
I0619 10:19:41.849858  2028 net.cpp:144] Setting up res2a_relu
I0619 10:19:41.849866  2028 net.cpp:151] Top shape: 50 256 56 56 (40140800)
I0619 10:19:41.849871  2028 net.cpp:159] Memory required for data: 2398413000
I0619 10:19:41.849875  2028 layer_factory.hpp:77] Creating layer res2a_res2a_relu_0_split
I0619 10:19:41.849884  2028 net.cpp:94] Creating Layer res2a_res2a_relu_0_split
I0619 10:19:41.849891  2028 net.cpp:435] res2a_res2a_relu_0_split <- res2a
I0619 10:19:41.849898  2028 net.cpp:409] res2a_res2a_relu_0_split -> res2a_res2a_relu_0_split_0
I0619 10:19:41.849907  2028 net.cpp:409] res2a_res2a_relu_0_split -> res2a_res2a_relu_0_split_1
I0619 10:19:41.849956  2028 net.cpp:144] Setting up res2a_res2a_relu_0_split
I0619 10:19:41.849967  2028 net.cpp:151] Top shape: 50 256 56 56 (40140800)
I0619 10:19:41.849972  2028 net.cpp:151] Top shape: 50 256 56 56 (40140800)
I0619 10:19:41.849978  2028 net.cpp:159] Memory required for data: 2719539400
I0619 10:19:41.849983  2028 layer_factory.hpp:77] Creating layer res2b_branch2a
I0619 10:19:41.850006  2028 net.cpp:94] Creating Layer res2b_branch2a
I0619 10:19:41.850011  2028 net.cpp:435] res2b_branch2a <- res2a_res2a_relu_0_split_0
I0619 10:19:41.850019  2028 net.cpp:409] res2b_branch2a -> res2b_branch2a
I0619 10:19:41.877594  2028 net.cpp:144] Setting up res2b_branch2a
I0619 10:19:41.877641  2028 net.cpp:151] Top shape: 50 64 56 56 (10035200)
I0619 10:19:41.877647  2028 net.cpp:159] Memory required for data: 2759680200
I0619 10:19:41.877656  2028 layer_factory.hpp:77] Creating layer bn2b_branch2a
I0619 10:19:41.877670  2028 net.cpp:94] Creating Layer bn2b_branch2a
I0619 10:19:41.877676  2028 net.cpp:435] bn2b_branch2a <- res2b_branch2a
I0619 10:19:41.877684  2028 net.cpp:396] bn2b_branch2a -> res2b_branch2a (in-place)
I0619 10:19:41.878478  2028 net.cpp:144] Setting up bn2b_branch2a
I0619 10:19:41.878494  2028 net.cpp:151] Top shape: 50 64 56 56 (10035200)
I0619 10:19:41.878499  2028 net.cpp:159] Memory required for data: 2799821000
I0619 10:19:41.878515  2028 layer_factory.hpp:77] Creating layer scale2b_branch2a
I0619 10:19:41.878525  2028 net.cpp:94] Creating Layer scale2b_branch2a
I0619 10:19:41.878556  2028 net.cpp:435] scale2b_branch2a <- res2b_branch2a
I0619 10:19:41.878566  2028 net.cpp:396] scale2b_branch2a -> res2b_branch2a (in-place)
I0619 10:19:41.878635  2028 layer_factory.hpp:77] Creating layer scale2b_branch2a
I0619 10:19:41.878806  2028 net.cpp:144] Setting up scale2b_branch2a
I0619 10:19:41.878818  2028 net.cpp:151] Top shape: 50 64 56 56 (10035200)
I0619 10:19:41.878823  2028 net.cpp:159] Memory required for data: 2839961800
I0619 10:19:41.878834  2028 layer_factory.hpp:77] Creating layer res2b_branch2a_relu
I0619 10:19:41.878846  2028 net.cpp:94] Creating Layer res2b_branch2a_relu
I0619 10:19:41.878851  2028 net.cpp:435] res2b_branch2a_relu <- res2b_branch2a
I0619 10:19:41.878860  2028 net.cpp:396] res2b_branch2a_relu -> res2b_branch2a (in-place)
I0619 10:19:41.878871  2028 net.cpp:144] Setting up res2b_branch2a_relu
I0619 10:19:41.878877  2028 net.cpp:151] Top shape: 50 64 56 56 (10035200)
I0619 10:19:41.878881  2028 net.cpp:159] Memory required for data: 2880102600
I0619 10:19:41.878886  2028 layer_factory.hpp:77] Creating layer res2b_branch2b
I0619 10:19:41.878901  2028 net.cpp:94] Creating Layer res2b_branch2b
I0619 10:19:41.878909  2028 net.cpp:435] res2b_branch2b <- res2b_branch2a
I0619 10:19:41.878919  2028 net.cpp:409] res2b_branch2b -> res2b_branch2b
I0619 10:19:41.914906  2028 net.cpp:144] Setting up res2b_branch2b
I0619 10:19:41.914935  2028 net.cpp:151] Top shape: 50 64 56 56 (10035200)
I0619 10:19:41.914942  2028 net.cpp:159] Memory required for data: 2920243400
I0619 10:19:41.914952  2028 layer_factory.hpp:77] Creating layer bn2b_branch2b
I0619 10:19:41.914965  2028 net.cpp:94] Creating Layer bn2b_branch2b
I0619 10:19:41.914973  2028 net.cpp:435] bn2b_branch2b <- res2b_branch2b
I0619 10:19:41.914981  2028 net.cpp:396] bn2b_branch2b -> res2b_branch2b (in-place)
I0619 10:19:41.915829  2028 net.cpp:144] Setting up bn2b_branch2b
I0619 10:19:41.915848  2028 net.cpp:151] Top shape: 50 64 56 56 (10035200)
I0619 10:19:41.915853  2028 net.cpp:159] Memory required for data: 2960384200
I0619 10:19:41.915870  2028 layer_factory.hpp:77] Creating layer scale2b_branch2b
I0619 10:19:41.915884  2028 net.cpp:94] Creating Layer scale2b_branch2b
I0619 10:19:41.915890  2028 net.cpp:435] scale2b_branch2b <- res2b_branch2b
I0619 10:19:41.915900  2028 net.cpp:396] scale2b_branch2b -> res2b_branch2b (in-place)
I0619 10:19:41.915972  2028 layer_factory.hpp:77] Creating layer scale2b_branch2b
I0619 10:19:41.916153  2028 net.cpp:144] Setting up scale2b_branch2b
I0619 10:19:41.916183  2028 net.cpp:151] Top shape: 50 64 56 56 (10035200)
I0619 10:19:41.916190  2028 net.cpp:159] Memory required for data: 3000525000
I0619 10:19:41.916201  2028 layer_factory.hpp:77] Creating layer res2b_branch2b_relu
I0619 10:19:41.916580  2028 net.cpp:94] Creating Layer res2b_branch2b_relu
I0619 10:19:41.916612  2028 net.cpp:435] res2b_branch2b_relu <- res2b_branch2b
I0619 10:19:41.916622  2028 net.cpp:396] res2b_branch2b_relu -> res2b_branch2b (in-place)
I0619 10:19:41.916640  2028 net.cpp:144] Setting up res2b_branch2b_relu
I0619 10:19:41.916646  2028 net.cpp:151] Top shape: 50 64 56 56 (10035200)
I0619 10:19:41.916654  2028 net.cpp:159] Memory required for data: 3040665800
I0619 10:19:41.916659  2028 layer_factory.hpp:77] Creating layer res2b_branch2c
I0619 10:19:41.916678  2028 net.cpp:94] Creating Layer res2b_branch2c
I0619 10:19:41.916684  2028 net.cpp:435] res2b_branch2c <- res2b_branch2b
I0619 10:19:41.916695  2028 net.cpp:409] res2b_branch2c -> res2b_branch2c
I0619 10:19:41.939334  2028 net.cpp:144] Setting up res2b_branch2c
I0619 10:19:41.939373  2028 net.cpp:151] Top shape: 50 256 56 56 (40140800)
I0619 10:19:41.939381  2028 net.cpp:159] Memory required for data: 3201229000
I0619 10:19:41.939396  2028 layer_factory.hpp:77] Creating layer bn2b_branch2c
I0619 10:19:41.939430  2028 net.cpp:94] Creating Layer bn2b_branch2c
I0619 10:19:41.939437  2028 net.cpp:435] bn2b_branch2c <- res2b_branch2c
I0619 10:19:41.939447  2028 net.cpp:396] bn2b_branch2c -> res2b_branch2c (in-place)
I0619 10:19:41.940268  2028 net.cpp:144] Setting up bn2b_branch2c
I0619 10:19:41.940290  2028 net.cpp:151] Top shape: 50 256 56 56 (40140800)
I0619 10:19:41.940296  2028 net.cpp:159] Memory required for data: 3361792200
I0619 10:19:41.940313  2028 layer_factory.hpp:77] Creating layer scale2b_branch2c
I0619 10:19:41.940326  2028 net.cpp:94] Creating Layer scale2b_branch2c
I0619 10:19:41.940333  2028 net.cpp:435] scale2b_branch2c <- res2b_branch2c
I0619 10:19:41.940346  2028 net.cpp:396] scale2b_branch2c -> res2b_branch2c (in-place)
I0619 10:19:41.940418  2028 layer_factory.hpp:77] Creating layer scale2b_branch2c
I0619 10:19:41.940590  2028 net.cpp:144] Setting up scale2b_branch2c
I0619 10:19:41.940603  2028 net.cpp:151] Top shape: 50 256 56 56 (40140800)
I0619 10:19:41.940608  2028 net.cpp:159] Memory required for data: 3522355400
I0619 10:19:41.940635  2028 layer_factory.hpp:77] Creating layer res2b
I0619 10:19:41.940649  2028 net.cpp:94] Creating Layer res2b
I0619 10:19:41.940656  2028 net.cpp:435] res2b <- res2a_res2a_relu_0_split_1
I0619 10:19:41.940665  2028 net.cpp:435] res2b <- res2b_branch2c
I0619 10:19:41.940673  2028 net.cpp:409] res2b -> res2b
I0619 10:19:41.940721  2028 net.cpp:144] Setting up res2b
I0619 10:19:41.940734  2028 net.cpp:151] Top shape: 50 256 56 56 (40140800)
I0619 10:19:41.940739  2028 net.cpp:159] Memory required for data: 3682918600
I0619 10:19:41.940745  2028 layer_factory.hpp:77] Creating layer res2b_relu
I0619 10:19:41.940755  2028 net.cpp:94] Creating Layer res2b_relu
I0619 10:19:41.940765  2028 net.cpp:435] res2b_relu <- res2b
I0619 10:19:41.940774  2028 net.cpp:396] res2b_relu -> res2b (in-place)
I0619 10:19:41.940786  2028 net.cpp:144] Setting up res2b_relu
I0619 10:19:41.940795  2028 net.cpp:151] Top shape: 50 256 56 56 (40140800)
I0619 10:19:41.940800  2028 net.cpp:159] Memory required for data: 3843481800
I0619 10:19:41.940805  2028 layer_factory.hpp:77] Creating layer res2b_res2b_relu_0_split
I0619 10:19:41.940814  2028 net.cpp:94] Creating Layer res2b_res2b_relu_0_split
I0619 10:19:41.940819  2028 net.cpp:435] res2b_res2b_relu_0_split <- res2b
I0619 10:19:41.940829  2028 net.cpp:409] res2b_res2b_relu_0_split -> res2b_res2b_relu_0_split_0
I0619 10:19:41.940837  2028 net.cpp:409] res2b_res2b_relu_0_split -> res2b_res2b_relu_0_split_1
I0619 10:19:41.940896  2028 net.cpp:144] Setting up res2b_res2b_relu_0_split
I0619 10:19:41.940907  2028 net.cpp:151] Top shape: 50 256 56 56 (40140800)
I0619 10:19:41.940913  2028 net.cpp:151] Top shape: 50 256 56 56 (40140800)
I0619 10:19:41.940918  2028 net.cpp:159] Memory required for data: 4164608200
I0619 10:19:41.940923  2028 layer_factory.hpp:77] Creating layer res2c_branch2a
I0619 10:19:41.940940  2028 net.cpp:94] Creating Layer res2c_branch2a
I0619 10:19:41.940948  2028 net.cpp:435] res2c_branch2a <- res2b_res2b_relu_0_split_0
I0619 10:19:41.940959  2028 net.cpp:409] res2c_branch2a -> res2c_branch2a
I0619 10:19:41.969389  2028 net.cpp:144] Setting up res2c_branch2a
I0619 10:19:41.969425  2028 net.cpp:151] Top shape: 50 64 56 56 (10035200)
I0619 10:19:41.969434  2028 net.cpp:159] Memory required for data: 4204749000
I0619 10:19:41.969447  2028 layer_factory.hpp:77] Creating layer bn2c_branch2a
I0619 10:19:41.969465  2028 net.cpp:94] Creating Layer bn2c_branch2a
I0619 10:19:41.969473  2028 net.cpp:435] bn2c_branch2a <- res2c_branch2a
I0619 10:19:41.969486  2028 net.cpp:396] bn2c_branch2a -> res2c_branch2a (in-place)
I0619 10:19:41.970438  2028 net.cpp:144] Setting up bn2c_branch2a
I0619 10:19:41.970458  2028 net.cpp:151] Top shape: 50 64 56 56 (10035200)
I0619 10:19:41.970464  2028 net.cpp:159] Memory required for data: 4244889800
I0619 10:19:41.970481  2028 layer_factory.hpp:77] Creating layer scale2c_branch2a
I0619 10:19:41.970494  2028 net.cpp:94] Creating Layer scale2c_branch2a
I0619 10:19:41.970504  2028 net.cpp:435] scale2c_branch2a <- res2c_branch2a
I0619 10:19:41.970513  2028 net.cpp:396] scale2c_branch2a -> res2c_branch2a (in-place)
I0619 10:19:41.970585  2028 layer_factory.hpp:77] Creating layer scale2c_branch2a
I0619 10:19:41.970775  2028 net.cpp:144] Setting up scale2c_branch2a
I0619 10:19:41.970819  2028 net.cpp:151] Top shape: 50 64 56 56 (10035200)
I0619 10:19:41.970830  2028 net.cpp:159] Memory required for data: 4285030600
I0619 10:19:41.970842  2028 layer_factory.hpp:77] Creating layer res2c_branch2a_relu
I0619 10:19:41.970854  2028 net.cpp:94] Creating Layer res2c_branch2a_relu
I0619 10:19:41.970861  2028 net.cpp:435] res2c_branch2a_relu <- res2c_branch2a
I0619 10:19:41.970870  2028 net.cpp:396] res2c_branch2a_relu -> res2c_branch2a (in-place)
I0619 10:19:41.970885  2028 net.cpp:144] Setting up res2c_branch2a_relu
I0619 10:19:41.970896  2028 net.cpp:151] Top shape: 50 64 56 56 (10035200)
I0619 10:19:41.970901  2028 net.cpp:159] Memory required for data: 4325171400
I0619 10:19:41.970906  2028 layer_factory.hpp:77] Creating layer res2c_branch2b
I0619 10:19:41.970923  2028 net.cpp:94] Creating Layer res2c_branch2b
I0619 10:19:41.970932  2028 net.cpp:435] res2c_branch2b <- res2c_branch2a
I0619 10:19:41.970943  2028 net.cpp:409] res2c_branch2b -> res2c_branch2b
I0619 10:19:42.007690  2028 net.cpp:144] Setting up res2c_branch2b
I0619 10:19:42.007728  2028 net.cpp:151] Top shape: 50 64 56 56 (10035200)
I0619 10:19:42.007737  2028 net.cpp:159] Memory required for data: 4365312200
I0619 10:19:42.007752  2028 layer_factory.hpp:77] Creating layer bn2c_branch2b
I0619 10:19:42.007769  2028 net.cpp:94] Creating Layer bn2c_branch2b
I0619 10:19:42.007778  2028 net.cpp:435] bn2c_branch2b <- res2c_branch2b
I0619 10:19:42.007791  2028 net.cpp:396] bn2c_branch2b -> res2c_branch2b (in-place)
I0619 10:19:42.009183  2028 net.cpp:144] Setting up bn2c_branch2b
I0619 10:19:42.009207  2028 net.cpp:151] Top shape: 50 64 56 56 (10035200)
I0619 10:19:42.009212  2028 net.cpp:159] Memory required for data: 4405453000
I0619 10:19:42.009229  2028 layer_factory.hpp:77] Creating layer scale2c_branch2b
I0619 10:19:42.009244  2028 net.cpp:94] Creating Layer scale2c_branch2b
I0619 10:19:42.009251  2028 net.cpp:435] scale2c_branch2b <- res2c_branch2b
I0619 10:19:42.009261  2028 net.cpp:396] scale2c_branch2b -> res2c_branch2b (in-place)
I0619 10:19:42.009337  2028 layer_factory.hpp:77] Creating layer scale2c_branch2b
I0619 10:19:42.009528  2028 net.cpp:144] Setting up scale2c_branch2b
I0619 10:19:42.009543  2028 net.cpp:151] Top shape: 50 64 56 56 (10035200)
I0619 10:19:42.009548  2028 net.cpp:159] Memory required for data: 4445593800
I0619 10:19:42.009562  2028 layer_factory.hpp:77] Creating layer res2c_branch2b_relu
I0619 10:19:42.009572  2028 net.cpp:94] Creating Layer res2c_branch2b_relu
I0619 10:19:42.009580  2028 net.cpp:435] res2c_branch2b_relu <- res2c_branch2b
I0619 10:19:42.009589  2028 net.cpp:396] res2c_branch2b_relu -> res2c_branch2b (in-place)
I0619 10:19:42.009603  2028 net.cpp:144] Setting up res2c_branch2b_relu
I0619 10:19:42.009611  2028 net.cpp:151] Top shape: 50 64 56 56 (10035200)
I0619 10:19:42.009618  2028 net.cpp:159] Memory required for data: 4485734600
I0619 10:19:42.009624  2028 layer_factory.hpp:77] Creating layer res2c_branch2c
I0619 10:19:42.009639  2028 net.cpp:94] Creating Layer res2c_branch2c
I0619 10:19:42.009647  2028 net.cpp:435] res2c_branch2c <- res2c_branch2b
I0619 10:19:42.009660  2028 net.cpp:409] res2c_branch2c -> res2c_branch2c
I0619 10:19:42.029734  2028 net.cpp:144] Setting up res2c_branch2c
I0619 10:19:42.029762  2028 net.cpp:151] Top shape: 50 256 56 56 (40140800)
I0619 10:19:42.029767  2028 net.cpp:159] Memory required for data: 4646297800
I0619 10:19:42.029778  2028 layer_factory.hpp:77] Creating layer bn2c_branch2c
I0619 10:19:42.029791  2028 net.cpp:94] Creating Layer bn2c_branch2c
I0619 10:19:42.029800  2028 net.cpp:435] bn2c_branch2c <- res2c_branch2c
I0619 10:19:42.029813  2028 net.cpp:396] bn2c_branch2c -> res2c_branch2c (in-place)
I0619 10:19:42.030544  2028 net.cpp:144] Setting up bn2c_branch2c
I0619 10:19:42.030562  2028 net.cpp:151] Top shape: 50 256 56 56 (40140800)
I0619 10:19:42.030567  2028 net.cpp:159] Memory required for data: 4806861000
I0619 10:19:42.030582  2028 layer_factory.hpp:77] Creating layer scale2c_branch2c
I0619 10:19:42.030620  2028 net.cpp:94] Creating Layer scale2c_branch2c
I0619 10:19:42.030632  2028 net.cpp:435] scale2c_branch2c <- res2c_branch2c
I0619 10:19:42.030642  2028 net.cpp:396] scale2c_branch2c -> res2c_branch2c (in-place)
I0619 10:19:42.030706  2028 layer_factory.hpp:77] Creating layer scale2c_branch2c
I0619 10:19:42.030864  2028 net.cpp:144] Setting up scale2c_branch2c
I0619 10:19:42.030876  2028 net.cpp:151] Top shape: 50 256 56 56 (40140800)
I0619 10:19:42.030881  2028 net.cpp:159] Memory required for data: 4967424200
I0619 10:19:42.030890  2028 layer_factory.hpp:77] Creating layer res2c
I0619 10:19:42.030903  2028 net.cpp:94] Creating Layer res2c
I0619 10:19:42.030910  2028 net.cpp:435] res2c <- res2b_res2b_relu_0_split_1
I0619 10:19:42.030916  2028 net.cpp:435] res2c <- res2c_branch2c
I0619 10:19:42.030923  2028 net.cpp:409] res2c -> res2c
I0619 10:19:42.030959  2028 net.cpp:144] Setting up res2c
I0619 10:19:42.030969  2028 net.cpp:151] Top shape: 50 256 56 56 (40140800)
I0619 10:19:42.030973  2028 net.cpp:159] Memory required for data: 5127987400
I0619 10:19:42.030978  2028 layer_factory.hpp:77] Creating layer res2c_relu
I0619 10:19:42.030987  2028 net.cpp:94] Creating Layer res2c_relu
I0619 10:19:42.030993  2028 net.cpp:435] res2c_relu <- res2c
I0619 10:19:42.031003  2028 net.cpp:396] res2c_relu -> res2c (in-place)
I0619 10:19:42.031014  2028 net.cpp:144] Setting up res2c_relu
I0619 10:19:42.031024  2028 net.cpp:151] Top shape: 50 256 56 56 (40140800)
I0619 10:19:42.031028  2028 net.cpp:159] Memory required for data: 5288550600
I0619 10:19:42.031033  2028 layer_factory.hpp:77] Creating layer res2c_res2c_relu_0_split
I0619 10:19:42.031041  2028 net.cpp:94] Creating Layer res2c_res2c_relu_0_split
I0619 10:19:42.031045  2028 net.cpp:435] res2c_res2c_relu_0_split <- res2c
I0619 10:19:42.031052  2028 net.cpp:409] res2c_res2c_relu_0_split -> res2c_res2c_relu_0_split_0
I0619 10:19:42.031060  2028 net.cpp:409] res2c_res2c_relu_0_split -> res2c_res2c_relu_0_split_1
I0619 10:19:42.031110  2028 net.cpp:144] Setting up res2c_res2c_relu_0_split
I0619 10:19:42.031117  2028 net.cpp:151] Top shape: 50 256 56 56 (40140800)
I0619 10:19:42.031122  2028 net.cpp:151] Top shape: 50 256 56 56 (40140800)
I0619 10:19:42.031126  2028 net.cpp:159] Memory required for data: 5609677000
I0619 10:19:42.031131  2028 layer_factory.hpp:77] Creating layer res3a_branch1
I0619 10:19:42.031144  2028 net.cpp:94] Creating Layer res3a_branch1
I0619 10:19:42.031149  2028 net.cpp:435] res3a_branch1 <- res2c_res2c_relu_0_split_0
I0619 10:19:42.031157  2028 net.cpp:409] res3a_branch1 -> res3a_branch1
I0619 10:19:42.061220  2028 net.cpp:144] Setting up res3a_branch1
I0619 10:19:42.061259  2028 net.cpp:151] Top shape: 50 512 28 28 (20070400)
I0619 10:19:42.061267  2028 net.cpp:159] Memory required for data: 5689958600
I0619 10:19:42.061281  2028 layer_factory.hpp:77] Creating layer bn3a_branch1
I0619 10:19:42.061298  2028 net.cpp:94] Creating Layer bn3a_branch1
I0619 10:19:42.061307  2028 net.cpp:435] bn3a_branch1 <- res3a_branch1
I0619 10:19:42.061321  2028 net.cpp:396] bn3a_branch1 -> res3a_branch1 (in-place)
I0619 10:19:42.067656  2028 net.cpp:144] Setting up bn3a_branch1
I0619 10:19:42.067689  2028 net.cpp:151] Top shape: 50 512 28 28 (20070400)
I0619 10:19:42.067698  2028 net.cpp:159] Memory required for data: 5770240200
I0619 10:19:42.067723  2028 layer_factory.hpp:77] Creating layer scale3a_branch1
I0619 10:19:42.067740  2028 net.cpp:94] Creating Layer scale3a_branch1
I0619 10:19:42.067749  2028 net.cpp:435] scale3a_branch1 <- res3a_branch1
I0619 10:19:42.067764  2028 net.cpp:396] scale3a_branch1 -> res3a_branch1 (in-place)
I0619 10:19:42.067859  2028 layer_factory.hpp:77] Creating layer scale3a_branch1
I0619 10:19:42.068081  2028 net.cpp:144] Setting up scale3a_branch1
I0619 10:19:42.068099  2028 net.cpp:151] Top shape: 50 512 28 28 (20070400)
I0619 10:19:42.068105  2028 net.cpp:159] Memory required for data: 5850521800
I0619 10:19:42.068120  2028 layer_factory.hpp:77] Creating layer res3a_branch2a
I0619 10:19:42.068141  2028 net.cpp:94] Creating Layer res3a_branch2a
I0619 10:19:42.068193  2028 net.cpp:435] res3a_branch2a <- res2c_res2c_relu_0_split_1
I0619 10:19:42.068212  2028 net.cpp:409] res3a_branch2a -> res3a_branch2a
I0619 10:19:42.086284  2028 net.cpp:144] Setting up res3a_branch2a
I0619 10:19:42.086320  2028 net.cpp:151] Top shape: 50 128 28 28 (5017600)
I0619 10:19:42.086329  2028 net.cpp:159] Memory required for data: 5870592200
I0619 10:19:42.086344  2028 layer_factory.hpp:77] Creating layer bn3a_branch2a
I0619 10:19:42.086361  2028 net.cpp:94] Creating Layer bn3a_branch2a
I0619 10:19:42.086371  2028 net.cpp:435] bn3a_branch2a <- res3a_branch2a
I0619 10:19:42.086385  2028 net.cpp:396] bn3a_branch2a -> res3a_branch2a (in-place)
I0619 10:19:42.087493  2028 net.cpp:144] Setting up bn3a_branch2a
I0619 10:19:42.087517  2028 net.cpp:151] Top shape: 50 128 28 28 (5017600)
I0619 10:19:42.087524  2028 net.cpp:159] Memory required for data: 5890662600
I0619 10:19:42.087546  2028 layer_factory.hpp:77] Creating layer scale3a_branch2a
I0619 10:19:42.087563  2028 net.cpp:94] Creating Layer scale3a_branch2a
I0619 10:19:42.087570  2028 net.cpp:435] scale3a_branch2a <- res3a_branch2a
I0619 10:19:42.087584  2028 net.cpp:396] scale3a_branch2a -> res3a_branch2a (in-place)
I0619 10:19:42.087668  2028 layer_factory.hpp:77] Creating layer scale3a_branch2a
I0619 10:19:42.087893  2028 net.cpp:144] Setting up scale3a_branch2a
I0619 10:19:42.087909  2028 net.cpp:151] Top shape: 50 128 28 28 (5017600)
I0619 10:19:42.087918  2028 net.cpp:159] Memory required for data: 5910733000
I0619 10:19:42.087930  2028 layer_factory.hpp:77] Creating layer res3a_branch2a_relu
I0619 10:19:42.087942  2028 net.cpp:94] Creating Layer res3a_branch2a_relu
I0619 10:19:42.087949  2028 net.cpp:435] res3a_branch2a_relu <- res3a_branch2a
I0619 10:19:42.087961  2028 net.cpp:396] res3a_branch2a_relu -> res3a_branch2a (in-place)
I0619 10:19:42.087976  2028 net.cpp:144] Setting up res3a_branch2a_relu
I0619 10:19:42.087986  2028 net.cpp:151] Top shape: 50 128 28 28 (5017600)
I0619 10:19:42.087993  2028 net.cpp:159] Memory required for data: 5930803400
I0619 10:19:42.087999  2028 layer_factory.hpp:77] Creating layer res3a_branch2b
I0619 10:19:42.088021  2028 net.cpp:94] Creating Layer res3a_branch2b
I0619 10:19:42.088028  2028 net.cpp:435] res3a_branch2b <- res3a_branch2a
I0619 10:19:42.088042  2028 net.cpp:409] res3a_branch2b -> res3a_branch2b
I0619 10:19:42.118506  2028 net.cpp:144] Setting up res3a_branch2b
I0619 10:19:42.118541  2028 net.cpp:151] Top shape: 50 128 28 28 (5017600)
I0619 10:19:42.118551  2028 net.cpp:159] Memory required for data: 5950873800
I0619 10:19:42.118566  2028 layer_factory.hpp:77] Creating layer bn3a_branch2b
I0619 10:19:42.118582  2028 net.cpp:94] Creating Layer bn3a_branch2b
I0619 10:19:42.118592  2028 net.cpp:435] bn3a_branch2b <- res3a_branch2b
I0619 10:19:42.118603  2028 net.cpp:396] bn3a_branch2b -> res3a_branch2b (in-place)
I0619 10:19:42.119695  2028 net.cpp:144] Setting up bn3a_branch2b
I0619 10:19:42.119720  2028 net.cpp:151] Top shape: 50 128 28 28 (5017600)
I0619 10:19:42.119729  2028 net.cpp:159] Memory required for data: 5970944200
I0619 10:19:42.119750  2028 layer_factory.hpp:77] Creating layer scale3a_branch2b
I0619 10:19:42.119767  2028 net.cpp:94] Creating Layer scale3a_branch2b
I0619 10:19:42.119776  2028 net.cpp:435] scale3a_branch2b <- res3a_branch2b
I0619 10:19:42.119788  2028 net.cpp:396] scale3a_branch2b -> res3a_branch2b (in-place)
I0619 10:19:42.119875  2028 layer_factory.hpp:77] Creating layer scale3a_branch2b
I0619 10:19:42.120105  2028 net.cpp:144] Setting up scale3a_branch2b
I0619 10:19:42.120121  2028 net.cpp:151] Top shape: 50 128 28 28 (5017600)
I0619 10:19:42.120127  2028 net.cpp:159] Memory required for data: 5991014600
I0619 10:19:42.120141  2028 layer_factory.hpp:77] Creating layer res3a_branch2b_relu
I0619 10:19:42.120153  2028 net.cpp:94] Creating Layer res3a_branch2b_relu
I0619 10:19:42.120162  2028 net.cpp:435] res3a_branch2b_relu <- res3a_branch2b
I0619 10:19:42.120187  2028 net.cpp:396] res3a_branch2b_relu -> res3a_branch2b (in-place)
I0619 10:19:42.120252  2028 net.cpp:144] Setting up res3a_branch2b_relu
I0619 10:19:42.120266  2028 net.cpp:151] Top shape: 50 128 28 28 (5017600)
I0619 10:19:42.120272  2028 net.cpp:159] Memory required for data: 6011085000
I0619 10:19:42.120280  2028 layer_factory.hpp:77] Creating layer res3a_branch2c
I0619 10:19:42.120301  2028 net.cpp:94] Creating Layer res3a_branch2c
I0619 10:19:42.120308  2028 net.cpp:435] res3a_branch2c <- res3a_branch2b
I0619 10:19:42.120322  2028 net.cpp:409] res3a_branch2c -> res3a_branch2c
I0619 10:19:42.137665  2028 net.cpp:144] Setting up res3a_branch2c
I0619 10:19:42.137691  2028 net.cpp:151] Top shape: 50 512 28 28 (20070400)
I0619 10:19:42.137696  2028 net.cpp:159] Memory required for data: 6091366600
I0619 10:19:42.137706  2028 layer_factory.hpp:77] Creating layer bn3a_branch2c
I0619 10:19:42.137725  2028 net.cpp:94] Creating Layer bn3a_branch2c
I0619 10:19:42.137732  2028 net.cpp:435] bn3a_branch2c <- res3a_branch2c
I0619 10:19:42.137742  2028 net.cpp:396] bn3a_branch2c -> res3a_branch2c (in-place)
I0619 10:19:42.138443  2028 net.cpp:144] Setting up bn3a_branch2c
I0619 10:19:42.138460  2028 net.cpp:151] Top shape: 50 512 28 28 (20070400)
I0619 10:19:42.138465  2028 net.cpp:159] Memory required for data: 6171648200
I0619 10:19:42.138480  2028 layer_factory.hpp:77] Creating layer scale3a_branch2c
I0619 10:19:42.138492  2028 net.cpp:94] Creating Layer scale3a_branch2c
I0619 10:19:42.138497  2028 net.cpp:435] scale3a_branch2c <- res3a_branch2c
I0619 10:19:42.138506  2028 net.cpp:396] scale3a_branch2c -> res3a_branch2c (in-place)
I0619 10:19:42.138571  2028 layer_factory.hpp:77] Creating layer scale3a_branch2c
I0619 10:19:42.138722  2028 net.cpp:144] Setting up scale3a_branch2c
I0619 10:19:42.138734  2028 net.cpp:151] Top shape: 50 512 28 28 (20070400)
I0619 10:19:42.138739  2028 net.cpp:159] Memory required for data: 6251929800
I0619 10:19:42.138748  2028 layer_factory.hpp:77] Creating layer res3a
I0619 10:19:42.138758  2028 net.cpp:94] Creating Layer res3a
I0619 10:19:42.138763  2028 net.cpp:435] res3a <- res3a_branch1
I0619 10:19:42.138769  2028 net.cpp:435] res3a <- res3a_branch2c
I0619 10:19:42.138777  2028 net.cpp:409] res3a -> res3a
I0619 10:19:42.138810  2028 net.cpp:144] Setting up res3a
I0619 10:19:42.138820  2028 net.cpp:151] Top shape: 50 512 28 28 (20070400)
I0619 10:19:42.138824  2028 net.cpp:159] Memory required for data: 6332211400
I0619 10:19:42.138829  2028 layer_factory.hpp:77] Creating layer res3a_relu
I0619 10:19:42.138839  2028 net.cpp:94] Creating Layer res3a_relu
I0619 10:19:42.138844  2028 net.cpp:435] res3a_relu <- res3a
I0619 10:19:42.138850  2028 net.cpp:396] res3a_relu -> res3a (in-place)
I0619 10:19:42.138860  2028 net.cpp:144] Setting up res3a_relu
I0619 10:19:42.138865  2028 net.cpp:151] Top shape: 50 512 28 28 (20070400)
I0619 10:19:42.138870  2028 net.cpp:159] Memory required for data: 6412493000
I0619 10:19:42.138875  2028 layer_factory.hpp:77] Creating layer res3a_res3a_relu_0_split
I0619 10:19:42.138882  2028 net.cpp:94] Creating Layer res3a_res3a_relu_0_split
I0619 10:19:42.138886  2028 net.cpp:435] res3a_res3a_relu_0_split <- res3a
I0619 10:19:42.138892  2028 net.cpp:409] res3a_res3a_relu_0_split -> res3a_res3a_relu_0_split_0
I0619 10:19:42.138900  2028 net.cpp:409] res3a_res3a_relu_0_split -> res3a_res3a_relu_0_split_1
I0619 10:19:42.138950  2028 net.cpp:144] Setting up res3a_res3a_relu_0_split
I0619 10:19:42.138958  2028 net.cpp:151] Top shape: 50 512 28 28 (20070400)
I0619 10:19:42.138963  2028 net.cpp:151] Top shape: 50 512 28 28 (20070400)
I0619 10:19:42.138967  2028 net.cpp:159] Memory required for data: 6573056200
I0619 10:19:42.138972  2028 layer_factory.hpp:77] Creating layer res3b_branch2a
I0619 10:19:42.138985  2028 net.cpp:94] Creating Layer res3b_branch2a
I0619 10:19:42.138990  2028 net.cpp:435] res3b_branch2a <- res3a_res3a_relu_0_split_0
I0619 10:19:42.138998  2028 net.cpp:409] res3b_branch2a -> res3b_branch2a
I0619 10:19:42.158429  2028 net.cpp:144] Setting up res3b_branch2a
I0619 10:19:42.158464  2028 net.cpp:151] Top shape: 50 128 28 28 (5017600)
I0619 10:19:42.158502  2028 net.cpp:159] Memory required for data: 6593126600
I0619 10:19:42.158519  2028 layer_factory.hpp:77] Creating layer bn3b_branch2a
I0619 10:19:42.158535  2028 net.cpp:94] Creating Layer bn3b_branch2a
I0619 10:19:42.158545  2028 net.cpp:435] bn3b_branch2a <- res3b_branch2a
I0619 10:19:42.158557  2028 net.cpp:396] bn3b_branch2a -> res3b_branch2a (in-place)
I0619 10:19:42.159677  2028 net.cpp:144] Setting up bn3b_branch2a
I0619 10:19:42.159700  2028 net.cpp:151] Top shape: 50 128 28 28 (5017600)
I0619 10:19:42.159708  2028 net.cpp:159] Memory required for data: 6613197000
I0619 10:19:42.159730  2028 layer_factory.hpp:77] Creating layer scale3b_branch2a
I0619 10:19:42.159746  2028 net.cpp:94] Creating Layer scale3b_branch2a
I0619 10:19:42.159754  2028 net.cpp:435] scale3b_branch2a <- res3b_branch2a
I0619 10:19:42.159767  2028 net.cpp:396] scale3b_branch2a -> res3b_branch2a (in-place)
I0619 10:19:42.159857  2028 layer_factory.hpp:77] Creating layer scale3b_branch2a
I0619 10:19:42.160091  2028 net.cpp:144] Setting up scale3b_branch2a
I0619 10:19:42.160107  2028 net.cpp:151] Top shape: 50 128 28 28 (5017600)
I0619 10:19:42.160115  2028 net.cpp:159] Memory required for data: 6633267400
I0619 10:19:42.160159  2028 layer_factory.hpp:77] Creating layer res3b_branch2a_relu
I0619 10:19:42.160187  2028 net.cpp:94] Creating Layer res3b_branch2a_relu
I0619 10:19:42.160195  2028 net.cpp:435] res3b_branch2a_relu <- res3b_branch2a
I0619 10:19:42.160207  2028 net.cpp:396] res3b_branch2a_relu -> res3b_branch2a (in-place)
I0619 10:19:42.160221  2028 net.cpp:144] Setting up res3b_branch2a_relu
I0619 10:19:42.160231  2028 net.cpp:151] Top shape: 50 128 28 28 (5017600)
I0619 10:19:42.160238  2028 net.cpp:159] Memory required for data: 6653337800
I0619 10:19:42.160243  2028 layer_factory.hpp:77] Creating layer res3b_branch2b
I0619 10:19:42.160262  2028 net.cpp:94] Creating Layer res3b_branch2b
I0619 10:19:42.160274  2028 net.cpp:435] res3b_branch2b <- res3b_branch2a
I0619 10:19:42.160285  2028 net.cpp:409] res3b_branch2b -> res3b_branch2b
I0619 10:19:42.193153  2028 net.cpp:144] Setting up res3b_branch2b
I0619 10:19:42.193197  2028 net.cpp:151] Top shape: 50 128 28 28 (5017600)
I0619 10:19:42.193205  2028 net.cpp:159] Memory required for data: 6673408200
I0619 10:19:42.193219  2028 layer_factory.hpp:77] Creating layer bn3b_branch2b
I0619 10:19:42.193236  2028 net.cpp:94] Creating Layer bn3b_branch2b
I0619 10:19:42.193246  2028 net.cpp:435] bn3b_branch2b <- res3b_branch2b
I0619 10:19:42.193259  2028 net.cpp:396] bn3b_branch2b -> res3b_branch2b (in-place)
I0619 10:19:42.194810  2028 net.cpp:144] Setting up bn3b_branch2b
I0619 10:19:42.194831  2028 net.cpp:151] Top shape: 50 128 28 28 (5017600)
I0619 10:19:42.194836  2028 net.cpp:159] Memory required for data: 6693478600
I0619 10:19:42.194851  2028 layer_factory.hpp:77] Creating layer scale3b_branch2b
I0619 10:19:42.194864  2028 net.cpp:94] Creating Layer scale3b_branch2b
I0619 10:19:42.194869  2028 net.cpp:435] scale3b_branch2b <- res3b_branch2b
I0619 10:19:42.194878  2028 net.cpp:396] scale3b_branch2b -> res3b_branch2b (in-place)
I0619 10:19:42.194943  2028 layer_factory.hpp:77] Creating layer scale3b_branch2b
I0619 10:19:42.195099  2028 net.cpp:144] Setting up scale3b_branch2b
I0619 10:19:42.195116  2028 net.cpp:151] Top shape: 50 128 28 28 (5017600)
I0619 10:19:42.195119  2028 net.cpp:159] Memory required for data: 6713549000
I0619 10:19:42.195128  2028 layer_factory.hpp:77] Creating layer res3b_branch2b_relu
I0619 10:19:42.195139  2028 net.cpp:94] Creating Layer res3b_branch2b_relu
I0619 10:19:42.195144  2028 net.cpp:435] res3b_branch2b_relu <- res3b_branch2b
I0619 10:19:42.195152  2028 net.cpp:396] res3b_branch2b_relu -> res3b_branch2b (in-place)
I0619 10:19:42.195163  2028 net.cpp:144] Setting up res3b_branch2b_relu
I0619 10:19:42.195179  2028 net.cpp:151] Top shape: 50 128 28 28 (5017600)
I0619 10:19:42.195183  2028 net.cpp:159] Memory required for data: 6733619400
I0619 10:19:42.195188  2028 layer_factory.hpp:77] Creating layer res3b_branch2c
I0619 10:19:42.195202  2028 net.cpp:94] Creating Layer res3b_branch2c
I0619 10:19:42.195230  2028 net.cpp:435] res3b_branch2c <- res3b_branch2b
I0619 10:19:42.195242  2028 net.cpp:409] res3b_branch2c -> res3b_branch2c
I0619 10:19:42.211328  2028 net.cpp:144] Setting up res3b_branch2c
I0619 10:19:42.211364  2028 net.cpp:151] Top shape: 50 512 28 28 (20070400)
I0619 10:19:42.211374  2028 net.cpp:159] Memory required for data: 6813901000
I0619 10:19:42.211388  2028 layer_factory.hpp:77] Creating layer bn3b_branch2c
I0619 10:19:42.211405  2028 net.cpp:94] Creating Layer bn3b_branch2c
I0619 10:19:42.211414  2028 net.cpp:435] bn3b_branch2c <- res3b_branch2c
I0619 10:19:42.211426  2028 net.cpp:396] bn3b_branch2c -> res3b_branch2c (in-place)
I0619 10:19:42.212872  2028 net.cpp:144] Setting up bn3b_branch2c
I0619 10:19:42.212891  2028 net.cpp:151] Top shape: 50 512 28 28 (20070400)
I0619 10:19:42.212898  2028 net.cpp:159] Memory required for data: 6894182600
I0619 10:19:42.212911  2028 layer_factory.hpp:77] Creating layer scale3b_branch2c
I0619 10:19:42.212924  2028 net.cpp:94] Creating Layer scale3b_branch2c
I0619 10:19:42.212929  2028 net.cpp:435] scale3b_branch2c <- res3b_branch2c
I0619 10:19:42.212939  2028 net.cpp:396] scale3b_branch2c -> res3b_branch2c (in-place)
I0619 10:19:42.213007  2028 layer_factory.hpp:77] Creating layer scale3b_branch2c
I0619 10:19:42.213174  2028 net.cpp:144] Setting up scale3b_branch2c
I0619 10:19:42.213189  2028 net.cpp:151] Top shape: 50 512 28 28 (20070400)
I0619 10:19:42.213194  2028 net.cpp:159] Memory required for data: 6974464200
I0619 10:19:42.213203  2028 layer_factory.hpp:77] Creating layer res3b
I0619 10:19:42.213214  2028 net.cpp:94] Creating Layer res3b
I0619 10:19:42.213220  2028 net.cpp:435] res3b <- res3a_res3a_relu_0_split_1
I0619 10:19:42.213227  2028 net.cpp:435] res3b <- res3b_branch2c
I0619 10:19:42.213234  2028 net.cpp:409] res3b -> res3b
I0619 10:19:42.213275  2028 net.cpp:144] Setting up res3b
I0619 10:19:42.213284  2028 net.cpp:151] Top shape: 50 512 28 28 (20070400)
I0619 10:19:42.213289  2028 net.cpp:159] Memory required for data: 7054745800
I0619 10:19:42.213294  2028 layer_factory.hpp:77] Creating layer res3b_relu
I0619 10:19:42.213302  2028 net.cpp:94] Creating Layer res3b_relu
I0619 10:19:42.213307  2028 net.cpp:435] res3b_relu <- res3b
I0619 10:19:42.213315  2028 net.cpp:396] res3b_relu -> res3b (in-place)
I0619 10:19:42.213323  2028 net.cpp:144] Setting up res3b_relu
I0619 10:19:42.213330  2028 net.cpp:151] Top shape: 50 512 28 28 (20070400)
I0619 10:19:42.213335  2028 net.cpp:159] Memory required for data: 7135027400
I0619 10:19:42.213338  2028 layer_factory.hpp:77] Creating layer res3b_res3b_relu_0_split
I0619 10:19:42.213346  2028 net.cpp:94] Creating Layer res3b_res3b_relu_0_split
I0619 10:19:42.213351  2028 net.cpp:435] res3b_res3b_relu_0_split <- res3b
I0619 10:19:42.213356  2028 net.cpp:409] res3b_res3b_relu_0_split -> res3b_res3b_relu_0_split_0
I0619 10:19:42.213364  2028 net.cpp:409] res3b_res3b_relu_0_split -> res3b_res3b_relu_0_split_1
I0619 10:19:42.213418  2028 net.cpp:144] Setting up res3b_res3b_relu_0_split
I0619 10:19:42.213426  2028 net.cpp:151] Top shape: 50 512 28 28 (20070400)
I0619 10:19:42.213431  2028 net.cpp:151] Top shape: 50 512 28 28 (20070400)
I0619 10:19:42.213435  2028 net.cpp:159] Memory required for data: 7295590600
I0619 10:19:42.213439  2028 layer_factory.hpp:77] Creating layer res3c_branch2a
I0619 10:19:42.213454  2028 net.cpp:94] Creating Layer res3c_branch2a
I0619 10:19:42.213459  2028 net.cpp:435] res3c_branch2a <- res3b_res3b_relu_0_split_0
I0619 10:19:42.213466  2028 net.cpp:409] res3c_branch2a -> res3c_branch2a
I0619 10:19:42.233098  2028 net.cpp:144] Setting up res3c_branch2a
I0619 10:19:42.233134  2028 net.cpp:151] Top shape: 50 128 28 28 (5017600)
I0619 10:19:42.233142  2028 net.cpp:159] Memory required for data: 7315661000
I0619 10:19:42.233156  2028 layer_factory.hpp:77] Creating layer bn3c_branch2a
I0619 10:19:42.233187  2028 net.cpp:94] Creating Layer bn3c_branch2a
I0619 10:19:42.233198  2028 net.cpp:435] bn3c_branch2a <- res3c_branch2a
I0619 10:19:42.233240  2028 net.cpp:396] bn3c_branch2a -> res3c_branch2a (in-place)
I0619 10:19:42.234411  2028 net.cpp:144] Setting up bn3c_branch2a
I0619 10:19:42.234436  2028 net.cpp:151] Top shape: 50 128 28 28 (5017600)
I0619 10:19:42.234444  2028 net.cpp:159] Memory required for data: 7335731400
I0619 10:19:42.234467  2028 layer_factory.hpp:77] Creating layer scale3c_branch2a
I0619 10:19:42.234483  2028 net.cpp:94] Creating Layer scale3c_branch2a
I0619 10:19:42.234491  2028 net.cpp:435] scale3c_branch2a <- res3c_branch2a
I0619 10:19:42.234503  2028 net.cpp:396] scale3c_branch2a -> res3c_branch2a (in-place)
I0619 10:19:42.234594  2028 layer_factory.hpp:77] Creating layer scale3c_branch2a
I0619 10:19:42.234840  2028 net.cpp:144] Setting up scale3c_branch2a
I0619 10:19:42.234858  2028 net.cpp:151] Top shape: 50 128 28 28 (5017600)
I0619 10:19:42.234864  2028 net.cpp:159] Memory required for data: 7355801800
I0619 10:19:42.234877  2028 layer_factory.hpp:77] Creating layer res3c_branch2a_relu
I0619 10:19:42.234890  2028 net.cpp:94] Creating Layer res3c_branch2a_relu
I0619 10:19:42.234897  2028 net.cpp:435] res3c_branch2a_relu <- res3c_branch2a
I0619 10:19:42.234910  2028 net.cpp:396] res3c_branch2a_relu -> res3c_branch2a (in-place)
I0619 10:19:42.234925  2028 net.cpp:144] Setting up res3c_branch2a_relu
I0619 10:19:42.234935  2028 net.cpp:151] Top shape: 50 128 28 28 (5017600)
I0619 10:19:42.234941  2028 net.cpp:159] Memory required for data: 7375872200
I0619 10:19:42.234947  2028 layer_factory.hpp:77] Creating layer res3c_branch2b
I0619 10:19:42.234968  2028 net.cpp:94] Creating Layer res3c_branch2b
I0619 10:19:42.234977  2028 net.cpp:435] res3c_branch2b <- res3c_branch2a
I0619 10:19:42.234990  2028 net.cpp:409] res3c_branch2b -> res3c_branch2b
I0619 10:19:42.265664  2028 net.cpp:144] Setting up res3c_branch2b
I0619 10:19:42.265702  2028 net.cpp:151] Top shape: 50 128 28 28 (5017600)
I0619 10:19:42.265710  2028 net.cpp:159] Memory required for data: 7395942600
I0619 10:19:42.265724  2028 layer_factory.hpp:77] Creating layer bn3c_branch2b
I0619 10:19:42.265743  2028 net.cpp:94] Creating Layer bn3c_branch2b
I0619 10:19:42.265751  2028 net.cpp:435] bn3c_branch2b <- res3c_branch2b
I0619 10:19:42.265764  2028 net.cpp:396] bn3c_branch2b -> res3c_branch2b (in-place)
I0619 10:19:42.266942  2028 net.cpp:144] Setting up bn3c_branch2b
I0619 10:19:42.266966  2028 net.cpp:151] Top shape: 50 128 28 28 (5017600)
I0619 10:19:42.266974  2028 net.cpp:159] Memory required for data: 7416013000
I0619 10:19:42.266997  2028 layer_factory.hpp:77] Creating layer scale3c_branch2b
I0619 10:19:42.267012  2028 net.cpp:94] Creating Layer scale3c_branch2b
I0619 10:19:42.267020  2028 net.cpp:435] scale3c_branch2b <- res3c_branch2b
I0619 10:19:42.267037  2028 net.cpp:396] scale3c_branch2b -> res3c_branch2b (in-place)
I0619 10:19:42.267129  2028 layer_factory.hpp:77] Creating layer scale3c_branch2b
I0619 10:19:42.267403  2028 net.cpp:144] Setting up scale3c_branch2b
I0619 10:19:42.267423  2028 net.cpp:151] Top shape: 50 128 28 28 (5017600)
I0619 10:19:42.267431  2028 net.cpp:159] Memory required for data: 7436083400
I0619 10:19:42.267444  2028 layer_factory.hpp:77] Creating layer res3c_branch2b_relu
I0619 10:19:42.267460  2028 net.cpp:94] Creating Layer res3c_branch2b_relu
I0619 10:19:42.267469  2028 net.cpp:435] res3c_branch2b_relu <- res3c_branch2b
I0619 10:19:42.267480  2028 net.cpp:396] res3c_branch2b_relu -> res3c_branch2b (in-place)
I0619 10:19:42.267495  2028 net.cpp:144] Setting up res3c_branch2b_relu
I0619 10:19:42.267505  2028 net.cpp:151] Top shape: 50 128 28 28 (5017600)
I0619 10:19:42.267511  2028 net.cpp:159] Memory required for data: 7456153800
I0619 10:19:42.267518  2028 layer_factory.hpp:77] Creating layer res3c_branch2c
I0619 10:19:42.267537  2028 net.cpp:94] Creating Layer res3c_branch2c
I0619 10:19:42.267549  2028 net.cpp:435] res3c_branch2c <- res3c_branch2b
I0619 10:19:42.267570  2028 net.cpp:409] res3c_branch2c -> res3c_branch2c
I0619 10:19:42.284692  2028 net.cpp:144] Setting up res3c_branch2c
I0619 10:19:42.284729  2028 net.cpp:151] Top shape: 50 512 28 28 (20070400)
I0619 10:19:42.284766  2028 net.cpp:159] Memory required for data: 7536435400
I0619 10:19:42.284785  2028 layer_factory.hpp:77] Creating layer bn3c_branch2c
I0619 10:19:42.284801  2028 net.cpp:94] Creating Layer bn3c_branch2c
I0619 10:19:42.284814  2028 net.cpp:435] bn3c_branch2c <- res3c_branch2c
I0619 10:19:42.284827  2028 net.cpp:396] bn3c_branch2c -> res3c_branch2c (in-place)
I0619 10:19:42.286022  2028 net.cpp:144] Setting up bn3c_branch2c
I0619 10:19:42.286044  2028 net.cpp:151] Top shape: 50 512 28 28 (20070400)
I0619 10:19:42.286052  2028 net.cpp:159] Memory required for data: 7616717000
I0619 10:19:42.286075  2028 layer_factory.hpp:77] Creating layer scale3c_branch2c
I0619 10:19:42.286092  2028 net.cpp:94] Creating Layer scale3c_branch2c
I0619 10:19:42.286103  2028 net.cpp:435] scale3c_branch2c <- res3c_branch2c
I0619 10:19:42.286116  2028 net.cpp:396] scale3c_branch2c -> res3c_branch2c (in-place)
I0619 10:19:42.286237  2028 layer_factory.hpp:77] Creating layer scale3c_branch2c
I0619 10:19:42.286478  2028 net.cpp:144] Setting up scale3c_branch2c
I0619 10:19:42.286495  2028 net.cpp:151] Top shape: 50 512 28 28 (20070400)
I0619 10:19:42.286502  2028 net.cpp:159] Memory required for data: 7696998600
I0619 10:19:42.286516  2028 layer_factory.hpp:77] Creating layer res3c
I0619 10:19:42.286535  2028 net.cpp:94] Creating Layer res3c
I0619 10:19:42.286542  2028 net.cpp:435] res3c <- res3b_res3b_relu_0_split_1
I0619 10:19:42.286552  2028 net.cpp:435] res3c <- res3c_branch2c
I0619 10:19:42.286563  2028 net.cpp:409] res3c -> res3c
I0619 10:19:42.286618  2028 net.cpp:144] Setting up res3c
I0619 10:19:42.286634  2028 net.cpp:151] Top shape: 50 512 28 28 (20070400)
I0619 10:19:42.286641  2028 net.cpp:159] Memory required for data: 7777280200
I0619 10:19:42.286648  2028 layer_factory.hpp:77] Creating layer res3c_relu
I0619 10:19:42.286662  2028 net.cpp:94] Creating Layer res3c_relu
I0619 10:19:42.286674  2028 net.cpp:435] res3c_relu <- res3c
I0619 10:19:42.286685  2028 net.cpp:396] res3c_relu -> res3c (in-place)
I0619 10:19:42.286700  2028 net.cpp:144] Setting up res3c_relu
I0619 10:19:42.286713  2028 net.cpp:151] Top shape: 50 512 28 28 (20070400)
I0619 10:19:42.286720  2028 net.cpp:159] Memory required for data: 7857561800
I0619 10:19:42.286727  2028 layer_factory.hpp:77] Creating layer res3c_res3c_relu_0_split
I0619 10:19:42.286739  2028 net.cpp:94] Creating Layer res3c_res3c_relu_0_split
I0619 10:19:42.286749  2028 net.cpp:435] res3c_res3c_relu_0_split <- res3c
I0619 10:19:42.286761  2028 net.cpp:409] res3c_res3c_relu_0_split -> res3c_res3c_relu_0_split_0
I0619 10:19:42.286774  2028 net.cpp:409] res3c_res3c_relu_0_split -> res3c_res3c_relu_0_split_1
I0619 10:19:42.286855  2028 net.cpp:144] Setting up res3c_res3c_relu_0_split
I0619 10:19:42.286871  2028 net.cpp:151] Top shape: 50 512 28 28 (20070400)
I0619 10:19:42.286881  2028 net.cpp:151] Top shape: 50 512 28 28 (20070400)
I0619 10:19:42.286891  2028 net.cpp:159] Memory required for data: 8018125000
I0619 10:19:42.286898  2028 layer_factory.hpp:77] Creating layer res3d_branch2a
I0619 10:19:42.286918  2028 net.cpp:94] Creating Layer res3d_branch2a
I0619 10:19:42.286928  2028 net.cpp:435] res3d_branch2a <- res3c_res3c_relu_0_split_0
I0619 10:19:42.286942  2028 net.cpp:409] res3d_branch2a -> res3d_branch2a
I0619 10:19:42.309708  2028 net.cpp:144] Setting up res3d_branch2a
I0619 10:19:42.309746  2028 net.cpp:151] Top shape: 50 128 28 28 (5017600)
I0619 10:19:42.309754  2028 net.cpp:159] Memory required for data: 8038195400
I0619 10:19:42.309768  2028 layer_factory.hpp:77] Creating layer bn3d_branch2a
I0619 10:19:42.309785  2028 net.cpp:94] Creating Layer bn3d_branch2a
I0619 10:19:42.309794  2028 net.cpp:435] bn3d_branch2a <- res3d_branch2a
I0619 10:19:42.309806  2028 net.cpp:396] bn3d_branch2a -> res3d_branch2a (in-place)
I0619 10:19:42.311007  2028 net.cpp:144] Setting up bn3d_branch2a
I0619 10:19:42.311029  2028 net.cpp:151] Top shape: 50 128 28 28 (5017600)
I0619 10:19:42.311038  2028 net.cpp:159] Memory required for data: 8058265800
I0619 10:19:42.311090  2028 layer_factory.hpp:77] Creating layer scale3d_branch2a
I0619 10:19:42.311113  2028 net.cpp:94] Creating Layer scale3d_branch2a
I0619 10:19:42.311121  2028 net.cpp:435] scale3d_branch2a <- res3d_branch2a
I0619 10:19:42.311134  2028 net.cpp:396] scale3d_branch2a -> res3d_branch2a (in-place)
I0619 10:19:42.311257  2028 layer_factory.hpp:77] Creating layer scale3d_branch2a
I0619 10:19:42.311514  2028 net.cpp:144] Setting up scale3d_branch2a
I0619 10:19:42.311532  2028 net.cpp:151] Top shape: 50 128 28 28 (5017600)
I0619 10:19:42.311543  2028 net.cpp:159] Memory required for data: 8078336200
I0619 10:19:42.311556  2028 layer_factory.hpp:77] Creating layer res3d_branch2a_relu
I0619 10:19:42.311578  2028 net.cpp:94] Creating Layer res3d_branch2a_relu
I0619 10:19:42.311588  2028 net.cpp:435] res3d_branch2a_relu <- res3d_branch2a
I0619 10:19:42.311599  2028 net.cpp:396] res3d_branch2a_relu -> res3d_branch2a (in-place)
I0619 10:19:42.311615  2028 net.cpp:144] Setting up res3d_branch2a_relu
I0619 10:19:42.311628  2028 net.cpp:151] Top shape: 50 128 28 28 (5017600)
I0619 10:19:42.311635  2028 net.cpp:159] Memory required for data: 8098406600
I0619 10:19:42.311641  2028 layer_factory.hpp:77] Creating layer res3d_branch2b
I0619 10:19:42.311661  2028 net.cpp:94] Creating Layer res3d_branch2b
I0619 10:19:42.311672  2028 net.cpp:435] res3d_branch2b <- res3d_branch2a
I0619 10:19:42.311684  2028 net.cpp:409] res3d_branch2b -> res3d_branch2b
I0619 10:19:42.342475  2028 net.cpp:144] Setting up res3d_branch2b
I0619 10:19:42.342512  2028 net.cpp:151] Top shape: 50 128 28 28 (5017600)
I0619 10:19:42.342521  2028 net.cpp:159] Memory required for data: 8118477000
I0619 10:19:42.342535  2028 layer_factory.hpp:77] Creating layer bn3d_branch2b
I0619 10:19:42.342552  2028 net.cpp:94] Creating Layer bn3d_branch2b
I0619 10:19:42.342562  2028 net.cpp:435] bn3d_branch2b <- res3d_branch2b
I0619 10:19:42.342574  2028 net.cpp:396] bn3d_branch2b -> res3d_branch2b (in-place)
I0619 10:19:42.343785  2028 net.cpp:144] Setting up bn3d_branch2b
I0619 10:19:42.343808  2028 net.cpp:151] Top shape: 50 128 28 28 (5017600)
I0619 10:19:42.343816  2028 net.cpp:159] Memory required for data: 8138547400
I0619 10:19:42.343839  2028 layer_factory.hpp:77] Creating layer scale3d_branch2b
I0619 10:19:42.343855  2028 net.cpp:94] Creating Layer scale3d_branch2b
I0619 10:19:42.343868  2028 net.cpp:435] scale3d_branch2b <- res3d_branch2b
I0619 10:19:42.343880  2028 net.cpp:396] scale3d_branch2b -> res3d_branch2b (in-place)
I0619 10:19:42.343976  2028 layer_factory.hpp:77] Creating layer scale3d_branch2b
I0619 10:19:42.344254  2028 net.cpp:144] Setting up scale3d_branch2b
I0619 10:19:42.344271  2028 net.cpp:151] Top shape: 50 128 28 28 (5017600)
I0619 10:19:42.344279  2028 net.cpp:159] Memory required for data: 8158617800
I0619 10:19:42.344291  2028 layer_factory.hpp:77] Creating layer res3d_branch2b_relu
I0619 10:19:42.344305  2028 net.cpp:94] Creating Layer res3d_branch2b_relu
I0619 10:19:42.344313  2028 net.cpp:435] res3d_branch2b_relu <- res3d_branch2b
I0619 10:19:42.344326  2028 net.cpp:396] res3d_branch2b_relu -> res3d_branch2b (in-place)
I0619 10:19:42.344341  2028 net.cpp:144] Setting up res3d_branch2b_relu
I0619 10:19:42.344353  2028 net.cpp:151] Top shape: 50 128 28 28 (5017600)
I0619 10:19:42.344359  2028 net.cpp:159] Memory required for data: 8178688200
I0619 10:19:42.344365  2028 layer_factory.hpp:77] Creating layer res3d_branch2c
I0619 10:19:42.344385  2028 net.cpp:94] Creating Layer res3d_branch2c
I0619 10:19:42.344393  2028 net.cpp:435] res3d_branch2c <- res3d_branch2b
I0619 10:19:42.344404  2028 net.cpp:409] res3d_branch2c -> res3d_branch2c
I0619 10:19:42.361430  2028 net.cpp:144] Setting up res3d_branch2c
I0619 10:19:42.361466  2028 net.cpp:151] Top shape: 50 512 28 28 (20070400)
I0619 10:19:42.361474  2028 net.cpp:159] Memory required for data: 8258969800
I0619 10:19:42.361488  2028 layer_factory.hpp:77] Creating layer bn3d_branch2c
I0619 10:19:42.361508  2028 net.cpp:94] Creating Layer bn3d_branch2c
I0619 10:19:42.361517  2028 net.cpp:435] bn3d_branch2c <- res3d_branch2c
I0619 10:19:42.361562  2028 net.cpp:396] bn3d_branch2c -> res3d_branch2c (in-place)
I0619 10:19:42.362814  2028 net.cpp:144] Setting up bn3d_branch2c
I0619 10:19:42.362838  2028 net.cpp:151] Top shape: 50 512 28 28 (20070400)
I0619 10:19:42.362845  2028 net.cpp:159] Memory required for data: 8339251400
I0619 10:19:42.362867  2028 layer_factory.hpp:77] Creating layer scale3d_branch2c
I0619 10:19:42.362881  2028 net.cpp:94] Creating Layer scale3d_branch2c
I0619 10:19:42.362890  2028 net.cpp:435] scale3d_branch2c <- res3d_branch2c
I0619 10:19:42.362908  2028 net.cpp:396] scale3d_branch2c -> res3d_branch2c (in-place)
I0619 10:19:42.363019  2028 layer_factory.hpp:77] Creating layer scale3d_branch2c
I0619 10:19:42.363294  2028 net.cpp:144] Setting up scale3d_branch2c
I0619 10:19:42.363312  2028 net.cpp:151] Top shape: 50 512 28 28 (20070400)
I0619 10:19:42.363318  2028 net.cpp:159] Memory required for data: 8419533000
I0619 10:19:42.363332  2028 layer_factory.hpp:77] Creating layer res3d
I0619 10:19:42.363343  2028 net.cpp:94] Creating Layer res3d
I0619 10:19:42.363351  2028 net.cpp:435] res3d <- res3c_res3c_relu_0_split_1
I0619 10:19:42.363361  2028 net.cpp:435] res3d <- res3d_branch2c
I0619 10:19:42.363375  2028 net.cpp:409] res3d -> res3d
I0619 10:19:42.363436  2028 net.cpp:144] Setting up res3d
I0619 10:19:42.363451  2028 net.cpp:151] Top shape: 50 512 28 28 (20070400)
I0619 10:19:42.363458  2028 net.cpp:159] Memory required for data: 8499814600
I0619 10:19:42.363464  2028 layer_factory.hpp:77] Creating layer res3d_relu
I0619 10:19:42.363481  2028 net.cpp:94] Creating Layer res3d_relu
I0619 10:19:42.363487  2028 net.cpp:435] res3d_relu <- res3d
I0619 10:19:42.363497  2028 net.cpp:396] res3d_relu -> res3d (in-place)
I0619 10:19:42.363510  2028 net.cpp:144] Setting up res3d_relu
I0619 10:19:42.363521  2028 net.cpp:151] Top shape: 50 512 28 28 (20070400)
I0619 10:19:42.363528  2028 net.cpp:159] Memory required for data: 8580096200
I0619 10:19:42.363533  2028 layer_factory.hpp:77] Creating layer res3d_res3d_relu_0_split
I0619 10:19:42.363548  2028 net.cpp:94] Creating Layer res3d_res3d_relu_0_split
I0619 10:19:42.363564  2028 net.cpp:435] res3d_res3d_relu_0_split <- res3d
I0619 10:19:42.363575  2028 net.cpp:409] res3d_res3d_relu_0_split -> res3d_res3d_relu_0_split_0
I0619 10:19:42.363586  2028 net.cpp:409] res3d_res3d_relu_0_split -> res3d_res3d_relu_0_split_1
I0619 10:19:42.363673  2028 net.cpp:144] Setting up res3d_res3d_relu_0_split
I0619 10:19:42.363687  2028 net.cpp:151] Top shape: 50 512 28 28 (20070400)
I0619 10:19:42.363696  2028 net.cpp:151] Top shape: 50 512 28 28 (20070400)
I0619 10:19:42.363703  2028 net.cpp:159] Memory required for data: 8740659400
I0619 10:19:42.363708  2028 layer_factory.hpp:77] Creating layer res4a_branch1
I0619 10:19:42.363726  2028 net.cpp:94] Creating Layer res4a_branch1
I0619 10:19:42.363736  2028 net.cpp:435] res4a_branch1 <- res3d_res3d_relu_0_split_0
I0619 10:19:42.363754  2028 net.cpp:409] res4a_branch1 -> res4a_branch1
I0619 10:19:42.404261  2028 net.cpp:144] Setting up res4a_branch1
I0619 10:19:42.404312  2028 net.cpp:151] Top shape: 50 1024 14 14 (10035200)
I0619 10:19:42.404321  2028 net.cpp:159] Memory required for data: 8780800200
I0619 10:19:42.404335  2028 layer_factory.hpp:77] Creating layer bn4a_branch1
I0619 10:19:42.404356  2028 net.cpp:94] Creating Layer bn4a_branch1
I0619 10:19:42.404369  2028 net.cpp:435] bn4a_branch1 <- res4a_branch1
I0619 10:19:42.404386  2028 net.cpp:396] bn4a_branch1 -> res4a_branch1 (in-place)
I0619 10:19:42.405659  2028 net.cpp:144] Setting up bn4a_branch1
I0619 10:19:42.405683  2028 net.cpp:151] Top shape: 50 1024 14 14 (10035200)
I0619 10:19:42.405690  2028 net.cpp:159] Memory required for data: 8820941000
I0619 10:19:42.405711  2028 layer_factory.hpp:77] Creating layer scale4a_branch1
I0619 10:19:42.405730  2028 net.cpp:94] Creating Layer scale4a_branch1
I0619 10:19:42.405738  2028 net.cpp:435] scale4a_branch1 <- res4a_branch1
I0619 10:19:42.405755  2028 net.cpp:396] scale4a_branch1 -> res4a_branch1 (in-place)
I0619 10:19:42.405890  2028 layer_factory.hpp:77] Creating layer scale4a_branch1
I0619 10:19:42.406185  2028 net.cpp:144] Setting up scale4a_branch1
I0619 10:19:42.406203  2028 net.cpp:151] Top shape: 50 1024 14 14 (10035200)
I0619 10:19:42.406210  2028 net.cpp:159] Memory required for data: 8861081800
I0619 10:19:42.406224  2028 layer_factory.hpp:77] Creating layer res4a_branch2a
I0619 10:19:42.406256  2028 net.cpp:94] Creating Layer res4a_branch2a
I0619 10:19:42.406265  2028 net.cpp:435] res4a_branch2a <- res3d_res3d_relu_0_split_1
I0619 10:19:42.406278  2028 net.cpp:409] res4a_branch2a -> res4a_branch2a
I0619 10:19:42.424487  2028 net.cpp:144] Setting up res4a_branch2a
I0619 10:19:42.424525  2028 net.cpp:151] Top shape: 50 256 14 14 (2508800)
I0619 10:19:42.424532  2028 net.cpp:159] Memory required for data: 8871117000
I0619 10:19:42.424546  2028 layer_factory.hpp:77] Creating layer bn4a_branch2a
I0619 10:19:42.424562  2028 net.cpp:94] Creating Layer bn4a_branch2a
I0619 10:19:42.424571  2028 net.cpp:435] bn4a_branch2a <- res4a_branch2a
I0619 10:19:42.424592  2028 net.cpp:396] bn4a_branch2a -> res4a_branch2a (in-place)
I0619 10:19:42.425843  2028 net.cpp:144] Setting up bn4a_branch2a
I0619 10:19:42.425871  2028 net.cpp:151] Top shape: 50 256 14 14 (2508800)
I0619 10:19:42.425879  2028 net.cpp:159] Memory required for data: 8881152200
I0619 10:19:42.425899  2028 layer_factory.hpp:77] Creating layer scale4a_branch2a
I0619 10:19:42.425912  2028 net.cpp:94] Creating Layer scale4a_branch2a
I0619 10:19:42.425925  2028 net.cpp:435] scale4a_branch2a <- res4a_branch2a
I0619 10:19:42.425935  2028 net.cpp:396] scale4a_branch2a -> res4a_branch2a (in-place)
I0619 10:19:42.426043  2028 layer_factory.hpp:77] Creating layer scale4a_branch2a
I0619 10:19:42.426321  2028 net.cpp:144] Setting up scale4a_branch2a
I0619 10:19:42.426338  2028 net.cpp:151] Top shape: 50 256 14 14 (2508800)
I0619 10:19:42.426344  2028 net.cpp:159] Memory required for data: 8891187400
I0619 10:19:42.426357  2028 layer_factory.hpp:77] Creating layer res4a_branch2a_relu
I0619 10:19:42.426373  2028 net.cpp:94] Creating Layer res4a_branch2a_relu
I0619 10:19:42.426384  2028 net.cpp:435] res4a_branch2a_relu <- res4a_branch2a
I0619 10:19:42.426393  2028 net.cpp:396] res4a_branch2a_relu -> res4a_branch2a (in-place)
I0619 10:19:42.426407  2028 net.cpp:144] Setting up res4a_branch2a_relu
I0619 10:19:42.426417  2028 net.cpp:151] Top shape: 50 256 14 14 (2508800)
I0619 10:19:42.426424  2028 net.cpp:159] Memory required for data: 8901222600
I0619 10:19:42.426430  2028 layer_factory.hpp:77] Creating layer res4a_branch2b
I0619 10:19:42.426452  2028 net.cpp:94] Creating Layer res4a_branch2b
I0619 10:19:42.426463  2028 net.cpp:435] res4a_branch2b <- res4a_branch2a
I0619 10:19:42.426478  2028 net.cpp:409] res4a_branch2b -> res4a_branch2b
I0619 10:19:42.468147  2028 net.cpp:144] Setting up res4a_branch2b
I0619 10:19:42.468209  2028 net.cpp:151] Top shape: 50 256 14 14 (2508800)
I0619 10:19:42.468219  2028 net.cpp:159] Memory required for data: 8911257800
I0619 10:19:42.468233  2028 layer_factory.hpp:77] Creating layer bn4a_branch2b
I0619 10:19:42.468248  2028 net.cpp:94] Creating Layer bn4a_branch2b
I0619 10:19:42.468257  2028 net.cpp:435] bn4a_branch2b <- res4a_branch2b
I0619 10:19:42.468276  2028 net.cpp:396] bn4a_branch2b -> res4a_branch2b (in-place)
I0619 10:19:42.469540  2028 net.cpp:144] Setting up bn4a_branch2b
I0619 10:19:42.469568  2028 net.cpp:151] Top shape: 50 256 14 14 (2508800)
I0619 10:19:42.469576  2028 net.cpp:159] Memory required for data: 8921293000
I0619 10:19:42.469599  2028 layer_factory.hpp:77] Creating layer scale4a_branch2b
I0619 10:19:42.469612  2028 net.cpp:94] Creating Layer scale4a_branch2b
I0619 10:19:42.469624  2028 net.cpp:435] scale4a_branch2b <- res4a_branch2b
I0619 10:19:42.469635  2028 net.cpp:396] scale4a_branch2b -> res4a_branch2b (in-place)
I0619 10:19:42.469743  2028 layer_factory.hpp:77] Creating layer scale4a_branch2b
I0619 10:19:42.470010  2028 net.cpp:144] Setting up scale4a_branch2b
I0619 10:19:42.470028  2028 net.cpp:151] Top shape: 50 256 14 14 (2508800)
I0619 10:19:42.470064  2028 net.cpp:159] Memory required for data: 8931328200
I0619 10:19:42.470079  2028 layer_factory.hpp:77] Creating layer res4a_branch2b_relu
I0619 10:19:42.470093  2028 net.cpp:94] Creating Layer res4a_branch2b_relu
I0619 10:19:42.470101  2028 net.cpp:435] res4a_branch2b_relu <- res4a_branch2b
I0619 10:19:42.470116  2028 net.cpp:396] res4a_branch2b_relu -> res4a_branch2b (in-place)
I0619 10:19:42.470131  2028 net.cpp:144] Setting up res4a_branch2b_relu
I0619 10:19:42.470142  2028 net.cpp:151] Top shape: 50 256 14 14 (2508800)
I0619 10:19:42.470149  2028 net.cpp:159] Memory required for data: 8941363400
I0619 10:19:42.470155  2028 layer_factory.hpp:77] Creating layer res4a_branch2c
I0619 10:19:42.470190  2028 net.cpp:94] Creating Layer res4a_branch2c
I0619 10:19:42.470201  2028 net.cpp:435] res4a_branch2c <- res4a_branch2b
I0619 10:19:42.470217  2028 net.cpp:409] res4a_branch2c -> res4a_branch2c
I0619 10:19:42.489027  2028 net.cpp:144] Setting up res4a_branch2c
I0619 10:19:42.489063  2028 net.cpp:151] Top shape: 50 1024 14 14 (10035200)
I0619 10:19:42.489071  2028 net.cpp:159] Memory required for data: 8981504200
I0619 10:19:42.489085  2028 layer_factory.hpp:77] Creating layer bn4a_branch2c
I0619 10:19:42.489106  2028 net.cpp:94] Creating Layer bn4a_branch2c
I0619 10:19:42.489114  2028 net.cpp:435] bn4a_branch2c <- res4a_branch2c
I0619 10:19:42.489125  2028 net.cpp:396] bn4a_branch2c -> res4a_branch2c (in-place)
I0619 10:19:42.490417  2028 net.cpp:144] Setting up bn4a_branch2c
I0619 10:19:42.490440  2028 net.cpp:151] Top shape: 50 1024 14 14 (10035200)
I0619 10:19:42.490448  2028 net.cpp:159] Memory required for data: 9021645000
I0619 10:19:42.490469  2028 layer_factory.hpp:77] Creating layer scale4a_branch2c
I0619 10:19:42.490491  2028 net.cpp:94] Creating Layer scale4a_branch2c
I0619 10:19:42.490499  2028 net.cpp:435] scale4a_branch2c <- res4a_branch2c
I0619 10:19:42.490509  2028 net.cpp:396] scale4a_branch2c -> res4a_branch2c (in-place)
I0619 10:19:42.490610  2028 layer_factory.hpp:77] Creating layer scale4a_branch2c
I0619 10:19:42.490895  2028 net.cpp:144] Setting up scale4a_branch2c
I0619 10:19:42.490911  2028 net.cpp:151] Top shape: 50 1024 14 14 (10035200)
I0619 10:19:42.490916  2028 net.cpp:159] Memory required for data: 9061785800
I0619 10:19:42.490928  2028 layer_factory.hpp:77] Creating layer res4a
I0619 10:19:42.490942  2028 net.cpp:94] Creating Layer res4a
I0619 10:19:42.490949  2028 net.cpp:435] res4a <- res4a_branch1
I0619 10:19:42.490958  2028 net.cpp:435] res4a <- res4a_branch2c
I0619 10:19:42.490973  2028 net.cpp:409] res4a -> res4a
I0619 10:19:42.491034  2028 net.cpp:144] Setting up res4a
I0619 10:19:42.491050  2028 net.cpp:151] Top shape: 50 1024 14 14 (10035200)
I0619 10:19:42.491056  2028 net.cpp:159] Memory required for data: 9101926600
I0619 10:19:42.491063  2028 layer_factory.hpp:77] Creating layer res4a_relu
I0619 10:19:42.491077  2028 net.cpp:94] Creating Layer res4a_relu
I0619 10:19:42.491086  2028 net.cpp:435] res4a_relu <- res4a
I0619 10:19:42.491094  2028 net.cpp:396] res4a_relu -> res4a (in-place)
I0619 10:19:42.491108  2028 net.cpp:144] Setting up res4a_relu
I0619 10:19:42.491118  2028 net.cpp:151] Top shape: 50 1024 14 14 (10035200)
I0619 10:19:42.491124  2028 net.cpp:159] Memory required for data: 9142067400
I0619 10:19:42.491130  2028 layer_factory.hpp:77] Creating layer res4a_res4a_relu_0_split
I0619 10:19:42.491145  2028 net.cpp:94] Creating Layer res4a_res4a_relu_0_split
I0619 10:19:42.491153  2028 net.cpp:435] res4a_res4a_relu_0_split <- res4a
I0619 10:19:42.491161  2028 net.cpp:409] res4a_res4a_relu_0_split -> res4a_res4a_relu_0_split_0
I0619 10:19:42.491186  2028 net.cpp:409] res4a_res4a_relu_0_split -> res4a_res4a_relu_0_split_1
I0619 10:19:42.491274  2028 net.cpp:144] Setting up res4a_res4a_relu_0_split
I0619 10:19:42.491286  2028 net.cpp:151] Top shape: 50 1024 14 14 (10035200)
I0619 10:19:42.491294  2028 net.cpp:151] Top shape: 50 1024 14 14 (10035200)
I0619 10:19:42.491300  2028 net.cpp:159] Memory required for data: 9222349000
I0619 10:19:42.491335  2028 layer_factory.hpp:77] Creating layer res4b_branch2a
I0619 10:19:42.491380  2028 net.cpp:94] Creating Layer res4b_branch2a
I0619 10:19:42.491394  2028 net.cpp:435] res4b_branch2a <- res4a_res4a_relu_0_split_0
I0619 10:19:42.491406  2028 net.cpp:409] res4b_branch2a -> res4b_branch2a
I0619 10:19:42.516628  2028 net.cpp:144] Setting up res4b_branch2a
I0619 10:19:42.516655  2028 net.cpp:151] Top shape: 50 256 14 14 (2508800)
I0619 10:19:42.516660  2028 net.cpp:159] Memory required for data: 9232384200
I0619 10:19:42.516670  2028 layer_factory.hpp:77] Creating layer bn4b_branch2a
I0619 10:19:42.516680  2028 net.cpp:94] Creating Layer bn4b_branch2a
I0619 10:19:42.516687  2028 net.cpp:435] bn4b_branch2a <- res4b_branch2a
I0619 10:19:42.516698  2028 net.cpp:396] bn4b_branch2a -> res4b_branch2a (in-place)
I0619 10:19:42.517802  2028 net.cpp:144] Setting up bn4b_branch2a
I0619 10:19:42.517832  2028 net.cpp:151] Top shape: 50 256 14 14 (2508800)
I0619 10:19:42.517840  2028 net.cpp:159] Memory required for data: 9242419400
I0619 10:19:42.517863  2028 layer_factory.hpp:77] Creating layer scale4b_branch2a
I0619 10:19:42.517880  2028 net.cpp:94] Creating Layer scale4b_branch2a
I0619 10:19:42.517890  2028 net.cpp:435] scale4b_branch2a <- res4b_branch2a
I0619 10:19:42.517909  2028 net.cpp:396] scale4b_branch2a -> res4b_branch2a (in-place)
I0619 10:19:42.518019  2028 layer_factory.hpp:77] Creating layer scale4b_branch2a
I0619 10:19:42.518301  2028 net.cpp:144] Setting up scale4b_branch2a
I0619 10:19:42.518323  2028 net.cpp:151] Top shape: 50 256 14 14 (2508800)
I0619 10:19:42.518331  2028 net.cpp:159] Memory required for data: 9252454600
I0619 10:19:42.518343  2028 layer_factory.hpp:77] Creating layer res4b_branch2a_relu
I0619 10:19:42.518357  2028 net.cpp:94] Creating Layer res4b_branch2a_relu
I0619 10:19:42.518368  2028 net.cpp:435] res4b_branch2a_relu <- res4b_branch2a
I0619 10:19:42.518378  2028 net.cpp:396] res4b_branch2a_relu -> res4b_branch2a (in-place)
I0619 10:19:42.518391  2028 net.cpp:144] Setting up res4b_branch2a_relu
I0619 10:19:42.518402  2028 net.cpp:151] Top shape: 50 256 14 14 (2508800)
I0619 10:19:42.518409  2028 net.cpp:159] Memory required for data: 9262489800
I0619 10:19:42.518415  2028 layer_factory.hpp:77] Creating layer res4b_branch2b
I0619 10:19:42.518436  2028 net.cpp:94] Creating Layer res4b_branch2b
I0619 10:19:42.518447  2028 net.cpp:435] res4b_branch2b <- res4b_branch2a
I0619 10:19:42.518462  2028 net.cpp:409] res4b_branch2b -> res4b_branch2b
I0619 10:19:42.558785  2028 net.cpp:144] Setting up res4b_branch2b
I0619 10:19:42.558812  2028 net.cpp:151] Top shape: 50 256 14 14 (2508800)
I0619 10:19:42.558817  2028 net.cpp:159] Memory required for data: 9272525000
I0619 10:19:42.558827  2028 layer_factory.hpp:77] Creating layer bn4b_branch2b
I0619 10:19:42.558842  2028 net.cpp:94] Creating Layer bn4b_branch2b
I0619 10:19:42.558848  2028 net.cpp:435] bn4b_branch2b <- res4b_branch2b
I0619 10:19:42.558859  2028 net.cpp:396] bn4b_branch2b -> res4b_branch2b (in-place)
I0619 10:19:42.560003  2028 net.cpp:144] Setting up bn4b_branch2b
I0619 10:19:42.560027  2028 net.cpp:151] Top shape: 50 256 14 14 (2508800)
I0619 10:19:42.560034  2028 net.cpp:159] Memory required for data: 9282560200
I0619 10:19:42.560056  2028 layer_factory.hpp:77] Creating layer scale4b_branch2b
I0619 10:19:42.560077  2028 net.cpp:94] Creating Layer scale4b_branch2b
I0619 10:19:42.560091  2028 net.cpp:435] scale4b_branch2b <- res4b_branch2b
I0619 10:19:42.560101  2028 net.cpp:396] scale4b_branch2b -> res4b_branch2b (in-place)
I0619 10:19:42.560225  2028 layer_factory.hpp:77] Creating layer scale4b_branch2b
I0619 10:19:42.560498  2028 net.cpp:144] Setting up scale4b_branch2b
I0619 10:19:42.560514  2028 net.cpp:151] Top shape: 50 256 14 14 (2508800)
I0619 10:19:42.560521  2028 net.cpp:159] Memory required for data: 9292595400
I0619 10:19:42.560534  2028 layer_factory.hpp:77] Creating layer res4b_branch2b_relu
I0619 10:19:42.560545  2028 net.cpp:94] Creating Layer res4b_branch2b_relu
I0619 10:19:42.560552  2028 net.cpp:435] res4b_branch2b_relu <- res4b_branch2b
I0619 10:19:42.560596  2028 net.cpp:396] res4b_branch2b_relu -> res4b_branch2b (in-place)
I0619 10:19:42.560618  2028 net.cpp:144] Setting up res4b_branch2b_relu
I0619 10:19:42.560631  2028 net.cpp:151] Top shape: 50 256 14 14 (2508800)
I0619 10:19:42.560636  2028 net.cpp:159] Memory required for data: 9302630600
I0619 10:19:42.560642  2028 layer_factory.hpp:77] Creating layer res4b_branch2c
I0619 10:19:42.560665  2028 net.cpp:94] Creating Layer res4b_branch2c
I0619 10:19:42.560672  2028 net.cpp:435] res4b_branch2c <- res4b_branch2b
I0619 10:19:42.560688  2028 net.cpp:409] res4b_branch2c -> res4b_branch2c
I0619 10:19:42.579286  2028 net.cpp:144] Setting up res4b_branch2c
I0619 10:19:42.579324  2028 net.cpp:151] Top shape: 50 1024 14 14 (10035200)
I0619 10:19:42.579332  2028 net.cpp:159] Memory required for data: 9342771400
I0619 10:19:42.579345  2028 layer_factory.hpp:77] Creating layer bn4b_branch2c
I0619 10:19:42.579367  2028 net.cpp:94] Creating Layer bn4b_branch2c
I0619 10:19:42.579376  2028 net.cpp:435] bn4b_branch2c <- res4b_branch2c
I0619 10:19:42.579388  2028 net.cpp:396] bn4b_branch2c -> res4b_branch2c (in-place)
I0619 10:19:42.580703  2028 net.cpp:144] Setting up bn4b_branch2c
I0619 10:19:42.580726  2028 net.cpp:151] Top shape: 50 1024 14 14 (10035200)
I0619 10:19:42.580734  2028 net.cpp:159] Memory required for data: 9382912200
I0619 10:19:42.580754  2028 layer_factory.hpp:77] Creating layer scale4b_branch2c
I0619 10:19:42.580768  2028 net.cpp:94] Creating Layer scale4b_branch2c
I0619 10:19:42.580776  2028 net.cpp:435] scale4b_branch2c <- res4b_branch2c
I0619 10:19:42.580797  2028 net.cpp:396] scale4b_branch2c -> res4b_branch2c (in-place)
I0619 10:19:42.580893  2028 layer_factory.hpp:77] Creating layer scale4b_branch2c
I0619 10:19:42.581194  2028 net.cpp:144] Setting up scale4b_branch2c
I0619 10:19:42.581212  2028 net.cpp:151] Top shape: 50 1024 14 14 (10035200)
I0619 10:19:42.581218  2028 net.cpp:159] Memory required for data: 9423053000
I0619 10:19:42.581231  2028 layer_factory.hpp:77] Creating layer res4b
I0619 10:19:42.581248  2028 net.cpp:94] Creating Layer res4b
I0619 10:19:42.581256  2028 net.cpp:435] res4b <- res4a_res4a_relu_0_split_1
I0619 10:19:42.581265  2028 net.cpp:435] res4b <- res4b_branch2c
I0619 10:19:42.581281  2028 net.cpp:409] res4b -> res4b
I0619 10:19:42.581346  2028 net.cpp:144] Setting up res4b
I0619 10:19:42.581362  2028 net.cpp:151] Top shape: 50 1024 14 14 (10035200)
I0619 10:19:42.581369  2028 net.cpp:159] Memory required for data: 9463193800
I0619 10:19:42.581379  2028 layer_factory.hpp:77] Creating layer res4b_relu
I0619 10:19:42.581395  2028 net.cpp:94] Creating Layer res4b_relu
I0619 10:19:42.581404  2028 net.cpp:435] res4b_relu <- res4b
I0619 10:19:42.581414  2028 net.cpp:396] res4b_relu -> res4b (in-place)
I0619 10:19:42.581429  2028 net.cpp:144] Setting up res4b_relu
I0619 10:19:42.581440  2028 net.cpp:151] Top shape: 50 1024 14 14 (10035200)
I0619 10:19:42.581446  2028 net.cpp:159] Memory required for data: 9503334600
I0619 10:19:42.581455  2028 layer_factory.hpp:77] Creating layer res4b_res4b_relu_0_split
I0619 10:19:42.581466  2028 net.cpp:94] Creating Layer res4b_res4b_relu_0_split
I0619 10:19:42.581475  2028 net.cpp:435] res4b_res4b_relu_0_split <- res4b
I0619 10:19:42.581485  2028 net.cpp:409] res4b_res4b_relu_0_split -> res4b_res4b_relu_0_split_0
I0619 10:19:42.581501  2028 net.cpp:409] res4b_res4b_relu_0_split -> res4b_res4b_relu_0_split_1
I0619 10:19:42.581594  2028 net.cpp:144] Setting up res4b_res4b_relu_0_split
I0619 10:19:42.581609  2028 net.cpp:151] Top shape: 50 1024 14 14 (10035200)
I0619 10:19:42.581619  2028 net.cpp:151] Top shape: 50 1024 14 14 (10035200)
I0619 10:19:42.581626  2028 net.cpp:159] Memory required for data: 9583616200
I0619 10:19:42.581634  2028 layer_factory.hpp:77] Creating layer res4c_branch2a
I0619 10:19:42.581655  2028 net.cpp:94] Creating Layer res4c_branch2a
I0619 10:19:42.581662  2028 net.cpp:435] res4c_branch2a <- res4b_res4b_relu_0_split_0
I0619 10:19:42.581674  2028 net.cpp:409] res4c_branch2a -> res4c_branch2a
I0619 10:19:42.607094  2028 net.cpp:144] Setting up res4c_branch2a
I0619 10:19:42.607127  2028 net.cpp:151] Top shape: 50 256 14 14 (2508800)
I0619 10:19:42.607136  2028 net.cpp:159] Memory required for data: 9593651400
I0619 10:19:42.607149  2028 layer_factory.hpp:77] Creating layer bn4c_branch2a
I0619 10:19:42.607199  2028 net.cpp:94] Creating Layer bn4c_branch2a
I0619 10:19:42.607210  2028 net.cpp:435] bn4c_branch2a <- res4c_branch2a
I0619 10:19:42.607223  2028 net.cpp:396] bn4c_branch2a -> res4c_branch2a (in-place)
I0619 10:19:42.608548  2028 net.cpp:144] Setting up bn4c_branch2a
I0619 10:19:42.608573  2028 net.cpp:151] Top shape: 50 256 14 14 (2508800)
I0619 10:19:42.608580  2028 net.cpp:159] Memory required for data: 9603686600
I0619 10:19:42.608603  2028 layer_factory.hpp:77] Creating layer scale4c_branch2a
I0619 10:19:42.608616  2028 net.cpp:94] Creating Layer scale4c_branch2a
I0619 10:19:42.608625  2028 net.cpp:435] scale4c_branch2a <- res4c_branch2a
I0619 10:19:42.608646  2028 net.cpp:396] scale4c_branch2a -> res4c_branch2a (in-place)
I0619 10:19:42.608755  2028 layer_factory.hpp:77] Creating layer scale4c_branch2a
I0619 10:19:42.609030  2028 net.cpp:144] Setting up scale4c_branch2a
I0619 10:19:42.609045  2028 net.cpp:151] Top shape: 50 256 14 14 (2508800)
I0619 10:19:42.609050  2028 net.cpp:159] Memory required for data: 9613721800
I0619 10:19:42.609120  2028 layer_factory.hpp:77] Creating layer res4c_branch2a_relu
I0619 10:19:42.609138  2028 net.cpp:94] Creating Layer res4c_branch2a_relu
I0619 10:19:42.609158  2028 net.cpp:435] res4c_branch2a_relu <- res4c_branch2a
I0619 10:19:42.609179  2028 net.cpp:396] res4c_branch2a_relu -> res4c_branch2a (in-place)
I0619 10:19:42.609196  2028 net.cpp:144] Setting up res4c_branch2a_relu
I0619 10:19:42.609206  2028 net.cpp:151] Top shape: 50 256 14 14 (2508800)
I0619 10:19:42.609213  2028 net.cpp:159] Memory required for data: 9623757000
I0619 10:19:42.609220  2028 layer_factory.hpp:77] Creating layer res4c_branch2b
I0619 10:19:42.609251  2028 net.cpp:94] Creating Layer res4c_branch2b
I0619 10:19:42.609261  2028 net.cpp:435] res4c_branch2b <- res4c_branch2a
I0619 10:19:42.609272  2028 net.cpp:409] res4c_branch2b -> res4c_branch2b
I0619 10:19:42.649729  2028 net.cpp:144] Setting up res4c_branch2b
I0619 10:19:42.649767  2028 net.cpp:151] Top shape: 50 256 14 14 (2508800)
I0619 10:19:42.649776  2028 net.cpp:159] Memory required for data: 9633792200
I0619 10:19:42.649791  2028 layer_factory.hpp:77] Creating layer bn4c_branch2b
I0619 10:19:42.649806  2028 net.cpp:94] Creating Layer bn4c_branch2b
I0619 10:19:42.649814  2028 net.cpp:435] bn4c_branch2b <- res4c_branch2b
I0619 10:19:42.649826  2028 net.cpp:396] bn4c_branch2b -> res4c_branch2b (in-place)
I0619 10:19:42.651181  2028 net.cpp:144] Setting up bn4c_branch2b
I0619 10:19:42.651206  2028 net.cpp:151] Top shape: 50 256 14 14 (2508800)
I0619 10:19:42.651213  2028 net.cpp:159] Memory required for data: 9643827400
I0619 10:19:42.651235  2028 layer_factory.hpp:77] Creating layer scale4c_branch2b
I0619 10:19:42.651253  2028 net.cpp:94] Creating Layer scale4c_branch2b
I0619 10:19:42.651262  2028 net.cpp:435] scale4c_branch2b <- res4c_branch2b
I0619 10:19:42.651273  2028 net.cpp:396] scale4c_branch2b -> res4c_branch2b (in-place)
I0619 10:19:42.651387  2028 layer_factory.hpp:77] Creating layer scale4c_branch2b
I0619 10:19:42.651669  2028 net.cpp:144] Setting up scale4c_branch2b
I0619 10:19:42.651684  2028 net.cpp:151] Top shape: 50 256 14 14 (2508800)
I0619 10:19:42.651691  2028 net.cpp:159] Memory required for data: 9653862600
I0619 10:19:42.651703  2028 layer_factory.hpp:77] Creating layer res4c_branch2b_relu
I0619 10:19:42.651720  2028 net.cpp:94] Creating Layer res4c_branch2b_relu
I0619 10:19:42.651727  2028 net.cpp:435] res4c_branch2b_relu <- res4c_branch2b
I0619 10:19:42.651736  2028 net.cpp:396] res4c_branch2b_relu -> res4c_branch2b (in-place)
I0619 10:19:42.651751  2028 net.cpp:144] Setting up res4c_branch2b_relu
I0619 10:19:42.651760  2028 net.cpp:151] Top shape: 50 256 14 14 (2508800)
I0619 10:19:42.651767  2028 net.cpp:159] Memory required for data: 9663897800
I0619 10:19:42.651803  2028 layer_factory.hpp:77] Creating layer res4c_branch2c
I0619 10:19:42.651826  2028 net.cpp:94] Creating Layer res4c_branch2c
I0619 10:19:42.651834  2028 net.cpp:435] res4c_branch2c <- res4c_branch2b
I0619 10:19:42.651849  2028 net.cpp:409] res4c_branch2c -> res4c_branch2c
I0619 10:19:42.670629  2028 net.cpp:144] Setting up res4c_branch2c
I0619 10:19:42.670666  2028 net.cpp:151] Top shape: 50 1024 14 14 (10035200)
I0619 10:19:42.670675  2028 net.cpp:159] Memory required for data: 9704038600
I0619 10:19:42.670688  2028 layer_factory.hpp:77] Creating layer bn4c_branch2c
I0619 10:19:42.670703  2028 net.cpp:94] Creating Layer bn4c_branch2c
I0619 10:19:42.670712  2028 net.cpp:435] bn4c_branch2c <- res4c_branch2c
I0619 10:19:42.670728  2028 net.cpp:396] bn4c_branch2c -> res4c_branch2c (in-place)
I0619 10:19:42.672062  2028 net.cpp:144] Setting up bn4c_branch2c
I0619 10:19:42.672086  2028 net.cpp:151] Top shape: 50 1024 14 14 (10035200)
I0619 10:19:42.672093  2028 net.cpp:159] Memory required for data: 9744179400
I0619 10:19:42.672114  2028 layer_factory.hpp:77] Creating layer scale4c_branch2c
I0619 10:19:42.672128  2028 net.cpp:94] Creating Layer scale4c_branch2c
I0619 10:19:42.672137  2028 net.cpp:435] scale4c_branch2c <- res4c_branch2c
I0619 10:19:42.672158  2028 net.cpp:396] scale4c_branch2c -> res4c_branch2c (in-place)
I0619 10:19:42.672268  2028 layer_factory.hpp:77] Creating layer scale4c_branch2c
I0619 10:19:42.672557  2028 net.cpp:144] Setting up scale4c_branch2c
I0619 10:19:42.672574  2028 net.cpp:151] Top shape: 50 1024 14 14 (10035200)
I0619 10:19:42.672580  2028 net.cpp:159] Memory required for data: 9784320200
I0619 10:19:42.672592  2028 layer_factory.hpp:77] Creating layer res4c
I0619 10:19:42.672605  2028 net.cpp:94] Creating Layer res4c
I0619 10:19:42.672613  2028 net.cpp:435] res4c <- res4b_res4b_relu_0_split_1
I0619 10:19:42.672631  2028 net.cpp:435] res4c <- res4c_branch2c
I0619 10:19:42.672641  2028 net.cpp:409] res4c -> res4c
I0619 10:19:42.672703  2028 net.cpp:144] Setting up res4c
I0619 10:19:42.672719  2028 net.cpp:151] Top shape: 50 1024 14 14 (10035200)
I0619 10:19:42.672724  2028 net.cpp:159] Memory required for data: 9824461000
I0619 10:19:42.672731  2028 layer_factory.hpp:77] Creating layer res4c_relu
I0619 10:19:42.672746  2028 net.cpp:94] Creating Layer res4c_relu
I0619 10:19:42.672755  2028 net.cpp:435] res4c_relu <- res4c
I0619 10:19:42.672763  2028 net.cpp:396] res4c_relu -> res4c (in-place)
I0619 10:19:42.672777  2028 net.cpp:144] Setting up res4c_relu
I0619 10:19:42.672786  2028 net.cpp:151] Top shape: 50 1024 14 14 (10035200)
I0619 10:19:42.672793  2028 net.cpp:159] Memory required for data: 9864601800
I0619 10:19:42.672801  2028 layer_factory.hpp:77] Creating layer res4c_res4c_relu_0_split
I0619 10:19:42.672811  2028 net.cpp:94] Creating Layer res4c_res4c_relu_0_split
I0619 10:19:42.672821  2028 net.cpp:435] res4c_res4c_relu_0_split <- res4c
I0619 10:19:42.672835  2028 net.cpp:409] res4c_res4c_relu_0_split -> res4c_res4c_relu_0_split_0
I0619 10:19:42.672847  2028 net.cpp:409] res4c_res4c_relu_0_split -> res4c_res4c_relu_0_split_1
I0619 10:19:42.672935  2028 net.cpp:144] Setting up res4c_res4c_relu_0_split
I0619 10:19:42.672946  2028 net.cpp:151] Top shape: 50 1024 14 14 (10035200)
I0619 10:19:42.672955  2028 net.cpp:151] Top shape: 50 1024 14 14 (10035200)
I0619 10:19:42.672965  2028 net.cpp:159] Memory required for data: 9944883400
I0619 10:19:42.672971  2028 layer_factory.hpp:77] Creating layer res4d_branch2a
I0619 10:19:42.672992  2028 net.cpp:94] Creating Layer res4d_branch2a
I0619 10:19:42.673001  2028 net.cpp:435] res4d_branch2a <- res4c_res4c_relu_0_split_0
I0619 10:19:42.673012  2028 net.cpp:409] res4d_branch2a -> res4d_branch2a
I0619 10:19:42.698451  2028 net.cpp:144] Setting up res4d_branch2a
I0619 10:19:42.698487  2028 net.cpp:151] Top shape: 50 256 14 14 (2508800)
I0619 10:19:42.698495  2028 net.cpp:159] Memory required for data: 9954918600
I0619 10:19:42.698509  2028 layer_factory.hpp:77] Creating layer bn4d_branch2a
I0619 10:19:42.698552  2028 net.cpp:94] Creating Layer bn4d_branch2a
I0619 10:19:42.698565  2028 net.cpp:435] bn4d_branch2a <- res4d_branch2a
I0619 10:19:42.698581  2028 net.cpp:396] bn4d_branch2a -> res4d_branch2a (in-place)
I0619 10:19:42.699931  2028 net.cpp:144] Setting up bn4d_branch2a
I0619 10:19:42.699955  2028 net.cpp:151] Top shape: 50 256 14 14 (2508800)
I0619 10:19:42.699964  2028 net.cpp:159] Memory required for data: 9964953800
I0619 10:19:42.699986  2028 layer_factory.hpp:77] Creating layer scale4d_branch2a
I0619 10:19:42.700001  2028 net.cpp:94] Creating Layer scale4d_branch2a
I0619 10:19:42.700013  2028 net.cpp:435] scale4d_branch2a <- res4d_branch2a
I0619 10:19:42.700028  2028 net.cpp:396] scale4d_branch2a -> res4d_branch2a (in-place)
I0619 10:19:42.700137  2028 layer_factory.hpp:77] Creating layer scale4d_branch2a
I0619 10:19:42.700443  2028 net.cpp:144] Setting up scale4d_branch2a
I0619 10:19:42.700461  2028 net.cpp:151] Top shape: 50 256 14 14 (2508800)
I0619 10:19:42.700467  2028 net.cpp:159] Memory required for data: 9974989000
I0619 10:19:42.700480  2028 layer_factory.hpp:77] Creating layer res4d_branch2a_relu
I0619 10:19:42.700492  2028 net.cpp:94] Creating Layer res4d_branch2a_relu
I0619 10:19:42.700500  2028 net.cpp:435] res4d_branch2a_relu <- res4d_branch2a
I0619 10:19:42.700510  2028 net.cpp:396] res4d_branch2a_relu -> res4d_branch2a (in-place)
I0619 10:19:42.700525  2028 net.cpp:144] Setting up res4d_branch2a_relu
I0619 10:19:42.700534  2028 net.cpp:151] Top shape: 50 256 14 14 (2508800)
I0619 10:19:42.700544  2028 net.cpp:159] Memory required for data: 9985024200
I0619 10:19:42.700551  2028 layer_factory.hpp:77] Creating layer res4d_branch2b
I0619 10:19:42.700577  2028 net.cpp:94] Creating Layer res4d_branch2b
I0619 10:19:42.700585  2028 net.cpp:435] res4d_branch2b <- res4d_branch2a
I0619 10:19:42.700597  2028 net.cpp:409] res4d_branch2b -> res4d_branch2b
I0619 10:19:42.741243  2028 net.cpp:144] Setting up res4d_branch2b
I0619 10:19:42.741281  2028 net.cpp:151] Top shape: 50 256 14 14 (2508800)
I0619 10:19:42.741289  2028 net.cpp:159] Memory required for data: 9995059400
I0619 10:19:42.741303  2028 layer_factory.hpp:77] Creating layer bn4d_branch2b
I0619 10:19:42.741323  2028 net.cpp:94] Creating Layer bn4d_branch2b
I0619 10:19:42.741333  2028 net.cpp:435] bn4d_branch2b <- res4d_branch2b
I0619 10:19:42.741348  2028 net.cpp:396] bn4d_branch2b -> res4d_branch2b (in-place)
I0619 10:19:42.742698  2028 net.cpp:144] Setting up bn4d_branch2b
I0619 10:19:42.742722  2028 net.cpp:151] Top shape: 50 256 14 14 (2508800)
I0619 10:19:42.742729  2028 net.cpp:159] Memory required for data: 10005094600
I0619 10:19:42.742751  2028 layer_factory.hpp:77] Creating layer scale4d_branch2b
I0619 10:19:42.742769  2028 net.cpp:94] Creating Layer scale4d_branch2b
I0619 10:19:42.742777  2028 net.cpp:435] scale4d_branch2b <- res4d_branch2b
I0619 10:19:42.742795  2028 net.cpp:396] scale4d_branch2b -> res4d_branch2b (in-place)
I0619 10:19:42.742903  2028 layer_factory.hpp:77] Creating layer scale4d_branch2b
I0619 10:19:42.743201  2028 net.cpp:144] Setting up scale4d_branch2b
I0619 10:19:42.743218  2028 net.cpp:151] Top shape: 50 256 14 14 (2508800)
I0619 10:19:42.743224  2028 net.cpp:159] Memory required for data: 10015129800
I0619 10:19:42.743237  2028 layer_factory.hpp:77] Creating layer res4d_branch2b_relu
I0619 10:19:42.743253  2028 net.cpp:94] Creating Layer res4d_branch2b_relu
I0619 10:19:42.743260  2028 net.cpp:435] res4d_branch2b_relu <- res4d_branch2b
I0619 10:19:42.743270  2028 net.cpp:396] res4d_branch2b_relu -> res4d_branch2b (in-place)
I0619 10:19:42.743284  2028 net.cpp:144] Setting up res4d_branch2b_relu
I0619 10:19:42.743294  2028 net.cpp:151] Top shape: 50 256 14 14 (2508800)
I0619 10:19:42.743300  2028 net.cpp:159] Memory required for data: 10025165000
I0619 10:19:42.743306  2028 layer_factory.hpp:77] Creating layer res4d_branch2c
I0619 10:19:42.743330  2028 net.cpp:94] Creating Layer res4d_branch2c
I0619 10:19:42.743336  2028 net.cpp:435] res4d_branch2c <- res4d_branch2b
I0619 10:19:42.743381  2028 net.cpp:409] res4d_branch2c -> res4d_branch2c
I0619 10:19:42.762300  2028 net.cpp:144] Setting up res4d_branch2c
I0619 10:19:42.762336  2028 net.cpp:151] Top shape: 50 1024 14 14 (10035200)
I0619 10:19:42.762346  2028 net.cpp:159] Memory required for data: 10065305800
I0619 10:19:42.762363  2028 layer_factory.hpp:77] Creating layer bn4d_branch2c
I0619 10:19:42.762380  2028 net.cpp:94] Creating Layer bn4d_branch2c
I0619 10:19:42.762389  2028 net.cpp:435] bn4d_branch2c <- res4d_branch2c
I0619 10:19:42.762401  2028 net.cpp:396] bn4d_branch2c -> res4d_branch2c (in-place)
I0619 10:19:42.763748  2028 net.cpp:144] Setting up bn4d_branch2c
I0619 10:19:42.763772  2028 net.cpp:151] Top shape: 50 1024 14 14 (10035200)
I0619 10:19:42.763779  2028 net.cpp:159] Memory required for data: 10105446600
I0619 10:19:42.763800  2028 layer_factory.hpp:77] Creating layer scale4d_branch2c
I0619 10:19:42.763814  2028 net.cpp:94] Creating Layer scale4d_branch2c
I0619 10:19:42.763823  2028 net.cpp:435] scale4d_branch2c <- res4d_branch2c
I0619 10:19:42.763844  2028 net.cpp:396] scale4d_branch2c -> res4d_branch2c (in-place)
I0619 10:19:42.763952  2028 layer_factory.hpp:77] Creating layer scale4d_branch2c
I0619 10:19:42.764269  2028 net.cpp:144] Setting up scale4d_branch2c
I0619 10:19:42.764286  2028 net.cpp:151] Top shape: 50 1024 14 14 (10035200)
I0619 10:19:42.764293  2028 net.cpp:159] Memory required for data: 10145587400
I0619 10:19:42.764305  2028 layer_factory.hpp:77] Creating layer res4d
I0619 10:19:42.764323  2028 net.cpp:94] Creating Layer res4d
I0619 10:19:42.764331  2028 net.cpp:435] res4d <- res4c_res4c_relu_0_split_1
I0619 10:19:42.764340  2028 net.cpp:435] res4d <- res4d_branch2c
I0619 10:19:42.764355  2028 net.cpp:409] res4d -> res4d
I0619 10:19:42.764417  2028 net.cpp:144] Setting up res4d
I0619 10:19:42.764431  2028 net.cpp:151] Top shape: 50 1024 14 14 (10035200)
I0619 10:19:42.764437  2028 net.cpp:159] Memory required for data: 10185728200
I0619 10:19:42.764444  2028 layer_factory.hpp:77] Creating layer res4d_relu
I0619 10:19:42.764464  2028 net.cpp:94] Creating Layer res4d_relu
I0619 10:19:42.764472  2028 net.cpp:435] res4d_relu <- res4d
I0619 10:19:42.764482  2028 net.cpp:396] res4d_relu -> res4d (in-place)
I0619 10:19:42.764497  2028 net.cpp:144] Setting up res4d_relu
I0619 10:19:42.764505  2028 net.cpp:151] Top shape: 50 1024 14 14 (10035200)
I0619 10:19:42.764513  2028 net.cpp:159] Memory required for data: 10225869000
I0619 10:19:42.764518  2028 layer_factory.hpp:77] Creating layer res4d_res4d_relu_0_split
I0619 10:19:42.764535  2028 net.cpp:94] Creating Layer res4d_res4d_relu_0_split
I0619 10:19:42.764542  2028 net.cpp:435] res4d_res4d_relu_0_split <- res4d
I0619 10:19:42.764554  2028 net.cpp:409] res4d_res4d_relu_0_split -> res4d_res4d_relu_0_split_0
I0619 10:19:42.764571  2028 net.cpp:409] res4d_res4d_relu_0_split -> res4d_res4d_relu_0_split_1
I0619 10:19:42.764681  2028 net.cpp:144] Setting up res4d_res4d_relu_0_split
I0619 10:19:42.764696  2028 net.cpp:151] Top shape: 50 1024 14 14 (10035200)
I0619 10:19:42.764705  2028 net.cpp:151] Top shape: 50 1024 14 14 (10035200)
I0619 10:19:42.764714  2028 net.cpp:159] Memory required for data: 10306150600
I0619 10:19:42.764720  2028 layer_factory.hpp:77] Creating layer res4e_branch2a
I0619 10:19:42.764742  2028 net.cpp:94] Creating Layer res4e_branch2a
I0619 10:19:42.764750  2028 net.cpp:435] res4e_branch2a <- res4d_res4d_relu_0_split_0
I0619 10:19:42.764762  2028 net.cpp:409] res4e_branch2a -> res4e_branch2a
I0619 10:19:42.790135  2028 net.cpp:144] Setting up res4e_branch2a
I0619 10:19:42.790163  2028 net.cpp:151] Top shape: 50 256 14 14 (2508800)
I0619 10:19:42.790179  2028 net.cpp:159] Memory required for data: 10316185800
I0619 10:19:42.790190  2028 layer_factory.hpp:77] Creating layer bn4e_branch2a
I0619 10:19:42.790201  2028 net.cpp:94] Creating Layer bn4e_branch2a
I0619 10:19:42.790206  2028 net.cpp:435] bn4e_branch2a <- res4e_branch2a
I0619 10:19:42.790215  2028 net.cpp:396] bn4e_branch2a -> res4e_branch2a (in-place)
I0619 10:19:42.791568  2028 net.cpp:144] Setting up bn4e_branch2a
I0619 10:19:42.791622  2028 net.cpp:151] Top shape: 50 256 14 14 (2508800)
I0619 10:19:42.791632  2028 net.cpp:159] Memory required for data: 10326221000
I0619 10:19:42.791654  2028 layer_factory.hpp:77] Creating layer scale4e_branch2a
I0619 10:19:42.791669  2028 net.cpp:94] Creating Layer scale4e_branch2a
I0619 10:19:42.791685  2028 net.cpp:435] scale4e_branch2a <- res4e_branch2a
I0619 10:19:42.791697  2028 net.cpp:396] scale4e_branch2a -> res4e_branch2a (in-place)
I0619 10:19:42.791816  2028 layer_factory.hpp:77] Creating layer scale4e_branch2a
I0619 10:19:42.792114  2028 net.cpp:144] Setting up scale4e_branch2a
I0619 10:19:42.792130  2028 net.cpp:151] Top shape: 50 256 14 14 (2508800)
I0619 10:19:42.792136  2028 net.cpp:159] Memory required for data: 10336256200
I0619 10:19:42.792148  2028 layer_factory.hpp:77] Creating layer res4e_branch2a_relu
I0619 10:19:42.792160  2028 net.cpp:94] Creating Layer res4e_branch2a_relu
I0619 10:19:42.792181  2028 net.cpp:435] res4e_branch2a_relu <- res4e_branch2a
I0619 10:19:42.792196  2028 net.cpp:396] res4e_branch2a_relu -> res4e_branch2a (in-place)
I0619 10:19:42.792212  2028 net.cpp:144] Setting up res4e_branch2a_relu
I0619 10:19:42.792222  2028 net.cpp:151] Top shape: 50 256 14 14 (2508800)
I0619 10:19:42.792228  2028 net.cpp:159] Memory required for data: 10346291400
I0619 10:19:42.792235  2028 layer_factory.hpp:77] Creating layer res4e_branch2b
I0619 10:19:42.792258  2028 net.cpp:94] Creating Layer res4e_branch2b
I0619 10:19:42.792264  2028 net.cpp:435] res4e_branch2b <- res4e_branch2a
I0619 10:19:42.792275  2028 net.cpp:409] res4e_branch2b -> res4e_branch2b
I0619 10:19:42.833071  2028 net.cpp:144] Setting up res4e_branch2b
I0619 10:19:42.833108  2028 net.cpp:151] Top shape: 50 256 14 14 (2508800)
I0619 10:19:42.833117  2028 net.cpp:159] Memory required for data: 10356326600
I0619 10:19:42.833129  2028 layer_factory.hpp:77] Creating layer bn4e_branch2b
I0619 10:19:42.833145  2028 net.cpp:94] Creating Layer bn4e_branch2b
I0619 10:19:42.833154  2028 net.cpp:435] bn4e_branch2b <- res4e_branch2b
I0619 10:19:42.833183  2028 net.cpp:396] bn4e_branch2b -> res4e_branch2b (in-place)
I0619 10:19:42.834548  2028 net.cpp:144] Setting up bn4e_branch2b
I0619 10:19:42.834578  2028 net.cpp:151] Top shape: 50 256 14 14 (2508800)
I0619 10:19:42.834585  2028 net.cpp:159] Memory required for data: 10366361800
I0619 10:19:42.834606  2028 layer_factory.hpp:77] Creating layer scale4e_branch2b
I0619 10:19:42.834621  2028 net.cpp:94] Creating Layer scale4e_branch2b
I0619 10:19:42.834635  2028 net.cpp:435] scale4e_branch2b <- res4e_branch2b
I0619 10:19:42.834645  2028 net.cpp:396] scale4e_branch2b -> res4e_branch2b (in-place)
I0619 10:19:42.834760  2028 layer_factory.hpp:77] Creating layer scale4e_branch2b
I0619 10:19:42.835054  2028 net.cpp:144] Setting up scale4e_branch2b
I0619 10:19:42.835074  2028 net.cpp:151] Top shape: 50 256 14 14 (2508800)
I0619 10:19:42.835080  2028 net.cpp:159] Memory required for data: 10376397000
I0619 10:19:42.835093  2028 layer_factory.hpp:77] Creating layer res4e_branch2b_relu
I0619 10:19:42.835104  2028 net.cpp:94] Creating Layer res4e_branch2b_relu
I0619 10:19:42.835113  2028 net.cpp:435] res4e_branch2b_relu <- res4e_branch2b
I0619 10:19:42.835122  2028 net.cpp:396] res4e_branch2b_relu -> res4e_branch2b (in-place)
I0619 10:19:42.835136  2028 net.cpp:144] Setting up res4e_branch2b_relu
I0619 10:19:42.835150  2028 net.cpp:151] Top shape: 50 256 14 14 (2508800)
I0619 10:19:42.835155  2028 net.cpp:159] Memory required for data: 10386432200
I0619 10:19:42.835162  2028 layer_factory.hpp:77] Creating layer res4e_branch2c
I0619 10:19:42.835196  2028 net.cpp:94] Creating Layer res4e_branch2c
I0619 10:19:42.835204  2028 net.cpp:435] res4e_branch2c <- res4e_branch2b
I0619 10:19:42.835222  2028 net.cpp:409] res4e_branch2c -> res4e_branch2c
I0619 10:19:42.854082  2028 net.cpp:144] Setting up res4e_branch2c
I0619 10:19:42.854116  2028 net.cpp:151] Top shape: 50 1024 14 14 (10035200)
I0619 10:19:42.854125  2028 net.cpp:159] Memory required for data: 10426573000
I0619 10:19:42.854183  2028 layer_factory.hpp:77] Creating layer bn4e_branch2c
I0619 10:19:42.854205  2028 net.cpp:94] Creating Layer bn4e_branch2c
I0619 10:19:42.854214  2028 net.cpp:435] bn4e_branch2c <- res4e_branch2c
I0619 10:19:42.854231  2028 net.cpp:396] bn4e_branch2c -> res4e_branch2c (in-place)
I0619 10:19:42.855625  2028 net.cpp:144] Setting up bn4e_branch2c
I0619 10:19:42.855650  2028 net.cpp:151] Top shape: 50 1024 14 14 (10035200)
I0619 10:19:42.855659  2028 net.cpp:159] Memory required for data: 10466713800
I0619 10:19:42.855679  2028 layer_factory.hpp:77] Creating layer scale4e_branch2c
I0619 10:19:42.855693  2028 net.cpp:94] Creating Layer scale4e_branch2c
I0619 10:19:42.855701  2028 net.cpp:435] scale4e_branch2c <- res4e_branch2c
I0619 10:19:42.855720  2028 net.cpp:396] scale4e_branch2c -> res4e_branch2c (in-place)
I0619 10:19:42.855828  2028 layer_factory.hpp:77] Creating layer scale4e_branch2c
I0619 10:19:42.856137  2028 net.cpp:144] Setting up scale4e_branch2c
I0619 10:19:42.856153  2028 net.cpp:151] Top shape: 50 1024 14 14 (10035200)
I0619 10:19:42.856159  2028 net.cpp:159] Memory required for data: 10506854600
I0619 10:19:42.856184  2028 layer_factory.hpp:77] Creating layer res4e
I0619 10:19:42.856196  2028 net.cpp:94] Creating Layer res4e
I0619 10:19:42.856204  2028 net.cpp:435] res4e <- res4d_res4d_relu_0_split_1
I0619 10:19:42.856215  2028 net.cpp:435] res4e <- res4e_branch2c
I0619 10:19:42.856232  2028 net.cpp:409] res4e -> res4e
I0619 10:19:42.856299  2028 net.cpp:144] Setting up res4e
I0619 10:19:42.856326  2028 net.cpp:151] Top shape: 50 1024 14 14 (10035200)
I0619 10:19:42.856336  2028 net.cpp:159] Memory required for data: 10546995400
I0619 10:19:42.856343  2028 layer_factory.hpp:77] Creating layer res4e_relu
I0619 10:19:42.856355  2028 net.cpp:94] Creating Layer res4e_relu
I0619 10:19:42.856365  2028 net.cpp:435] res4e_relu <- res4e
I0619 10:19:42.856374  2028 net.cpp:396] res4e_relu -> res4e (in-place)
I0619 10:19:42.856389  2028 net.cpp:144] Setting up res4e_relu
I0619 10:19:42.856403  2028 net.cpp:151] Top shape: 50 1024 14 14 (10035200)
I0619 10:19:42.856410  2028 net.cpp:159] Memory required for data: 10587136200
I0619 10:19:42.856416  2028 layer_factory.hpp:77] Creating layer res4e_res4e_relu_0_split
I0619 10:19:42.856429  2028 net.cpp:94] Creating Layer res4e_res4e_relu_0_split
I0619 10:19:42.856436  2028 net.cpp:435] res4e_res4e_relu_0_split <- res4e
I0619 10:19:42.856453  2028 net.cpp:409] res4e_res4e_relu_0_split -> res4e_res4e_relu_0_split_0
I0619 10:19:42.856467  2028 net.cpp:409] res4e_res4e_relu_0_split -> res4e_res4e_relu_0_split_1
I0619 10:19:42.856560  2028 net.cpp:144] Setting up res4e_res4e_relu_0_split
I0619 10:19:42.856575  2028 net.cpp:151] Top shape: 50 1024 14 14 (10035200)
I0619 10:19:42.856583  2028 net.cpp:151] Top shape: 50 1024 14 14 (10035200)
I0619 10:19:42.856592  2028 net.cpp:159] Memory required for data: 10667417800
I0619 10:19:42.856600  2028 layer_factory.hpp:77] Creating layer res4f_branch2a
I0619 10:19:42.856617  2028 net.cpp:94] Creating Layer res4f_branch2a
I0619 10:19:42.856627  2028 net.cpp:435] res4f_branch2a <- res4e_res4e_relu_0_split_0
I0619 10:19:42.856639  2028 net.cpp:409] res4f_branch2a -> res4f_branch2a
I0619 10:19:42.882218  2028 net.cpp:144] Setting up res4f_branch2a
I0619 10:19:42.882253  2028 net.cpp:151] Top shape: 50 256 14 14 (2508800)
I0619 10:19:42.882262  2028 net.cpp:159] Memory required for data: 10677453000
I0619 10:19:42.882275  2028 layer_factory.hpp:77] Creating layer bn4f_branch2a
I0619 10:19:42.882292  2028 net.cpp:94] Creating Layer bn4f_branch2a
I0619 10:19:42.882300  2028 net.cpp:435] bn4f_branch2a <- res4f_branch2a
I0619 10:19:42.882319  2028 net.cpp:396] bn4f_branch2a -> res4f_branch2a (in-place)
I0619 10:19:42.883728  2028 net.cpp:144] Setting up bn4f_branch2a
I0619 10:19:42.883754  2028 net.cpp:151] Top shape: 50 256 14 14 (2508800)
I0619 10:19:42.883760  2028 net.cpp:159] Memory required for data: 10687488200
I0619 10:19:42.883781  2028 layer_factory.hpp:77] Creating layer scale4f_branch2a
I0619 10:19:42.883795  2028 net.cpp:94] Creating Layer scale4f_branch2a
I0619 10:19:42.883837  2028 net.cpp:435] scale4f_branch2a <- res4f_branch2a
I0619 10:19:42.883857  2028 net.cpp:396] scale4f_branch2a -> res4f_branch2a (in-place)
I0619 10:19:42.883986  2028 layer_factory.hpp:77] Creating layer scale4f_branch2a
I0619 10:19:42.884307  2028 net.cpp:144] Setting up scale4f_branch2a
I0619 10:19:42.884326  2028 net.cpp:151] Top shape: 50 256 14 14 (2508800)
I0619 10:19:42.884333  2028 net.cpp:159] Memory required for data: 10697523400
I0619 10:19:42.884346  2028 layer_factory.hpp:77] Creating layer res4f_branch2a_relu
I0619 10:19:42.884358  2028 net.cpp:94] Creating Layer res4f_branch2a_relu
I0619 10:19:42.884366  2028 net.cpp:435] res4f_branch2a_relu <- res4f_branch2a
I0619 10:19:42.884376  2028 net.cpp:396] res4f_branch2a_relu -> res4f_branch2a (in-place)
I0619 10:19:42.884390  2028 net.cpp:144] Setting up res4f_branch2a_relu
I0619 10:19:42.884400  2028 net.cpp:151] Top shape: 50 256 14 14 (2508800)
I0619 10:19:42.884407  2028 net.cpp:159] Memory required for data: 10707558600
I0619 10:19:42.884413  2028 layer_factory.hpp:77] Creating layer res4f_branch2b
I0619 10:19:42.884438  2028 net.cpp:94] Creating Layer res4f_branch2b
I0619 10:19:42.884445  2028 net.cpp:435] res4f_branch2b <- res4f_branch2a
I0619 10:19:42.884457  2028 net.cpp:409] res4f_branch2b -> res4f_branch2b
I0619 10:19:42.925042  2028 net.cpp:144] Setting up res4f_branch2b
I0619 10:19:42.925079  2028 net.cpp:151] Top shape: 50 256 14 14 (2508800)
I0619 10:19:42.925088  2028 net.cpp:159] Memory required for data: 10717593800
I0619 10:19:42.925102  2028 layer_factory.hpp:77] Creating layer bn4f_branch2b
I0619 10:19:42.925122  2028 net.cpp:94] Creating Layer bn4f_branch2b
I0619 10:19:42.925132  2028 net.cpp:435] bn4f_branch2b <- res4f_branch2b
I0619 10:19:42.925148  2028 net.cpp:396] bn4f_branch2b -> res4f_branch2b (in-place)
I0619 10:19:42.926551  2028 net.cpp:144] Setting up bn4f_branch2b
I0619 10:19:42.926576  2028 net.cpp:151] Top shape: 50 256 14 14 (2508800)
I0619 10:19:42.926584  2028 net.cpp:159] Memory required for data: 10727629000
I0619 10:19:42.926604  2028 layer_factory.hpp:77] Creating layer scale4f_branch2b
I0619 10:19:42.926630  2028 net.cpp:94] Creating Layer scale4f_branch2b
I0619 10:19:42.926637  2028 net.cpp:435] scale4f_branch2b <- res4f_branch2b
I0619 10:19:42.926656  2028 net.cpp:396] scale4f_branch2b -> res4f_branch2b (in-place)
I0619 10:19:42.926772  2028 layer_factory.hpp:77] Creating layer scale4f_branch2b
I0619 10:19:42.927064  2028 net.cpp:144] Setting up scale4f_branch2b
I0619 10:19:42.927081  2028 net.cpp:151] Top shape: 50 256 14 14 (2508800)
I0619 10:19:42.927088  2028 net.cpp:159] Memory required for data: 10737664200
I0619 10:19:42.927099  2028 layer_factory.hpp:77] Creating layer res4f_branch2b_relu
I0619 10:19:42.927115  2028 net.cpp:94] Creating Layer res4f_branch2b_relu
I0619 10:19:42.927124  2028 net.cpp:435] res4f_branch2b_relu <- res4f_branch2b
I0619 10:19:42.927132  2028 net.cpp:396] res4f_branch2b_relu -> res4f_branch2b (in-place)
I0619 10:19:42.927146  2028 net.cpp:144] Setting up res4f_branch2b_relu
I0619 10:19:42.927160  2028 net.cpp:151] Top shape: 50 256 14 14 (2508800)
I0619 10:19:42.927189  2028 net.cpp:159] Memory required for data: 10747699400
I0619 10:19:42.927198  2028 layer_factory.hpp:77] Creating layer res4f_branch2c
I0619 10:19:42.927230  2028 net.cpp:94] Creating Layer res4f_branch2c
I0619 10:19:42.927238  2028 net.cpp:435] res4f_branch2c <- res4f_branch2b
I0619 10:19:42.927261  2028 net.cpp:409] res4f_branch2c -> res4f_branch2c
I0619 10:19:42.946245  2028 net.cpp:144] Setting up res4f_branch2c
I0619 10:19:42.946280  2028 net.cpp:151] Top shape: 50 1024 14 14 (10035200)
I0619 10:19:42.946288  2028 net.cpp:159] Memory required for data: 10787840200
I0619 10:19:42.946301  2028 layer_factory.hpp:77] Creating layer bn4f_branch2c
I0619 10:19:42.946316  2028 net.cpp:94] Creating Layer bn4f_branch2c
I0619 10:19:42.946326  2028 net.cpp:435] bn4f_branch2c <- res4f_branch2c
I0619 10:19:42.946337  2028 net.cpp:396] bn4f_branch2c -> res4f_branch2c (in-place)
I0619 10:19:42.947814  2028 net.cpp:144] Setting up bn4f_branch2c
I0619 10:19:42.947840  2028 net.cpp:151] Top shape: 50 1024 14 14 (10035200)
I0619 10:19:42.947847  2028 net.cpp:159] Memory required for data: 10827981000
I0619 10:19:42.947870  2028 layer_factory.hpp:77] Creating layer scale4f_branch2c
I0619 10:19:42.947890  2028 net.cpp:94] Creating Layer scale4f_branch2c
I0619 10:19:42.947899  2028 net.cpp:435] scale4f_branch2c <- res4f_branch2c
I0619 10:19:42.947911  2028 net.cpp:396] scale4f_branch2c -> res4f_branch2c (in-place)
I0619 10:19:42.948019  2028 layer_factory.hpp:77] Creating layer scale4f_branch2c
I0619 10:19:42.948356  2028 net.cpp:144] Setting up scale4f_branch2c
I0619 10:19:42.948374  2028 net.cpp:151] Top shape: 50 1024 14 14 (10035200)
I0619 10:19:42.948380  2028 net.cpp:159] Memory required for data: 10868121800
I0619 10:19:42.948393  2028 layer_factory.hpp:77] Creating layer res4f
I0619 10:19:42.948405  2028 net.cpp:94] Creating Layer res4f
I0619 10:19:42.948413  2028 net.cpp:435] res4f <- res4e_res4e_relu_0_split_1
I0619 10:19:42.948423  2028 net.cpp:435] res4f <- res4f_branch2c
I0619 10:19:42.948437  2028 net.cpp:409] res4f -> res4f
I0619 10:19:42.948506  2028 net.cpp:144] Setting up res4f
I0619 10:19:42.948523  2028 net.cpp:151] Top shape: 50 1024 14 14 (10035200)
I0619 10:19:42.948529  2028 net.cpp:159] Memory required for data: 10908262600
I0619 10:19:42.948539  2028 layer_factory.hpp:77] Creating layer res4f_relu
I0619 10:19:42.948555  2028 net.cpp:94] Creating Layer res4f_relu
I0619 10:19:42.948565  2028 net.cpp:435] res4f_relu <- res4f
I0619 10:19:42.948573  2028 net.cpp:396] res4f_relu -> res4f (in-place)
I0619 10:19:42.948595  2028 net.cpp:144] Setting up res4f_relu
I0619 10:19:42.948604  2028 net.cpp:151] Top shape: 50 1024 14 14 (10035200)
I0619 10:19:42.948611  2028 net.cpp:159] Memory required for data: 10948403400
I0619 10:19:42.948616  2028 layer_factory.hpp:77] Creating layer res4f_res4f_relu_0_split
I0619 10:19:42.948632  2028 net.cpp:94] Creating Layer res4f_res4f_relu_0_split
I0619 10:19:42.948639  2028 net.cpp:435] res4f_res4f_relu_0_split <- res4f
I0619 10:19:42.948649  2028 net.cpp:409] res4f_res4f_relu_0_split -> res4f_res4f_relu_0_split_0
I0619 10:19:42.948662  2028 net.cpp:409] res4f_res4f_relu_0_split -> res4f_res4f_relu_0_split_1
I0619 10:19:42.948761  2028 net.cpp:144] Setting up res4f_res4f_relu_0_split
I0619 10:19:42.948776  2028 net.cpp:151] Top shape: 50 1024 14 14 (10035200)
I0619 10:19:42.948784  2028 net.cpp:151] Top shape: 50 1024 14 14 (10035200)
I0619 10:19:42.948793  2028 net.cpp:159] Memory required for data: 11028685000
I0619 10:19:42.948801  2028 layer_factory.hpp:77] Creating layer res5a_branch1
I0619 10:19:42.948822  2028 net.cpp:94] Creating Layer res5a_branch1
I0619 10:19:42.948832  2028 net.cpp:435] res5a_branch1 <- res4f_res4f_relu_0_split_0
I0619 10:19:42.948844  2028 net.cpp:409] res5a_branch1 -> res5a_branch1
I0619 10:19:43.009330  2028 net.cpp:144] Setting up res5a_branch1
I0619 10:19:43.009368  2028 net.cpp:151] Top shape: 50 2048 7 7 (5017600)
I0619 10:19:43.009377  2028 net.cpp:159] Memory required for data: 11048755400
I0619 10:19:43.009390  2028 layer_factory.hpp:77] Creating layer bn5a_branch1
I0619 10:19:43.009412  2028 net.cpp:94] Creating Layer bn5a_branch1
I0619 10:19:43.009424  2028 net.cpp:435] bn5a_branch1 <- res5a_branch1
I0619 10:19:43.009438  2028 net.cpp:396] bn5a_branch1 -> res5a_branch1 (in-place)
I0619 10:19:43.010926  2028 net.cpp:144] Setting up bn5a_branch1
I0619 10:19:43.010952  2028 net.cpp:151] Top shape: 50 2048 7 7 (5017600)
I0619 10:19:43.010960  2028 net.cpp:159] Memory required for data: 11068825800
I0619 10:19:43.010983  2028 layer_factory.hpp:77] Creating layer scale5a_branch1
I0619 10:19:43.011001  2028 net.cpp:94] Creating Layer scale5a_branch1
I0619 10:19:43.011009  2028 net.cpp:435] scale5a_branch1 <- res5a_branch1
I0619 10:19:43.011020  2028 net.cpp:396] scale5a_branch1 -> res5a_branch1 (in-place)
I0619 10:19:43.011140  2028 layer_factory.hpp:77] Creating layer scale5a_branch1
I0619 10:19:43.011524  2028 net.cpp:144] Setting up scale5a_branch1
I0619 10:19:43.011544  2028 net.cpp:151] Top shape: 50 2048 7 7 (5017600)
I0619 10:19:43.011551  2028 net.cpp:159] Memory required for data: 11088896200
I0619 10:19:43.011564  2028 layer_factory.hpp:77] Creating layer res5a_branch2a
I0619 10:19:43.011586  2028 net.cpp:94] Creating Layer res5a_branch2a
I0619 10:19:43.011596  2028 net.cpp:435] res5a_branch2a <- res4f_res4f_relu_0_split_1
I0619 10:19:43.011613  2028 net.cpp:409] res5a_branch2a -> res5a_branch2a
I0619 10:19:43.037703  2028 net.cpp:144] Setting up res5a_branch2a
I0619 10:19:43.037739  2028 net.cpp:151] Top shape: 50 512 7 7 (1254400)
I0619 10:19:43.037746  2028 net.cpp:159] Memory required for data: 11093913800
I0619 10:19:43.037760  2028 layer_factory.hpp:77] Creating layer bn5a_branch2a
I0619 10:19:43.037778  2028 net.cpp:94] Creating Layer bn5a_branch2a
I0619 10:19:43.037787  2028 net.cpp:435] bn5a_branch2a <- res5a_branch2a
I0619 10:19:43.037798  2028 net.cpp:396] bn5a_branch2a -> res5a_branch2a (in-place)
I0619 10:19:43.039127  2028 net.cpp:144] Setting up bn5a_branch2a
I0619 10:19:43.039150  2028 net.cpp:151] Top shape: 50 512 7 7 (1254400)
I0619 10:19:43.039156  2028 net.cpp:159] Memory required for data: 11098931400
I0619 10:19:43.039187  2028 layer_factory.hpp:77] Creating layer scale5a_branch2a
I0619 10:19:43.039214  2028 net.cpp:94] Creating Layer scale5a_branch2a
I0619 10:19:43.039225  2028 net.cpp:435] scale5a_branch2a <- res5a_branch2a
I0619 10:19:43.039235  2028 net.cpp:396] scale5a_branch2a -> res5a_branch2a (in-place)
I0619 10:19:43.039348  2028 layer_factory.hpp:77] Creating layer scale5a_branch2a
I0619 10:19:43.039651  2028 net.cpp:144] Setting up scale5a_branch2a
I0619 10:19:43.039667  2028 net.cpp:151] Top shape: 50 512 7 7 (1254400)
I0619 10:19:43.039674  2028 net.cpp:159] Memory required for data: 11103949000
I0619 10:19:43.039685  2028 layer_factory.hpp:77] Creating layer res5a_branch2a_relu
I0619 10:19:43.039700  2028 net.cpp:94] Creating Layer res5a_branch2a_relu
I0619 10:19:43.039707  2028 net.cpp:435] res5a_branch2a_relu <- res5a_branch2a
I0619 10:19:43.039717  2028 net.cpp:396] res5a_branch2a_relu -> res5a_branch2a (in-place)
I0619 10:19:43.039731  2028 net.cpp:144] Setting up res5a_branch2a_relu
I0619 10:19:43.039741  2028 net.cpp:151] Top shape: 50 512 7 7 (1254400)
I0619 10:19:43.039749  2028 net.cpp:159] Memory required for data: 11108966600
I0619 10:19:43.039755  2028 layer_factory.hpp:77] Creating layer res5a_branch2b
I0619 10:19:43.039777  2028 net.cpp:94] Creating Layer res5a_branch2b
I0619 10:19:43.039783  2028 net.cpp:435] res5a_branch2b <- res5a_branch2a
I0619 10:19:43.039798  2028 net.cpp:409] res5a_branch2b -> res5a_branch2b
I0619 10:19:43.104571  2028 net.cpp:144] Setting up res5a_branch2b
I0619 10:19:43.104605  2028 net.cpp:151] Top shape: 50 512 7 7 (1254400)
I0619 10:19:43.104612  2028 net.cpp:159] Memory required for data: 11113984200
I0619 10:19:43.104624  2028 layer_factory.hpp:77] Creating layer bn5a_branch2b
I0619 10:19:43.104637  2028 net.cpp:94] Creating Layer bn5a_branch2b
I0619 10:19:43.104645  2028 net.cpp:435] bn5a_branch2b <- res5a_branch2b
I0619 10:19:43.104655  2028 net.cpp:396] bn5a_branch2b -> res5a_branch2b (in-place)
I0619 10:19:43.105850  2028 net.cpp:144] Setting up bn5a_branch2b
I0619 10:19:43.105872  2028 net.cpp:151] Top shape: 50 512 7 7 (1254400)
I0619 10:19:43.105878  2028 net.cpp:159] Memory required for data: 11119001800
I0619 10:19:43.105896  2028 layer_factory.hpp:77] Creating layer scale5a_branch2b
I0619 10:19:43.105912  2028 net.cpp:94] Creating Layer scale5a_branch2b
I0619 10:19:43.105919  2028 net.cpp:435] scale5a_branch2b <- res5a_branch2b
I0619 10:19:43.105928  2028 net.cpp:396] scale5a_branch2b -> res5a_branch2b (in-place)
I0619 10:19:43.106026  2028 layer_factory.hpp:77] Creating layer scale5a_branch2b
I0619 10:19:43.106312  2028 net.cpp:144] Setting up scale5a_branch2b
I0619 10:19:43.106328  2028 net.cpp:151] Top shape: 50 512 7 7 (1254400)
I0619 10:19:43.106333  2028 net.cpp:159] Memory required for data: 11124019400
I0619 10:19:43.106370  2028 layer_factory.hpp:77] Creating layer res5a_branch2b_relu
I0619 10:19:43.106382  2028 net.cpp:94] Creating Layer res5a_branch2b_relu
I0619 10:19:43.106389  2028 net.cpp:435] res5a_branch2b_relu <- res5a_branch2b
I0619 10:19:43.106402  2028 net.cpp:396] res5a_branch2b_relu -> res5a_branch2b (in-place)
I0619 10:19:43.106415  2028 net.cpp:144] Setting up res5a_branch2b_relu
I0619 10:19:43.106426  2028 net.cpp:151] Top shape: 50 512 7 7 (1254400)
I0619 10:19:43.106431  2028 net.cpp:159] Memory required for data: 11129037000
I0619 10:19:43.106436  2028 layer_factory.hpp:77] Creating layer res5a_branch2c
I0619 10:19:43.106454  2028 net.cpp:94] Creating Layer res5a_branch2c
I0619 10:19:43.106461  2028 net.cpp:435] res5a_branch2c <- res5a_branch2b
I0619 10:19:43.106470  2028 net.cpp:409] res5a_branch2c -> res5a_branch2c
I0619 10:19:43.135624  2028 net.cpp:144] Setting up res5a_branch2c
I0619 10:19:43.135661  2028 net.cpp:151] Top shape: 50 2048 7 7 (5017600)
I0619 10:19:43.135670  2028 net.cpp:159] Memory required for data: 11149107400
I0619 10:19:43.135685  2028 layer_factory.hpp:77] Creating layer bn5a_branch2c
I0619 10:19:43.135704  2028 net.cpp:94] Creating Layer bn5a_branch2c
I0619 10:19:43.135713  2028 net.cpp:435] bn5a_branch2c <- res5a_branch2c
I0619 10:19:43.135725  2028 net.cpp:396] bn5a_branch2c -> res5a_branch2c (in-place)
I0619 10:19:43.137140  2028 net.cpp:144] Setting up bn5a_branch2c
I0619 10:19:43.137162  2028 net.cpp:151] Top shape: 50 2048 7 7 (5017600)
I0619 10:19:43.137179  2028 net.cpp:159] Memory required for data: 11169177800
I0619 10:19:43.137200  2028 layer_factory.hpp:77] Creating layer scale5a_branch2c
I0619 10:19:43.137217  2028 net.cpp:94] Creating Layer scale5a_branch2c
I0619 10:19:43.137229  2028 net.cpp:435] scale5a_branch2c <- res5a_branch2c
I0619 10:19:43.137239  2028 net.cpp:396] scale5a_branch2c -> res5a_branch2c (in-place)
I0619 10:19:43.137352  2028 layer_factory.hpp:77] Creating layer scale5a_branch2c
I0619 10:19:43.137671  2028 net.cpp:144] Setting up scale5a_branch2c
I0619 10:19:43.137689  2028 net.cpp:151] Top shape: 50 2048 7 7 (5017600)
I0619 10:19:43.137696  2028 net.cpp:159] Memory required for data: 11189248200
I0619 10:19:43.137706  2028 layer_factory.hpp:77] Creating layer res5a
I0619 10:19:43.137718  2028 net.cpp:94] Creating Layer res5a
I0619 10:19:43.137725  2028 net.cpp:435] res5a <- res5a_branch1
I0619 10:19:43.137734  2028 net.cpp:435] res5a <- res5a_branch2c
I0619 10:19:43.137748  2028 net.cpp:409] res5a -> res5a
I0619 10:19:43.137810  2028 net.cpp:144] Setting up res5a
I0619 10:19:43.137825  2028 net.cpp:151] Top shape: 50 2048 7 7 (5017600)
I0619 10:19:43.137830  2028 net.cpp:159] Memory required for data: 11209318600
I0619 10:19:43.137836  2028 layer_factory.hpp:77] Creating layer res5a_relu
I0619 10:19:43.137851  2028 net.cpp:94] Creating Layer res5a_relu
I0619 10:19:43.137858  2028 net.cpp:435] res5a_relu <- res5a
I0619 10:19:43.137871  2028 net.cpp:396] res5a_relu -> res5a (in-place)
I0619 10:19:43.137884  2028 net.cpp:144] Setting up res5a_relu
I0619 10:19:43.137893  2028 net.cpp:151] Top shape: 50 2048 7 7 (5017600)
I0619 10:19:43.137898  2028 net.cpp:159] Memory required for data: 11229389000
I0619 10:19:43.137905  2028 layer_factory.hpp:77] Creating layer res5a_res5a_relu_0_split
I0619 10:19:43.137914  2028 net.cpp:94] Creating Layer res5a_res5a_relu_0_split
I0619 10:19:43.137924  2028 net.cpp:435] res5a_res5a_relu_0_split <- res5a
I0619 10:19:43.137934  2028 net.cpp:409] res5a_res5a_relu_0_split -> res5a_res5a_relu_0_split_0
I0619 10:19:43.137944  2028 net.cpp:409] res5a_res5a_relu_0_split -> res5a_res5a_relu_0_split_1
I0619 10:19:43.138041  2028 net.cpp:144] Setting up res5a_res5a_relu_0_split
I0619 10:19:43.138053  2028 net.cpp:151] Top shape: 50 2048 7 7 (5017600)
I0619 10:19:43.138062  2028 net.cpp:151] Top shape: 50 2048 7 7 (5017600)
I0619 10:19:43.138072  2028 net.cpp:159] Memory required for data: 11269529800
I0619 10:19:43.138077  2028 layer_factory.hpp:77] Creating layer res5b_branch2a
I0619 10:19:43.138098  2028 net.cpp:94] Creating Layer res5b_branch2a
I0619 10:19:43.138134  2028 net.cpp:435] res5b_branch2a <- res5a_res5a_relu_0_split_0
I0619 10:19:43.138149  2028 net.cpp:409] res5b_branch2a -> res5b_branch2a
I0619 10:19:43.175590  2028 net.cpp:144] Setting up res5b_branch2a
I0619 10:19:43.175616  2028 net.cpp:151] Top shape: 50 512 7 7 (1254400)
I0619 10:19:43.175621  2028 net.cpp:159] Memory required for data: 11274547400
I0619 10:19:43.175629  2028 layer_factory.hpp:77] Creating layer bn5b_branch2a
I0619 10:19:43.175659  2028 net.cpp:94] Creating Layer bn5b_branch2a
I0619 10:19:43.175668  2028 net.cpp:435] bn5b_branch2a <- res5b_branch2a
I0619 10:19:43.175683  2028 net.cpp:396] bn5b_branch2a -> res5b_branch2a (in-place)
I0619 10:19:43.177052  2028 net.cpp:144] Setting up bn5b_branch2a
I0619 10:19:43.177073  2028 net.cpp:151] Top shape: 50 512 7 7 (1254400)
I0619 10:19:43.177080  2028 net.cpp:159] Memory required for data: 11279565000
I0619 10:19:43.177099  2028 layer_factory.hpp:77] Creating layer scale5b_branch2a
I0619 10:19:43.177114  2028 net.cpp:94] Creating Layer scale5b_branch2a
I0619 10:19:43.177120  2028 net.cpp:435] scale5b_branch2a <- res5b_branch2a
I0619 10:19:43.177140  2028 net.cpp:396] scale5b_branch2a -> res5b_branch2a (in-place)
I0619 10:19:43.177263  2028 layer_factory.hpp:77] Creating layer scale5b_branch2a
I0619 10:19:43.177569  2028 net.cpp:144] Setting up scale5b_branch2a
I0619 10:19:43.177588  2028 net.cpp:151] Top shape: 50 512 7 7 (1254400)
I0619 10:19:43.177593  2028 net.cpp:159] Memory required for data: 11284582600
I0619 10:19:43.177605  2028 layer_factory.hpp:77] Creating layer res5b_branch2a_relu
I0619 10:19:43.177618  2028 net.cpp:94] Creating Layer res5b_branch2a_relu
I0619 10:19:43.177624  2028 net.cpp:435] res5b_branch2a_relu <- res5b_branch2a
I0619 10:19:43.177634  2028 net.cpp:396] res5b_branch2a_relu -> res5b_branch2a (in-place)
I0619 10:19:43.177649  2028 net.cpp:144] Setting up res5b_branch2a_relu
I0619 10:19:43.177659  2028 net.cpp:151] Top shape: 50 512 7 7 (1254400)
I0619 10:19:43.177664  2028 net.cpp:159] Memory required for data: 11289600200
I0619 10:19:43.177671  2028 layer_factory.hpp:77] Creating layer res5b_branch2b
I0619 10:19:43.177691  2028 net.cpp:94] Creating Layer res5b_branch2b
I0619 10:19:43.177698  2028 net.cpp:435] res5b_branch2b <- res5b_branch2a
I0619 10:19:43.177718  2028 net.cpp:409] res5b_branch2b -> res5b_branch2b
I0619 10:19:43.245193  2028 net.cpp:144] Setting up res5b_branch2b
I0619 10:19:43.245229  2028 net.cpp:151] Top shape: 50 512 7 7 (1254400)
I0619 10:19:43.245235  2028 net.cpp:159] Memory required for data: 11294617800
I0619 10:19:43.245247  2028 layer_factory.hpp:77] Creating layer bn5b_branch2b
I0619 10:19:43.245280  2028 net.cpp:94] Creating Layer bn5b_branch2b
I0619 10:19:43.245292  2028 net.cpp:435] bn5b_branch2b <- res5b_branch2b
I0619 10:19:43.245302  2028 net.cpp:396] bn5b_branch2b -> res5b_branch2b (in-place)
I0619 10:19:43.246548  2028 net.cpp:144] Setting up bn5b_branch2b
I0619 10:19:43.246570  2028 net.cpp:151] Top shape: 50 512 7 7 (1254400)
I0619 10:19:43.246577  2028 net.cpp:159] Memory required for data: 11299635400
I0619 10:19:43.246594  2028 layer_factory.hpp:77] Creating layer scale5b_branch2b
I0619 10:19:43.246609  2028 net.cpp:94] Creating Layer scale5b_branch2b
I0619 10:19:43.246616  2028 net.cpp:435] scale5b_branch2b <- res5b_branch2b
I0619 10:19:43.246628  2028 net.cpp:396] scale5b_branch2b -> res5b_branch2b (in-place)
I0619 10:19:43.246729  2028 layer_factory.hpp:77] Creating layer scale5b_branch2b
I0619 10:19:43.247010  2028 net.cpp:144] Setting up scale5b_branch2b
I0619 10:19:43.247025  2028 net.cpp:151] Top shape: 50 512 7 7 (1254400)
I0619 10:19:43.247030  2028 net.cpp:159] Memory required for data: 11304653000
I0619 10:19:43.247040  2028 layer_factory.hpp:77] Creating layer res5b_branch2b_relu
I0619 10:19:43.247054  2028 net.cpp:94] Creating Layer res5b_branch2b_relu
I0619 10:19:43.247061  2028 net.cpp:435] res5b_branch2b_relu <- res5b_branch2b
I0619 10:19:43.247069  2028 net.cpp:396] res5b_branch2b_relu -> res5b_branch2b (in-place)
I0619 10:19:43.247108  2028 net.cpp:144] Setting up res5b_branch2b_relu
I0619 10:19:43.247124  2028 net.cpp:151] Top shape: 50 512 7 7 (1254400)
I0619 10:19:43.247130  2028 net.cpp:159] Memory required for data: 11309670600
I0619 10:19:43.247135  2028 layer_factory.hpp:77] Creating layer res5b_branch2c
I0619 10:19:43.247150  2028 net.cpp:94] Creating Layer res5b_branch2c
I0619 10:19:43.247156  2028 net.cpp:435] res5b_branch2c <- res5b_branch2b
I0619 10:19:43.247551  2028 net.cpp:409] res5b_branch2c -> res5b_branch2c
I0619 10:19:43.276240  2028 net.cpp:144] Setting up res5b_branch2c
I0619 10:19:43.276278  2028 net.cpp:151] Top shape: 50 2048 7 7 (5017600)
I0619 10:19:43.276288  2028 net.cpp:159] Memory required for data: 11329741000
I0619 10:19:43.276300  2028 layer_factory.hpp:77] Creating layer bn5b_branch2c
I0619 10:19:43.276316  2028 net.cpp:94] Creating Layer bn5b_branch2c
I0619 10:19:43.276325  2028 net.cpp:435] bn5b_branch2c <- res5b_branch2c
I0619 10:19:43.276340  2028 net.cpp:396] bn5b_branch2c -> res5b_branch2c (in-place)
I0619 10:19:43.277781  2028 net.cpp:144] Setting up bn5b_branch2c
I0619 10:19:43.277806  2028 net.cpp:151] Top shape: 50 2048 7 7 (5017600)
I0619 10:19:43.277813  2028 net.cpp:159] Memory required for data: 11349811400
I0619 10:19:43.277832  2028 layer_factory.hpp:77] Creating layer scale5b_branch2c
I0619 10:19:43.277845  2028 net.cpp:94] Creating Layer scale5b_branch2c
I0619 10:19:43.277853  2028 net.cpp:435] scale5b_branch2c <- res5b_branch2c
I0619 10:19:43.277863  2028 net.cpp:396] scale5b_branch2c -> res5b_branch2c (in-place)
I0619 10:19:43.277981  2028 layer_factory.hpp:77] Creating layer scale5b_branch2c
I0619 10:19:43.278317  2028 net.cpp:144] Setting up scale5b_branch2c
I0619 10:19:43.278338  2028 net.cpp:151] Top shape: 50 2048 7 7 (5017600)
I0619 10:19:43.278344  2028 net.cpp:159] Memory required for data: 11369881800
I0619 10:19:43.278357  2028 layer_factory.hpp:77] Creating layer res5b
I0619 10:19:43.278374  2028 net.cpp:94] Creating Layer res5b
I0619 10:19:43.278383  2028 net.cpp:435] res5b <- res5a_res5a_relu_0_split_1
I0619 10:19:43.278391  2028 net.cpp:435] res5b <- res5b_branch2c
I0619 10:19:43.278400  2028 net.cpp:409] res5b -> res5b
I0619 10:19:43.278478  2028 net.cpp:144] Setting up res5b
I0619 10:19:43.278493  2028 net.cpp:151] Top shape: 50 2048 7 7 (5017600)
I0619 10:19:43.278501  2028 net.cpp:159] Memory required for data: 11389952200
I0619 10:19:43.278506  2028 layer_factory.hpp:77] Creating layer res5b_relu
I0619 10:19:43.278522  2028 net.cpp:94] Creating Layer res5b_relu
I0619 10:19:43.278529  2028 net.cpp:435] res5b_relu <- res5b
I0619 10:19:43.278537  2028 net.cpp:396] res5b_relu -> res5b (in-place)
I0619 10:19:43.278551  2028 net.cpp:144] Setting up res5b_relu
I0619 10:19:43.278560  2028 net.cpp:151] Top shape: 50 2048 7 7 (5017600)
I0619 10:19:43.278565  2028 net.cpp:159] Memory required for data: 11410022600
I0619 10:19:43.278571  2028 layer_factory.hpp:77] Creating layer res5b_res5b_relu_0_split
I0619 10:19:43.278583  2028 net.cpp:94] Creating Layer res5b_res5b_relu_0_split
I0619 10:19:43.278589  2028 net.cpp:435] res5b_res5b_relu_0_split <- res5b
I0619 10:19:43.278601  2028 net.cpp:409] res5b_res5b_relu_0_split -> res5b_res5b_relu_0_split_0
I0619 10:19:43.278612  2028 net.cpp:409] res5b_res5b_relu_0_split -> res5b_res5b_relu_0_split_1
I0619 10:19:43.278707  2028 net.cpp:144] Setting up res5b_res5b_relu_0_split
I0619 10:19:43.278718  2028 net.cpp:151] Top shape: 50 2048 7 7 (5017600)
I0619 10:19:43.278726  2028 net.cpp:151] Top shape: 50 2048 7 7 (5017600)
I0619 10:19:43.278733  2028 net.cpp:159] Memory required for data: 11450163400
I0619 10:19:43.278738  2028 layer_factory.hpp:77] Creating layer res5c_branch2a
I0619 10:19:43.278759  2028 net.cpp:94] Creating Layer res5c_branch2a
I0619 10:19:43.278770  2028 net.cpp:435] res5c_branch2a <- res5b_res5b_relu_0_split_0
I0619 10:19:43.278781  2028 net.cpp:409] res5c_branch2a -> res5c_branch2a
I0619 10:19:43.311643  2028 net.cpp:144] Setting up res5c_branch2a
I0619 10:19:43.311681  2028 net.cpp:151] Top shape: 50 512 7 7 (1254400)
I0619 10:19:43.311730  2028 net.cpp:159] Memory required for data: 11455181000
I0619 10:19:43.311743  2028 layer_factory.hpp:77] Creating layer bn5c_branch2a
I0619 10:19:43.311756  2028 net.cpp:94] Creating Layer bn5c_branch2a
I0619 10:19:43.311764  2028 net.cpp:435] bn5c_branch2a <- res5c_branch2a
I0619 10:19:43.311776  2028 net.cpp:396] bn5c_branch2a -> res5c_branch2a (in-place)
I0619 10:19:43.313020  2028 net.cpp:144] Setting up bn5c_branch2a
I0619 10:19:43.313045  2028 net.cpp:151] Top shape: 50 512 7 7 (1254400)
I0619 10:19:43.313051  2028 net.cpp:159] Memory required for data: 11460198600
I0619 10:19:43.313071  2028 layer_factory.hpp:77] Creating layer scale5c_branch2a
I0619 10:19:43.313088  2028 net.cpp:94] Creating Layer scale5c_branch2a
I0619 10:19:43.313097  2028 net.cpp:435] scale5c_branch2a <- res5c_branch2a
I0619 10:19:43.313107  2028 net.cpp:396] scale5c_branch2a -> res5c_branch2a (in-place)
I0619 10:19:43.313227  2028 layer_factory.hpp:77] Creating layer scale5c_branch2a
I0619 10:19:43.313545  2028 net.cpp:144] Setting up scale5c_branch2a
I0619 10:19:43.313560  2028 net.cpp:151] Top shape: 50 512 7 7 (1254400)
I0619 10:19:43.313566  2028 net.cpp:159] Memory required for data: 11465216200
I0619 10:19:43.313578  2028 layer_factory.hpp:77] Creating layer res5c_branch2a_relu
I0619 10:19:43.313590  2028 net.cpp:94] Creating Layer res5c_branch2a_relu
I0619 10:19:43.313597  2028 net.cpp:435] res5c_branch2a_relu <- res5c_branch2a
I0619 10:19:43.313609  2028 net.cpp:396] res5c_branch2a_relu -> res5c_branch2a (in-place)
I0619 10:19:43.313623  2028 net.cpp:144] Setting up res5c_branch2a_relu
I0619 10:19:43.313632  2028 net.cpp:151] Top shape: 50 512 7 7 (1254400)
I0619 10:19:43.313638  2028 net.cpp:159] Memory required for data: 11470233800
I0619 10:19:43.313644  2028 layer_factory.hpp:77] Creating layer res5c_branch2b
I0619 10:19:43.313665  2028 net.cpp:94] Creating Layer res5c_branch2b
I0619 10:19:43.313673  2028 net.cpp:435] res5c_branch2b <- res5c_branch2a
I0619 10:19:43.313683  2028 net.cpp:409] res5c_branch2b -> res5c_branch2b
I0619 10:19:43.374058  2028 net.cpp:144] Setting up res5c_branch2b
I0619 10:19:43.374085  2028 net.cpp:151] Top shape: 50 512 7 7 (1254400)
I0619 10:19:43.374090  2028 net.cpp:159] Memory required for data: 11475251400
I0619 10:19:43.374099  2028 layer_factory.hpp:77] Creating layer bn5c_branch2b
I0619 10:19:43.374114  2028 net.cpp:94] Creating Layer bn5c_branch2b
I0619 10:19:43.374121  2028 net.cpp:435] bn5c_branch2b <- res5c_branch2b
I0619 10:19:43.374130  2028 net.cpp:396] bn5c_branch2b -> res5c_branch2b (in-place)
I0619 10:19:43.375391  2028 net.cpp:144] Setting up bn5c_branch2b
I0619 10:19:43.375413  2028 net.cpp:151] Top shape: 50 512 7 7 (1254400)
I0619 10:19:43.375419  2028 net.cpp:159] Memory required for data: 11480269000
I0619 10:19:43.375437  2028 layer_factory.hpp:77] Creating layer scale5c_branch2b
I0619 10:19:43.375454  2028 net.cpp:94] Creating Layer scale5c_branch2b
I0619 10:19:43.375461  2028 net.cpp:435] scale5c_branch2b <- res5c_branch2b
I0619 10:19:43.375470  2028 net.cpp:396] scale5c_branch2b -> res5c_branch2b (in-place)
I0619 10:19:43.375576  2028 layer_factory.hpp:77] Creating layer scale5c_branch2b
I0619 10:19:43.375871  2028 net.cpp:144] Setting up scale5c_branch2b
I0619 10:19:43.375886  2028 net.cpp:151] Top shape: 50 512 7 7 (1254400)
I0619 10:19:43.375891  2028 net.cpp:159] Memory required for data: 11485286600
I0619 10:19:43.375901  2028 layer_factory.hpp:77] Creating layer res5c_branch2b_relu
I0619 10:19:43.375911  2028 net.cpp:94] Creating Layer res5c_branch2b_relu
I0619 10:19:43.375918  2028 net.cpp:435] res5c_branch2b_relu <- res5c_branch2b
I0619 10:19:43.375929  2028 net.cpp:396] res5c_branch2b_relu -> res5c_branch2b (in-place)
I0619 10:19:43.375942  2028 net.cpp:144] Setting up res5c_branch2b_relu
I0619 10:19:43.375958  2028 net.cpp:151] Top shape: 50 512 7 7 (1254400)
I0619 10:19:43.375964  2028 net.cpp:159] Memory required for data: 11490304200
I0619 10:19:43.375969  2028 layer_factory.hpp:77] Creating layer res5c_branch2c
I0619 10:19:43.376014  2028 net.cpp:94] Creating Layer res5c_branch2c
I0619 10:19:43.376022  2028 net.cpp:435] res5c_branch2c <- res5c_branch2b
I0619 10:19:43.376032  2028 net.cpp:409] res5c_branch2c -> res5c_branch2c
I0619 10:19:43.407472  2028 net.cpp:144] Setting up res5c_branch2c
I0619 10:19:43.407498  2028 net.cpp:151] Top shape: 50 2048 7 7 (5017600)
I0619 10:19:43.407503  2028 net.cpp:159] Memory required for data: 11510374600
I0619 10:19:43.407513  2028 layer_factory.hpp:77] Creating layer bn5c_branch2c
I0619 10:19:43.407527  2028 net.cpp:94] Creating Layer bn5c_branch2c
I0619 10:19:43.407537  2028 net.cpp:435] bn5c_branch2c <- res5c_branch2c
I0619 10:19:43.407544  2028 net.cpp:396] bn5c_branch2c -> res5c_branch2c (in-place)
I0619 10:19:43.408586  2028 net.cpp:144] Setting up bn5c_branch2c
I0619 10:19:43.408604  2028 net.cpp:151] Top shape: 50 2048 7 7 (5017600)
I0619 10:19:43.408609  2028 net.cpp:159] Memory required for data: 11530445000
I0619 10:19:43.408623  2028 layer_factory.hpp:77] Creating layer scale5c_branch2c
I0619 10:19:43.408633  2028 net.cpp:94] Creating Layer scale5c_branch2c
I0619 10:19:43.408639  2028 net.cpp:435] scale5c_branch2c <- res5c_branch2c
I0619 10:19:43.408651  2028 net.cpp:396] scale5c_branch2c -> res5c_branch2c (in-place)
I0619 10:19:43.408740  2028 layer_factory.hpp:77] Creating layer scale5c_branch2c
I0619 10:19:43.408988  2028 net.cpp:144] Setting up scale5c_branch2c
I0619 10:19:43.409001  2028 net.cpp:151] Top shape: 50 2048 7 7 (5017600)
I0619 10:19:43.409005  2028 net.cpp:159] Memory required for data: 11550515400
I0619 10:19:43.409013  2028 layer_factory.hpp:77] Creating layer res5c
I0619 10:19:43.409024  2028 net.cpp:94] Creating Layer res5c
I0619 10:19:43.409029  2028 net.cpp:435] res5c <- res5b_res5b_relu_0_split_1
I0619 10:19:43.409034  2028 net.cpp:435] res5c <- res5c_branch2c
I0619 10:19:43.409045  2028 net.cpp:409] res5c -> res5c
I0619 10:19:43.409101  2028 net.cpp:144] Setting up res5c
I0619 10:19:43.409113  2028 net.cpp:151] Top shape: 50 2048 7 7 (5017600)
I0619 10:19:43.409122  2028 net.cpp:159] Memory required for data: 11570585800
I0619 10:19:43.409127  2028 layer_factory.hpp:77] Creating layer res5c_relu
I0619 10:19:43.409134  2028 net.cpp:94] Creating Layer res5c_relu
I0619 10:19:43.409139  2028 net.cpp:435] res5c_relu <- res5c
I0619 10:19:43.409145  2028 net.cpp:396] res5c_relu -> res5c (in-place)
I0619 10:19:43.409155  2028 net.cpp:144] Setting up res5c_relu
I0619 10:19:43.409162  2028 net.cpp:151] Top shape: 50 2048 7 7 (5017600)
I0619 10:19:43.409188  2028 net.cpp:159] Memory required for data: 11590656200
I0619 10:19:43.409193  2028 layer_factory.hpp:77] Creating layer pool5
I0619 10:19:43.409207  2028 net.cpp:94] Creating Layer pool5
I0619 10:19:43.409215  2028 net.cpp:435] pool5 <- res5c
I0619 10:19:43.409224  2028 net.cpp:409] pool5 -> pool5
I0619 10:19:43.409306  2028 net.cpp:144] Setting up pool5
I0619 10:19:43.409318  2028 net.cpp:151] Top shape: 50 2048 1 1 (102400)
I0619 10:19:43.409323  2028 net.cpp:159] Memory required for data: 11591065800
I0619 10:19:43.409327  2028 layer_factory.hpp:77] Creating layer fc1000
I0619 10:19:43.409348  2028 net.cpp:94] Creating Layer fc1000
I0619 10:19:43.409353  2028 net.cpp:435] fc1000 <- pool5
I0619 10:19:43.409360  2028 net.cpp:409] fc1000 -> fc1000
I0619 10:19:43.429555  2028 net.cpp:144] Setting up fc1000
I0619 10:19:43.429579  2028 net.cpp:151] Top shape: 50 1000 (50000)
I0619 10:19:43.429584  2028 net.cpp:159] Memory required for data: 11591265800
I0619 10:19:43.429592  2028 layer_factory.hpp:77] Creating layer prob
I0619 10:19:43.429610  2028 net.cpp:94] Creating Layer prob
I0619 10:19:43.429615  2028 net.cpp:435] prob <- fc1000
I0619 10:19:43.429622  2028 net.cpp:435] prob <- label
I0619 10:19:43.429636  2028 net.cpp:409] prob -> prob
I0619 10:19:43.429661  2028 layer_factory.hpp:77] Creating layer prob
…
