…
I0619 10:27:41.992214 198730 net.cpp:138] Initializing net from parameters: 
I0619 10:27:41.992306 198730 net.cpp:139] 
name: "AlexNet"
state {
  phase: TRAIN
  level: 0
  stage: ""
}
engine: "MKL2017"
layer {
  name: "data"
  type: "Data"
  top: "data"
  top: "label"
  include {
    phase: TRAIN
  }
  transform_param {
    mirror: true
    crop_size: 227
    mean_file: "/home/wenxizhu/wenxi/internal-intel-caffe/data/ilsvrc12/imagenet_mean.binaryproto"
  }
  data_param {
    source: "/home/wenxizhu/wenxi/internal-intel-caffe/examples/imagenet/ilsvrc12_train_lmdb"
    batch_size: 256
    backend: LMDB
  }
}
layer {
  name: "conv1"
  type: "Convolution"
  bottom: "data"
  top: "conv1"
  param {
    lr_mult: 1
    decay_mult: 1
  }
  param {
    lr_mult: 2
    decay_mult: 0
  }
  convolution_param {
    num_output: 96
    kernel_size: 11
    stride: 4
    weight_filler {
      type: "gaussian"
      std: 0.01
    }
    bias_filler {
      type: "constant"
      value: 0
    }
  }
}
layer {
  name: "relu1"
  type: "ReLU"
  bottom: "conv1"
  top: "conv1"
}
layer {
  name: "norm1"
  type: "LRN"
  bottom: "conv1"
  top: "norm1"
  lrn_param {
    local_size: 5
    alpha: 0.0001
    beta: 0.75
  }
}
layer {
  name: "pool1"
  type: "Pooling"
  bottom: "norm1"
  top: "pool1"
  pooling_param {
    pool: MAX
    kernel_size: 3
    stride: 2
  }
}
layer {
  name: "conv2"
  type: "Convolution"
  bottom: "pool1"
  top: "conv2"
  param {
    lr_mult: 1
    decay_mult: 1
  }
  param {
    lr_mult: 2
    decay_mult: 0
  }
  convolution_param {
    num_output: 256
    pad: 2
    kernel_size: 5
    group: 2
    weight_filler {
      type: "gaussian"
      std: 0.01
    }
    bias_filler {
      type: "constant"
      value: 0.1
    }
  }
}
layer {
  name: "relu2"
  type: "ReLU"
  bottom: "conv2"
  top: "conv2"
}
layer {
  name: "norm2"
  type: "LRN"
  bottom: "conv2"
  top: "norm2"
  lrn_param {
    local_size: 5
    alpha: 0.0001
    beta: 0.75
  }
}
layer {
  name: "pool2"
  type: "Pooling"
  bottom: "norm2"
  top: "pool2"
  pooling_param {
    pool: MAX
    kernel_size: 3
    stride: 2
  }
}
layer {
  name: "conv3"
  type: "Convolution"
  bottom: "pool2"
  top: "conv3"
  param {
    lr_mult: 1
    decay_mult: 1
  }
  param {
    lr_mult: 2
    decay_mult: 0
  }
  convolution_param {
    num_output: 384
    pad: 1
    kernel_size: 3
    weight_filler {
      type: "gaussian"
      std: 0.01
    }
    bias_filler {
      type: "constant"
      value: 0
    }
  }
}
layer {
  name: "relu3"
  type: "ReLU"
  bottom: "conv3"
  top: "conv3"
}
layer {
  name: "conv4"
  type: "Convolution"
  bottom: "conv3"
  top: "conv4"
  param {
    lr_mult: 1
    decay_mult: 1
  }
  param {
    lr_mult: 2
    decay_mult: 0
  }
  convolution_param {
    num_output: 384
    pad: 1
    kernel_size: 3
    group: 2
    weight_filler {
      type: "gaussian"
      std: 0.01
    }
    bias_filler {
      type: "constant"
      value: 0.1
    }
  }
}
layer {
  name: "relu4"
  type: "ReLU"
  bottom: "conv4"
  top: "conv4"
}
layer {
  name: "conv5"
  type: "Convolution"
  bottom: "conv4"
  top: "conv5"
  param {
    lr_mult: 1
    decay_mult: 1
  }
  param {
    lr_mult: 2
    decay_mult: 0
  }
  convolution_param {
    num_output: 256
    pad: 1
    kernel_size: 3
    group: 2
    weight_filler {
      type: "gaussian"
      std: 0.01
    }
    bias_filler {
      type: "constant"
      value: 0.1
    }
  }
}
layer {
  name: "relu5"
  type: "ReLU"
  bottom: "conv5"
  top: "conv5"
}
layer {
  name: "pool5"
  type: "Pooling"
  bottom: "conv5"
  top: "pool5"
  pooling_param {
    pool: MAX
    kernel_size: 3
    stride: 2
  }
}
layer {
  name: "fc6"
  type: "InnerProduct"
  bottom: "pool5"
  top: "fc6"
  param {
    lr_mult: 1
    decay_mult: 1
  }
  param {
    lr_mult: 2
    decay_mult: 0
  }
  inner_product_param {
    num_output: 4096
    weight_filler {
      type: "gaussian"
      std: 0.005
    }
    bias_filler {
      type: "constant"
      value: 0.1
    }
  }
}
layer {
  name: "relu6"
  type: "ReLU"
  bottom: "fc6"
  top: "fc6"
}
layer {
  name: "drop6"
  type: "Dropout"
  bottom: "fc6"
  top: "fc6"
  dropout_param {
    dropout_ratio: 0.5
  }
}
layer {
  name: "fc7"
  type: "InnerProduct"
  bottom: "fc6"
  top: "fc7"
  param {
    lr_mult: 1
    decay_mult: 1
  }
  param {
    lr_mult: 2
    decay_mult: 0
  }
  inner_product_param {
    num_output: 4096
    weight_filler {
      type: "gaussian"
      std: 0.005
    }
    bias_filler {
      type: "constant"
      value: 0.1
    }
  }
}
layer {
  name: "relu7"
  type: "ReLU"
  bottom: "fc7"
  top: "fc7"
}
layer {
  name: "drop7"
  type: "Dropout"
  bottom: "fc7"
  top: "fc7"
  dropout_param {
    dropout_ratio: 0.5
  }
}
layer {
  name: "fc8"
  type: "InnerProduct"
  bottom: "fc7"
  top: "fc8"
  param {
    lr_mult: 1
    decay_mult: 1
  }
  param {
    lr_mult: 2
    decay_mult: 0
  }
  inner_product_param {
    num_output: 1000
    weight_filler {
      type: "gaussian"
      std: 0.01
    }
    bias_filler {
      type: "constant"
      value: 0
    }
  }
}
layer {
  name: "loss"
  type: "SoftmaxWithLoss"
  bottom: "fc8"
  bottom: "label"
  top: "loss"
}
I0619 10:27:41.993582 198730 layer_factory.hpp:114] Creating layer data
I0619 10:27:41.996376 198730 net.cpp:183] Creating Layer data
I0619 10:27:41.996544 198730 net.cpp:838] data -> data
I0619 10:27:41.996732 198730 net.cpp:838] data -> label
I0619 10:27:41.996851 198730 data_transformer.cpp:63] Loading mean file from: /home/wenxizhu/wenxi/internal-intel-caffe/data/ilsvrc12/imagenet_mean.binaryproto
I0619 10:27:42.013706 198732 db_lmdb.cpp:72] Opened lmdb /home/wenxizhu/wenxi/internal-intel-caffe/examples/imagenet/ilsvrc12_train_lmdb
I0619 10:27:42.027315 198730 data_layer.cpp:80] output data size: 256,3,227,227
I0619 10:27:42.220788 198730 net.cpp:267] Setting up data
I0619 10:27:42.220975 198730 net.cpp:274] Top shape: 256 3 227 227 (39574272)
I0619 10:27:42.221109 198730 net.cpp:274] Top shape: 256 (256)
I0619 10:27:42.221206 198730 net.cpp:282] Memory required for data: 158298112
I0619 10:27:42.221290 198730 layer_factory.hpp:114] Creating layer conv1
I0619 10:27:42.221531 198730 net.cpp:183] Creating Layer conv1
I0619 10:27:42.221642 198730 net.cpp:864] conv1 <- data
I0619 10:27:42.221808 198730 net.cpp:838] conv1 -> conv1
I0619 10:27:42.390295 198730 net.cpp:267] Setting up conv1
I0619 10:27:42.390449 198730 net.cpp:274] Top shape: 256 96 55 55 (74342400)
I0619 10:27:42.390497 198730 net.cpp:282] Memory required for data: 455667712
I0619 10:27:42.390632 198730 layer_factory.hpp:114] Creating layer relu1
I0619 10:27:42.390854 198730 net.cpp:183] Creating Layer relu1
I0619 10:27:42.390980 198730 net.cpp:864] relu1 <- conv1
I0619 10:27:42.391122 198730 net.cpp:825] relu1 -> conv1 (in-place)
I0619 10:27:42.391353 198730 net.cpp:267] Setting up relu1
I0619 10:27:42.391472 198730 net.cpp:274] Top shape: 256 96 55 55 (74342400)
I0619 10:27:42.391541 198730 net.cpp:282] Memory required for data: 753037312
I0619 10:27:42.391619 198730 layer_factory.hpp:114] Creating layer norm1
I0619 10:27:42.391986 198730 net.cpp:183] Creating Layer norm1
I0619 10:27:42.392093 198730 net.cpp:864] norm1 <- conv1
I0619 10:27:42.392186 198730 net.cpp:838] norm1 -> norm1
I0619 10:27:42.392362 198730 net.cpp:267] Setting up norm1
I0619 10:27:42.392458 198730 net.cpp:274] Top shape: 256 96 55 55 (74342400)
I0619 10:27:42.392504 198730 net.cpp:282] Memory required for data: 1050406912
I0619 10:27:42.392562 198730 layer_factory.hpp:114] Creating layer pool1
I0619 10:27:42.392698 198730 net.cpp:183] Creating Layer pool1
I0619 10:27:42.392768 198730 net.cpp:864] pool1 <- norm1
I0619 10:27:42.392838 198730 net.cpp:838] pool1 -> pool1
I0619 10:27:42.393002 198730 net.cpp:267] Setting up pool1
I0619 10:27:42.393146 198730 net.cpp:274] Top shape: 256 96 27 27 (17915904)
I0619 10:27:42.393191 198730 net.cpp:282] Memory required for data: 1122070528
I0619 10:27:42.393234 198730 layer_factory.hpp:114] Creating layer conv2
I0619 10:27:42.393328 198730 net.cpp:183] Creating Layer conv2
I0619 10:27:42.393409 198730 net.cpp:864] conv2 <- pool1
I0619 10:27:42.393462 198730 net.cpp:838] conv2 -> conv2
I0619 10:27:42.455482 198730 net.cpp:267] Setting up conv2
I0619 10:27:42.455623 198730 net.cpp:274] Top shape: 256 256 27 27 (47775744)
I0619 10:27:42.455682 198730 net.cpp:282] Memory required for data: 1313173504
I0619 10:27:42.455776 198730 layer_factory.hpp:114] Creating layer relu2
I0619 10:27:42.455889 198730 net.cpp:183] Creating Layer relu2
I0619 10:27:42.455950 198730 net.cpp:864] relu2 <- conv2
I0619 10:27:42.456023 198730 net.cpp:825] relu2 -> conv2 (in-place)
I0619 10:27:42.456185 198730 net.cpp:267] Setting up relu2
I0619 10:27:42.456295 198730 net.cpp:274] Top shape: 256 256 27 27 (47775744)
I0619 10:27:42.456382 198730 net.cpp:282] Memory required for data: 1504276480
I0619 10:27:42.456454 198730 layer_factory.hpp:114] Creating layer norm2
I0619 10:27:42.456576 198730 net.cpp:183] Creating Layer norm2
I0619 10:27:42.456662 198730 net.cpp:864] norm2 <- conv2
I0619 10:27:42.456768 198730 net.cpp:838] norm2 -> norm2
I0619 10:27:42.456995 198730 net.cpp:267] Setting up norm2
I0619 10:27:42.457144 198730 net.cpp:274] Top shape: 256 256 27 27 (47775744)
I0619 10:27:42.457332 198730 net.cpp:282] Memory required for data: 1695379456
I0619 10:27:42.457427 198730 layer_factory.hpp:114] Creating layer pool2
I0619 10:27:42.457593 198730 net.cpp:183] Creating Layer pool2
I0619 10:27:42.457787 198730 net.cpp:864] pool2 <- norm2
I0619 10:27:42.457901 198730 net.cpp:838] pool2 -> pool2
I0619 10:27:42.458115 198730 net.cpp:267] Setting up pool2
I0619 10:27:42.458214 198730 net.cpp:274] Top shape: 256 256 13 13 (11075584)
I0619 10:27:42.458276 198730 net.cpp:282] Memory required for data: 1739681792
I0619 10:27:42.458320 198730 layer_factory.hpp:114] Creating layer conv3
I0619 10:27:42.458434 198730 net.cpp:183] Creating Layer conv3
I0619 10:27:42.458487 198730 net.cpp:864] conv3 <- pool2
I0619 10:27:42.458549 198730 net.cpp:838] conv3 -> conv3
I0619 10:27:42.590500 198730 net.cpp:267] Setting up conv3
I0619 10:27:42.590644 198730 net.cpp:274] Top shape: 256 384 13 13 (16613376)
I0619 10:27:42.590692 198730 net.cpp:282] Memory required for data: 1806135296
I0619 10:27:42.590775 198730 layer_factory.hpp:114] Creating layer relu3
I0619 10:27:42.590881 198730 net.cpp:183] Creating Layer relu3
I0619 10:27:42.590930 198730 net.cpp:864] relu3 <- conv3
I0619 10:27:42.591006 198730 net.cpp:825] relu3 -> conv3 (in-place)
I0619 10:27:42.591184 198730 net.cpp:267] Setting up relu3
I0619 10:27:42.591272 198730 net.cpp:274] Top shape: 256 384 13 13 (16613376)
I0619 10:27:42.591316 198730 net.cpp:282] Memory required for data: 1872588800
I0619 10:27:42.591368 198730 layer_factory.hpp:114] Creating layer conv4
I0619 10:27:42.591497 198730 net.cpp:183] Creating Layer conv4
I0619 10:27:42.591555 198730 net.cpp:864] conv4 <- conv3
I0619 10:27:42.591645 198730 net.cpp:838] conv4 -> conv4
I0619 10:27:42.701464 198730 net.cpp:267] Setting up conv4
I0619 10:27:42.701613 198730 net.cpp:274] Top shape: 256 384 13 13 (16613376)
I0619 10:27:42.701678 198730 net.cpp:282] Memory required for data: 1939042304
I0619 10:27:42.701762 198730 layer_factory.hpp:114] Creating layer relu4
I0619 10:27:42.701877 198730 net.cpp:183] Creating Layer relu4
I0619 10:27:42.701939 198730 net.cpp:864] relu4 <- conv4
I0619 10:27:42.702010 198730 net.cpp:825] relu4 -> conv4 (in-place)
I0619 10:27:42.702185 198730 net.cpp:267] Setting up relu4
I0619 10:27:42.702267 198730 net.cpp:274] Top shape: 256 384 13 13 (16613376)
I0619 10:27:42.702311 198730 net.cpp:282] Memory required for data: 2005495808
I0619 10:27:42.702363 198730 layer_factory.hpp:114] Creating layer conv5
I0619 10:27:42.702513 198730 net.cpp:183] Creating Layer conv5
I0619 10:27:42.702597 198730 net.cpp:864] conv5 <- conv4
I0619 10:27:42.702698 198730 net.cpp:838] conv5 -> conv5
I0619 10:27:42.776015 198730 net.cpp:267] Setting up conv5
I0619 10:27:42.776224 198730 net.cpp:274] Top shape: 256 256 13 13 (11075584)
I0619 10:27:42.776289 198730 net.cpp:282] Memory required for data: 2049798144
I0619 10:27:42.776458 198730 layer_factory.hpp:114] Creating layer relu5
I0619 10:27:42.776582 198730 net.cpp:183] Creating Layer relu5
I0619 10:27:42.776643 198730 net.cpp:864] relu5 <- conv5
I0619 10:27:42.776712 198730 net.cpp:825] relu5 -> conv5 (in-place)
I0619 10:27:42.776844 198730 net.cpp:267] Setting up relu5
I0619 10:27:42.776906 198730 net.cpp:274] Top shape: 256 256 13 13 (11075584)
I0619 10:27:42.776940 198730 net.cpp:282] Memory required for data: 2094100480
I0619 10:27:42.776985 198730 layer_factory.hpp:114] Creating layer pool5
I0619 10:27:42.777187 198730 net.cpp:183] Creating Layer pool5
I0619 10:27:42.777293 198730 net.cpp:864] pool5 <- conv5
I0619 10:27:42.777398 198730 net.cpp:838] pool5 -> pool5
I0619 10:27:42.777602 198730 net.cpp:267] Setting up pool5
I0619 10:27:42.777755 198730 net.cpp:274] Top shape: 256 256 6 6 (2359296)
I0619 10:27:42.777843 198730 net.cpp:282] Memory required for data: 2103537664
I0619 10:27:42.777905 198730 layer_factory.hpp:114] Creating layer fc6
I0619 10:27:42.778105 198730 net.cpp:183] Creating Layer fc6
I0619 10:27:42.778203 198730 net.cpp:864] fc6 <- pool5
I0619 10:27:42.778322 198730 net.cpp:838] fc6 -> fc6
I0619 10:27:47.601583 198730 net.cpp:267] Setting up fc6
I0619 10:27:47.601830 198730 net.cpp:274] Top shape: 256 4096 (1048576)
I0619 10:27:47.601886 198730 net.cpp:282] Memory required for data: 2107731968
I0619 10:27:47.601969 198730 layer_factory.hpp:114] Creating layer relu6
I0619 10:27:47.602126 198730 net.cpp:183] Creating Layer relu6
I0619 10:27:47.602205 198730 net.cpp:864] relu6 <- fc6
I0619 10:27:47.602280 198730 net.cpp:825] relu6 -> fc6 (in-place)
I0619 10:27:47.602465 198730 net.cpp:267] Setting up relu6
I0619 10:27:47.602572 198730 net.cpp:274] Top shape: 256 4096 (1048576)
I0619 10:27:47.602632 198730 net.cpp:282] Memory required for data: 2111926272
I0619 10:27:47.602702 198730 layer_factory.hpp:114] Creating layer drop6
I0619 10:27:47.602800 198730 net.cpp:183] Creating Layer drop6
I0619 10:27:47.602856 198730 net.cpp:864] drop6 <- fc6
I0619 10:27:47.602918 198730 net.cpp:825] drop6 -> fc6 (in-place)
I0619 10:27:47.603009 198730 net.cpp:267] Setting up drop6
I0619 10:27:47.603065 198730 net.cpp:274] Top shape: 256 4096 (1048576)
I0619 10:27:47.603133 198730 net.cpp:282] Memory required for data: 2116120576
I0619 10:27:47.603169 198730 layer_factory.hpp:114] Creating layer fc7
I0619 10:27:47.603237 198730 net.cpp:183] Creating Layer fc7
I0619 10:27:47.603276 198730 net.cpp:864] fc7 <- fc6
I0619 10:27:47.603346 198730 net.cpp:838] fc7 -> fc7
I0619 10:27:49.737120 198730 net.cpp:267] Setting up fc7
I0619 10:27:49.737264 198730 net.cpp:274] Top shape: 256 4096 (1048576)
I0619 10:27:49.737334 198730 net.cpp:282] Memory required for data: 2120314880
I0619 10:27:49.737399 198730 layer_factory.hpp:114] Creating layer relu7
I0619 10:27:49.737480 198730 net.cpp:183] Creating Layer relu7
I0619 10:27:49.737519 198730 net.cpp:864] relu7 <- fc7
I0619 10:27:49.737586 198730 net.cpp:825] relu7 -> fc7 (in-place)
I0619 10:27:49.737681 198730 net.cpp:267] Setting up relu7
I0619 10:27:49.737735 198730 net.cpp:274] Top shape: 256 4096 (1048576)
I0619 10:27:49.737766 198730 net.cpp:282] Memory required for data: 2124509184
I0619 10:27:49.737799 198730 layer_factory.hpp:114] Creating layer drop7
I0619 10:27:49.737843 198730 net.cpp:183] Creating Layer drop7
I0619 10:27:49.737872 198730 net.cpp:864] drop7 <- fc7
I0619 10:27:49.737911 198730 net.cpp:825] drop7 -> fc7 (in-place)
I0619 10:27:49.737962 198730 net.cpp:267] Setting up drop7
I0619 10:27:49.738003 198730 net.cpp:274] Top shape: 256 4096 (1048576)
I0619 10:27:49.738030 198730 net.cpp:282] Memory required for data: 2128703488
I0619 10:27:49.738059 198730 layer_factory.hpp:114] Creating layer fc8
I0619 10:27:49.738158 198730 net.cpp:183] Creating Layer fc8
I0619 10:27:49.738194 198730 net.cpp:864] fc8 <- fc7
I0619 10:27:49.738266 198730 net.cpp:838] fc8 -> fc8
I0619 10:27:50.259723 198730 net.cpp:267] Setting up fc8
I0619 10:27:50.259857 198730 net.cpp:274] Top shape: 256 1000 (256000)
I0619 10:27:50.259923 198730 net.cpp:282] Memory required for data: 2129727488
I0619 10:27:50.259984 198730 layer_factory.hpp:114] Creating layer loss
I0619 10:27:50.260061 198730 net.cpp:183] Creating Layer loss
I0619 10:27:50.260138 198730 net.cpp:864] loss <- fc8
I0619 10:27:50.260181 198730 net.cpp:864] loss <- label
I0619 10:27:50.260246 198730 net.cpp:838] loss -> loss
I0619 10:27:50.260334 198730 layer_factory.hpp:114] Creating layer loss
…
