…
I0619 10:18:09.976897  1914 net.cpp:323] The NetState phase (0) differed from the phase (1) specified by a rule in layer accuracy
I0619 10:18:09.977350  1914 net.cpp:52] Initializing net from parameters: 
name: "AlexNet"
state {
  phase: TRAIN
}
layer {
  name: "data"
  type: "Data"
  top: "data"
  top: "label"
  include {
    phase: TRAIN
  }
  transform_param {
    mirror: true
    crop_size: 227
    mean_file: "/home/wenxizhu/wenxi/internal-intel-caffe/data/ilsvrc12/imagenet_mean.binaryproto"
  }
  data_param {
    source: "/home/wenxizhu/wenxi/internal-intel-caffe/examples/imagenet/ilsvrc12_train_lmdb"
    batch_size: 256
    backend: LMDB
  }
}
layer {
  name: "conv1"
  type: "Convolution"
  bottom: "data"
  top: "conv1"
  param {
    lr_mult: 1
    decay_mult: 1
  }
  param {
    lr_mult: 2
    decay_mult: 0
  }
  convolution_param {
    num_output: 96
    kernel_size: 11
    stride: 4
    weight_filler {
      type: "gaussian"
      std: 0.01
    }
    bias_filler {
      type: "constant"
      value: 0
    }
  }
}
layer {
  name: "relu1"
  type: "ReLU"
  bottom: "conv1"
  top: "conv1"
}
layer {
  name: "norm1"
  type: "LRN"
  bottom: "conv1"
  top: "norm1"
  lrn_param {
    local_size: 5
    alpha: 0.0001
    beta: 0.75
  }
}
layer {
  name: "pool1"
  type: "Pooling"
  bottom: "norm1"
  top: "pool1"
  pooling_param {
    pool: MAX
    kernel_size: 3
    stride: 2
  }
}
layer {
  name: "conv2"
  type: "Convolution"
  bottom: "pool1"
  top: "conv2"
  param {
    lr_mult: 1
    decay_mult: 1
  }
  param {
    lr_mult: 2
    decay_mult: 0
  }
  convolution_param {
    num_output: 256
    pad: 2
    kernel_size: 5
    group: 2
    weight_filler {
      type: "gaussian"
      std: 0.01
    }
    bias_filler {
      type: "constant"
      value: 0.1
    }
  }
}
layer {
  name: "relu2"
  type: "ReLU"
  bottom: "conv2"
  top: "conv2"
}
layer {
  name: "norm2"
  type: "LRN"
  bottom: "conv2"
  top: "norm2"
  lrn_param {
    local_size: 5
    alpha: 0.0001
    beta: 0.75
  }
}
layer {
  name: "pool2"
  type: "Pooling"
  bottom: "norm2"
  top: "pool2"
  pooling_param {
    pool: MAX
    kernel_size: 3
    stride: 2
  }
}
layer {
  name: "conv3"
  type: "Convolution"
  bottom: "pool2"
  top: "conv3"
  param {
    lr_mult: 1
    decay_mult: 1
  }
  param {
    lr_mult: 2
    decay_mult: 0
  }
  convolution_param {
    num_output: 384
    pad: 1
    kernel_size: 3
    weight_filler {
      type: "gaussian"
      std: 0.01
    }
    bias_filler {
      type: "constant"
      value: 0
    }
  }
}
layer {
  name: "relu3"
  type: "ReLU"
  bottom: "conv3"
  top: "conv3"
}
layer {
  name: "conv4"
  type: "Convolution"
  bottom: "conv3"
  top: "conv4"
  param {
    lr_mult: 1
    decay_mult: 1
  }
  param {
    lr_mult: 2
    decay_mult: 0
  }
  convolution_param {
    num_output: 384
    pad: 1
    kernel_size: 3
    group: 2
    weight_filler {
      type: "gaussian"
      std: 0.01
    }
    bias_filler {
      type: "constant"
      value: 0.1
    }
  }
}
layer {
  name: "relu4"
  type: "ReLU"
  bottom: "conv4"
  top: "conv4"
}
layer {
  name: "conv5"
  type: "Convolution"
  bottom: "conv4"
  top: "conv5"
  param {
    lr_mult: 1
    decay_mult: 1
  }
  param {
    lr_mult: 2
    decay_mult: 0
  }
  convolution_param {
    num_output: 256
    pad: 1
    kernel_size: 3
    group: 2
    weight_filler {
      type: "gaussian"
      std: 0.01
    }
    bias_filler {
      type: "constant"
      value: 0.1
    }
  }
}
layer {
  name: "relu5"
  type: "ReLU"
  bottom: "conv5"
  top: "conv5"
}
layer {
  name: "pool5"
  type: "Pooling"
  bottom: "conv5"
  top: "pool5"
  pooling_param {
    pool: MAX
    kernel_size: 3
    stride: 2
  }
}
layer {
  name: "fc6"
  type: "InnerProduct"
  bottom: "pool5"
  top: "fc6"
  param {
    lr_mult: 1
    decay_mult: 1
  }
  param {
    lr_mult: 2
    decay_mult: 0
  }
  inner_product_param {
    num_output: 4096
    weight_filler {
      type: "gaussian"
      std: 0.005
    }
    bias_filler {
      type: "constant"
      value: 0.1
    }
  }
}
layer {
  name: "relu6"
  type: "ReLU"
  bottom: "fc6"
  top: "fc6"
}
layer {
  name: "drop6"
  type: "Dropout"
  bottom: "fc6"
  top: "fc6"
  dropout_param {
    dropout_ratio: 0.5
  }
}
layer {
  name: "fc7"
  type: "InnerProduct"
  bottom: "fc6"
  top: "fc7"
  param {
    lr_mult: 1
    decay_mult: 1
  }
  param {
    lr_mult: 2
    decay_mult: 0
  }
  inner_product_param {
    num_output: 4096
    weight_filler {
      type: "gaussian"
      std: 0.005
    }
    bias_filler {
      type: "constant"
      value: 0.1
    }
  }
}
layer {
  name: "relu7"
  type: "ReLU"
  bottom: "fc7"
  top: "fc7"
}
layer {
  name: "drop7"
  type: "Dropout"
  bottom: "fc7"
  top: "fc7"
  dropout_param {
    dropout_ratio: 0.5
  }
}
layer {
  name: "fc8"
  type: "InnerProduct"
  bottom: "fc7"
  top: "fc8"
  param {
    lr_mult: 1
    decay_mult: 1
  }
  param {
    lr_mult: 2
    decay_mult: 0
  }
  inner_product_param {
    num_output: 1000
    weight_filler {
      type: "gaussian"
      std: 0.01
    }
    bias_filler {
      type: "constant"
      value: 0
    }
  }
}
layer {
  name: "loss"
  type: "SoftmaxWithLoss"
  bottom: "fc8"
  bottom: "label"
  top: "loss"
}
I0619 10:18:09.977625  1914 layer_factory.hpp:77] Creating layer data
I0619 10:18:09.985828  1914 net.cpp:94] Creating Layer data
I0619 10:18:09.985872  1914 net.cpp:409] data -> data
I0619 10:18:09.985942  1914 net.cpp:409] data -> label
I0619 10:18:09.985981  1914 data_transformer.cpp:25] Loading mean file from: /home/wenxizhu/wenxi/internal-intel-caffe/data/ilsvrc12/imagenet_mean.binaryproto
I0619 10:18:09.987572  1921 db_lmdb.cpp:35] Opened lmdb /home/wenxizhu/wenxi/internal-intel-caffe/examples/imagenet/ilsvrc12_train_lmdb
I0619 10:18:09.996914  1914 data_layer.cpp:76] output data size: 256,3,227,227
I0619 10:18:10.414082  1914 net.cpp:144] Setting up data
I0619 10:18:10.414175  1914 net.cpp:151] Top shape: 256 3 227 227 (39574272)
I0619 10:18:10.414186  1914 net.cpp:151] Top shape: 256 (256)
I0619 10:18:10.414191  1914 net.cpp:159] Memory required for data: 158298112
I0619 10:18:10.414206  1914 layer_factory.hpp:77] Creating layer conv1
I0619 10:18:10.414245  1914 net.cpp:94] Creating Layer conv1
I0619 10:18:10.414255  1914 net.cpp:435] conv1 <- data
I0619 10:18:10.414278  1914 net.cpp:409] conv1 -> conv1
I0619 10:18:10.672719  1914 net.cpp:144] Setting up conv1
I0619 10:18:10.672773  1914 net.cpp:151] Top shape: 256 96 55 55 (74342400)
I0619 10:18:10.672799  1914 net.cpp:159] Memory required for data: 455667712
I0619 10:18:10.672858  1914 layer_factory.hpp:77] Creating layer relu1
I0619 10:18:10.672885  1914 net.cpp:94] Creating Layer relu1
I0619 10:18:10.672894  1914 net.cpp:435] relu1 <- conv1
I0619 10:18:10.672906  1914 net.cpp:396] relu1 -> conv1 (in-place)
I0619 10:18:10.672942  1914 net.cpp:144] Setting up relu1
I0619 10:18:10.672953  1914 net.cpp:151] Top shape: 256 96 55 55 (74342400)
I0619 10:18:10.672958  1914 net.cpp:159] Memory required for data: 753037312
I0619 10:18:10.672963  1914 layer_factory.hpp:77] Creating layer norm1
I0619 10:18:10.672986  1914 net.cpp:94] Creating Layer norm1
I0619 10:18:10.672991  1914 net.cpp:435] norm1 <- conv1
I0619 10:18:10.673001  1914 net.cpp:409] norm1 -> norm1
I0619 10:18:10.673130  1914 net.cpp:144] Setting up norm1
I0619 10:18:10.673142  1914 net.cpp:151] Top shape: 256 96 55 55 (74342400)
I0619 10:18:10.673147  1914 net.cpp:159] Memory required for data: 1050406912
I0619 10:18:10.673154  1914 layer_factory.hpp:77] Creating layer pool1
I0619 10:18:10.673187  1914 net.cpp:94] Creating Layer pool1
I0619 10:18:10.673197  1914 net.cpp:435] pool1 <- norm1
I0619 10:18:10.673542  1914 net.cpp:409] pool1 -> pool1
I0619 10:18:10.673907  1914 net.cpp:144] Setting up pool1
I0619 10:18:10.673921  1914 net.cpp:151] Top shape: 256 96 27 27 (17915904)
I0619 10:18:10.673930  1914 net.cpp:159] Memory required for data: 1122070528
I0619 10:18:10.673935  1914 layer_factory.hpp:77] Creating layer conv2
I0619 10:18:10.674003  1914 net.cpp:94] Creating Layer conv2
I0619 10:18:10.674010  1914 net.cpp:435] conv2 <- pool1
I0619 10:18:10.674021  1914 net.cpp:409] conv2 -> conv2
I0619 10:18:10.802984  1914 net.cpp:144] Setting up conv2
I0619 10:18:10.803021  1914 net.cpp:151] Top shape: 256 256 27 27 (47775744)
I0619 10:18:10.803030  1914 net.cpp:159] Memory required for data: 1313173504
I0619 10:18:10.803051  1914 layer_factory.hpp:77] Creating layer relu2
I0619 10:18:10.803067  1914 net.cpp:94] Creating Layer relu2
I0619 10:18:10.803076  1914 net.cpp:435] relu2 <- conv2
I0619 10:18:10.803087  1914 net.cpp:396] relu2 -> conv2 (in-place)
I0619 10:18:10.803110  1914 net.cpp:144] Setting up relu2
I0619 10:18:10.803120  1914 net.cpp:151] Top shape: 256 256 27 27 (47775744)
I0619 10:18:10.803127  1914 net.cpp:159] Memory required for data: 1504276480
I0619 10:18:10.803133  1914 layer_factory.hpp:77] Creating layer norm2
I0619 10:18:10.803153  1914 net.cpp:94] Creating Layer norm2
I0619 10:18:10.803159  1914 net.cpp:435] norm2 <- conv2
I0619 10:18:10.803534  1914 net.cpp:409] norm2 -> norm2
I0619 10:18:10.803972  1914 net.cpp:144] Setting up norm2
I0619 10:18:10.803989  1914 net.cpp:151] Top shape: 256 256 27 27 (47775744)
I0619 10:18:10.803999  1914 net.cpp:159] Memory required for data: 1695379456
I0619 10:18:10.804006  1914 layer_factory.hpp:77] Creating layer pool2
I0619 10:18:10.804023  1914 net.cpp:94] Creating Layer pool2
I0619 10:18:10.804033  1914 net.cpp:435] pool2 <- norm2
I0619 10:18:10.804044  1914 net.cpp:409] pool2 -> pool2
I0619 10:18:10.804111  1914 net.cpp:144] Setting up pool2
I0619 10:18:10.804124  1914 net.cpp:151] Top shape: 256 256 13 13 (11075584)
I0619 10:18:10.804131  1914 net.cpp:159] Memory required for data: 1739681792
I0619 10:18:10.804141  1914 layer_factory.hpp:77] Creating layer conv3
I0619 10:18:10.804159  1914 net.cpp:94] Creating Layer conv3
I0619 10:18:10.804179  1914 net.cpp:435] conv3 <- pool2
I0619 10:18:10.804532  1914 net.cpp:409] conv3 -> conv3
I0619 10:18:10.994021  1914 net.cpp:144] Setting up conv3
I0619 10:18:10.994081  1914 net.cpp:151] Top shape: 256 384 13 13 (16613376)
I0619 10:18:10.994089  1914 net.cpp:159] Memory required for data: 1806135296
I0619 10:18:10.994122  1914 layer_factory.hpp:77] Creating layer relu3
I0619 10:18:10.994149  1914 net.cpp:94] Creating Layer relu3
I0619 10:18:10.994159  1914 net.cpp:435] relu3 <- conv3
I0619 10:18:10.994201  1914 net.cpp:396] relu3 -> conv3 (in-place)
I0619 10:18:10.994608  1914 net.cpp:144] Setting up relu3
I0619 10:18:10.994618  1914 net.cpp:151] Top shape: 256 384 13 13 (16613376)
I0619 10:18:10.994623  1914 net.cpp:159] Memory required for data: 1872588800
I0619 10:18:10.994627  1914 layer_factory.hpp:77] Creating layer conv4
I0619 10:18:10.994647  1914 net.cpp:94] Creating Layer conv4
I0619 10:18:10.994652  1914 net.cpp:435] conv4 <- conv3
I0619 10:18:10.994662  1914 net.cpp:409] conv4 -> conv4
I0619 10:18:11.084931  1914 net.cpp:144] Setting up conv4
I0619 10:18:11.084969  1914 net.cpp:151] Top shape: 256 384 13 13 (16613376)
I0619 10:18:11.084975  1914 net.cpp:159] Memory required for data: 1939042304
I0619 10:18:11.084983  1914 layer_factory.hpp:77] Creating layer relu4
I0619 10:18:11.084992  1914 net.cpp:94] Creating Layer relu4
I0619 10:18:11.084996  1914 net.cpp:435] relu4 <- conv4
I0619 10:18:11.085003  1914 net.cpp:396] relu4 -> conv4 (in-place)
I0619 10:18:11.085013  1914 net.cpp:144] Setting up relu4
I0619 10:18:11.085017  1914 net.cpp:151] Top shape: 256 384 13 13 (16613376)
I0619 10:18:11.085021  1914 net.cpp:159] Memory required for data: 2005495808
I0619 10:18:11.085023  1914 layer_factory.hpp:77] Creating layer conv5
I0619 10:18:11.085036  1914 net.cpp:94] Creating Layer conv5
I0619 10:18:11.085060  1914 net.cpp:435] conv5 <- conv4
I0619 10:18:11.085086  1914 net.cpp:409] conv5 -> conv5
I0619 10:18:11.144733  1914 net.cpp:144] Setting up conv5
I0619 10:18:11.144773  1914 net.cpp:151] Top shape: 256 256 13 13 (11075584)
I0619 10:18:11.144781  1914 net.cpp:159] Memory required for data: 2049798144
I0619 10:18:11.144805  1914 layer_factory.hpp:77] Creating layer relu5
I0619 10:18:11.144882  1914 net.cpp:94] Creating Layer relu5
I0619 10:18:11.144896  1914 net.cpp:435] relu5 <- conv5
I0619 10:18:11.144908  1914 net.cpp:396] relu5 -> conv5 (in-place)
I0619 10:18:11.144927  1914 net.cpp:144] Setting up relu5
I0619 10:18:11.144939  1914 net.cpp:151] Top shape: 256 256 13 13 (11075584)
I0619 10:18:11.144946  1914 net.cpp:159] Memory required for data: 2094100480
I0619 10:18:11.144953  1914 layer_factory.hpp:77] Creating layer pool5
I0619 10:18:11.144968  1914 net.cpp:94] Creating Layer pool5
I0619 10:18:11.144975  1914 net.cpp:435] pool5 <- conv5
I0619 10:18:11.144989  1914 net.cpp:409] pool5 -> pool5
I0619 10:18:11.145108  1914 net.cpp:144] Setting up pool5
I0619 10:18:11.145123  1914 net.cpp:151] Top shape: 256 256 6 6 (2359296)
I0619 10:18:11.145130  1914 net.cpp:159] Memory required for data: 2103537664
I0619 10:18:11.145139  1914 layer_factory.hpp:77] Creating layer fc6
I0619 10:18:11.145558  1914 net.cpp:94] Creating Layer fc6
I0619 10:18:11.145597  1914 net.cpp:435] fc6 <- pool5
I0619 10:18:11.145606  1914 net.cpp:409] fc6 -> fc6
I0619 10:18:11.975872  1914 net.cpp:144] Setting up fc6
I0619 10:18:11.975924  1914 net.cpp:151] Top shape: 256 4096 (1048576)
I0619 10:18:11.975926  1914 net.cpp:159] Memory required for data: 2107731968
I0619 10:18:11.975939  1914 layer_factory.hpp:77] Creating layer relu6
I0619 10:18:11.975958  1914 net.cpp:94] Creating Layer relu6
I0619 10:18:11.975965  1914 net.cpp:435] relu6 <- fc6
I0619 10:18:11.975973  1914 net.cpp:396] relu6 -> fc6 (in-place)
I0619 10:18:11.975991  1914 net.cpp:144] Setting up relu6
I0619 10:18:11.975993  1914 net.cpp:151] Top shape: 256 4096 (1048576)
I0619 10:18:11.975996  1914 net.cpp:159] Memory required for data: 2111926272
I0619 10:18:11.975999  1914 layer_factory.hpp:77] Creating layer drop6
I0619 10:18:11.976012  1914 net.cpp:94] Creating Layer drop6
I0619 10:18:11.976016  1914 net.cpp:435] drop6 <- fc6
I0619 10:18:11.976022  1914 net.cpp:396] drop6 -> fc6 (in-place)
I0619 10:18:11.976061  1914 net.cpp:144] Setting up drop6
I0619 10:18:11.976069  1914 net.cpp:151] Top shape: 256 4096 (1048576)
I0619 10:18:11.976071  1914 net.cpp:159] Memory required for data: 2116120576
I0619 10:18:11.976089  1914 layer_factory.hpp:77] Creating layer fc7
I0619 10:18:11.976100  1914 net.cpp:94] Creating Layer fc7
I0619 10:18:11.976104  1914 net.cpp:435] fc7 <- fc6
I0619 10:18:11.976109  1914 net.cpp:409] fc7 -> fc7
I0619 10:18:12.332885  1914 net.cpp:144] Setting up fc7
I0619 10:18:12.332934  1914 net.cpp:151] Top shape: 256 4096 (1048576)
I0619 10:18:12.332938  1914 net.cpp:159] Memory required for data: 2120314880
I0619 10:18:12.332950  1914 layer_factory.hpp:77] Creating layer relu7
I0619 10:18:12.332963  1914 net.cpp:94] Creating Layer relu7
I0619 10:18:12.332969  1914 net.cpp:435] relu7 <- fc7
I0619 10:18:12.332978  1914 net.cpp:396] relu7 -> fc7 (in-place)
I0619 10:18:12.332993  1914 net.cpp:144] Setting up relu7
I0619 10:18:12.332998  1914 net.cpp:151] Top shape: 256 4096 (1048576)
I0619 10:18:12.332999  1914 net.cpp:159] Memory required for data: 2124509184
I0619 10:18:12.333003  1914 layer_factory.hpp:77] Creating layer drop7
I0619 10:18:12.333010  1914 net.cpp:94] Creating Layer drop7
I0619 10:18:12.333014  1914 net.cpp:435] drop7 <- fc7
I0619 10:18:12.333019  1914 net.cpp:396] drop7 -> fc7 (in-place)
I0619 10:18:12.333036  1914 net.cpp:144] Setting up drop7
I0619 10:18:12.333045  1914 net.cpp:151] Top shape: 256 4096 (1048576)
I0619 10:18:12.333047  1914 net.cpp:159] Memory required for data: 2128703488
I0619 10:18:12.333065  1914 layer_factory.hpp:77] Creating layer fc8
I0619 10:18:12.333091  1914 net.cpp:94] Creating Layer fc8
I0619 10:18:12.333094  1914 net.cpp:435] fc8 <- fc7
I0619 10:18:12.333101  1914 net.cpp:409] fc8 -> fc8
I0619 10:18:12.419283  1914 net.cpp:144] Setting up fc8
I0619 10:18:12.419296  1914 net.cpp:151] Top shape: 256 1000 (256000)
I0619 10:18:12.419298  1914 net.cpp:159] Memory required for data: 2129727488
I0619 10:18:12.419304  1914 layer_factory.hpp:77] Creating layer loss
I0619 10:18:12.419354  1914 net.cpp:94] Creating Layer loss
I0619 10:18:12.419358  1914 net.cpp:435] loss <- fc8
I0619 10:18:12.419363  1914 net.cpp:435] loss <- label
I0619 10:18:12.419370  1914 net.cpp:409] loss -> loss
I0619 10:18:12.419410  1914 layer_factory.hpp:77] Creating layer loss
…
