…
I0619 10:19:04.296099  1973 net.cpp:323] The NetState phase (0) differed from the phase (1) specified by a rule in layer loss3/top-5
I0619 10:19:04.297889  1973 net.cpp:52] Initializing net from parameters: 
name: "GoogleNet"
state {
  phase: TRAIN
}
layer {
  name: "data"
  type: "Data"
  top: "data"
  top: "label"
  include {
    phase: TRAIN
  }
  transform_param {
    mirror: true
    crop_size: 224
    mean_value: 104
    mean_value: 117
    mean_value: 123
  }
  data_param {
    source: "/home/wenxizhu/wenxi/internal-intel-caffe/examples/imagenet/ilsvrc12_train_lmdb"
    batch_size: 96
    backend: LMDB
  }
}
layer {
  name: "conv1/7x7_s2"
  type: "Convolution"
  bottom: "data"
  top: "conv1/7x7_s2"
  param {
    lr_mult: 1
    decay_mult: 1
  }
  param {
    lr_mult: 2
    decay_mult: 0
  }
  convolution_param {
    num_output: 64
    pad: 3
    kernel_size: 7
    stride: 2
    weight_filler {
      type: "xavier"
    }
    bias_filler {
      type: "constant"
      value: 0.2
    }
  }
}
layer {
  name: "conv1/relu_7x7"
  type: "ReLU"
  bottom: "conv1/7x7_s2"
  top: "conv1/7x7_s2"
}
layer {
  name: "pool1/3x3_s2"
  type: "Pooling"
  bottom: "conv1/7x7_s2"
  top: "pool1/3x3_s2"
  pooling_param {
    pool: MAX
    kernel_size: 3
    stride: 2
  }
}
layer {
  name: "pool1/norm1"
  type: "LRN"
  bottom: "pool1/3x3_s2"
  top: "pool1/norm1"
  lrn_param {
    local_size: 5
    alpha: 0.0001
    beta: 0.75
  }
}
layer {
  name: "conv2/3x3_reduce"
  type: "Convolution"
  bottom: "pool1/norm1"
  top: "conv2/3x3_reduce"
  param {
    lr_mult: 1
    decay_mult: 1
  }
  param {
    lr_mult: 2
    decay_mult: 0
  }
  convolution_param {
    num_output: 64
    kernel_size: 1
    weight_filler {
      type: "xavier"
    }
    bias_filler {
      type: "constant"
      value: 0.2
    }
  }
}
layer {
  name: "conv2/relu_3x3_reduce"
  type: "ReLU"
  bottom: "conv2/3x3_reduce"
  top: "conv2/3x3_reduce"
}
layer {
  name: "conv2/3x3"
  type: "Convolution"
  bottom: "conv2/3x3_reduce"
  top: "conv2/3x3"
  param {
    lr_mult: 1
    decay_mult: 1
  }
  param {
    lr_mult: 2
    decay_mult: 0
  }
  convolution_param {
    num_output: 192
    pad: 1
    kernel_size: 3
    weight_filler {
      type: "xavier"
    }
    bias_filler {
      type: "constant"
      value: 0.2
    }
  }
}
layer {
  name: "conv2/relu_3x3"
  type: "ReLU"
  bottom: "conv2/3x3"
  top: "conv2/3x3"
}
layer {
  name: "conv2/norm2"
  type: "LRN"
  bottom: "conv2/3x3"
  top: "conv2/norm2"
  lrn_param {
    local_size: 5
    alpha: 0.0001
    beta: 0.75
  }
}
layer {
  name: "pool2/3x3_s2"
  type: "Pooling"
  bottom: "conv2/norm2"
  top: "pool2/3x3_s2"
  pooling_param {
    pool: MAX
    kernel_size: 3
    stride: 2
  }
}
layer {
  name: "inception_3a/1x1"
  type: "Convolution"
  bottom: "pool2/3x3_s2"
  top: "inception_3a/1x1"
  param {
    lr_mult: 1
    decay_mult: 1
  }
  param {
    lr_mult: 2
    decay_mult: 0
  }
  convolution_param {
    num_output: 64
    kernel_size: 1
    weight_filler {
      type: "xavier"
    }
    bias_filler {
      type: "constant"
      value: 0.2
    }
  }
}
layer {
  name: "inception_3a/relu_1x1"
  type: "ReLU"
  bottom: "inception_3a/1x1"
  top: "inception_3a/1x1"
}
layer {
  name: "inception_3a/3x3_reduce"
  type: "Convolution"
  bottom: "pool2/3x3_s2"
  top: "inception_3a/3x3_reduce"
  param {
    lr_mult: 1
    decay_mult: 1
  }
  param {
    lr_mult: 2
    decay_mult: 0
  }
  convolution_param {
    num_output: 96
    kernel_size: 1
    weight_filler {
      type: "xavier"
    }
    bias_filler {
      type: "constant"
      value: 0.2
    }
  }
}
layer {
  name: "inception_3a/relu_3x3_reduce"
  type: "ReLU"
  bottom: "inception_3a/3x3_reduce"
  top: "inception_3a/3x3_reduce"
}
layer {
  name: "inception_3a/3x3"
  type: "Convolution"
  bottom: "inception_3a/3x3_reduce"
  top: "inception_3a/3x3"
  param {
    lr_mult: 1
    decay_mult: 1
  }
  param {
    lr_mult: 2
    decay_mult: 0
  }
  convolution_param {
    num_output: 128
    pad: 1
    kernel_size: 3
    weight_filler {
      type: "xavier"
    }
    bias_filler {
      type: "constant"
      value: 0.2
    }
  }
}
layer {
  name: "inception_3a/relu_3x3"
  type: "ReLU"
  bottom: "inception_3a/3x3"
  top: "inception_3a/3x3"
}
layer {
  name: "inception_3a/5x5_reduce"
  type: "Convolution"
  bottom: "pool2/3x3_s2"
  top: "inception_3a/5x5_reduce"
  param {
    lr_mult: 1
    decay_mult: 1
  }
  param {
    lr_mult: 2
    decay_mult: 0
  }
  convolution_param {
    num_output: 16
    kernel_size: 1
    weight_filler {
      type: "xavier"
    }
    bias_filler {
      type: "constant"
      value: 0.2
    }
  }
}
layer {
  name: "inception_3a/relu_5x5_reduce"
  type: "ReLU"
  bottom: "inception_3a/5x5_reduce"
  top: "inception_3a/5x5_reduce"
}
layer {
  name: "inception_3a/5x5"
  type: "Convolution"
  bottom: "inception_3a/5x5_reduce"
  top: "inception_3a/5x5"
  param {
    lr_mult: 1
    decay_mult: 1
  }
  param {
    lr_mult: 2
    decay_mult: 0
  }
  convolution_param {
    num_output: 32
    pad: 2
    kernel_size: 5
    weight_filler {
      type: "xavier"
    }
    bias_filler {
      type: "constant"
      value: 0.2
    }
  }
}
layer {
  name: "inception_3a/relu_5x5"
  type: "ReLU"
  bottom: "inception_3a/5x5"
  top: "inception_3a/5x5"
}
layer {
  name: "inception_3a/pool"
  type: "Pooling"
  bottom: "pool2/3x3_s2"
  top: "inception_3a/pool"
  pooling_param {
    pool: MAX
    kernel_size: 3
    stride: 1
    pad: 1
  }
}
layer {
  name: "inception_3a/pool_proj"
  type: "Convolution"
  bottom: "inception_3a/pool"
  top: "inception_3a/pool_proj"
  param {
    lr_mult: 1
    decay_mult: 1
  }
  param {
    lr_mult: 2
    decay_mult: 0
  }
  convolution_param {
    num_output: 32
    kernel_size: 1
    weight_filler {
      type: "xavier"
    }
    bias_filler {
      type: "constant"
      value: 0.2
    }
  }
}
layer {
  name: "inception_3a/relu_pool_proj"
  type: "ReLU"
  bottom: "inception_3a/pool_proj"
  top: "inception_3a/pool_proj"
}
layer {
  name: "inception_3a/output"
  type: "Concat"
  bottom: "inception_3a/1x1"
  bottom: "inception_3a/3x3"
  bottom: "inception_3a/5x5"
  bottom: "inception_3a/pool_proj"
  top: "inception_3a/output"
}
layer {
  name: "inception_3b/1x1"
  type: "Convolution"
  bottom: "inception_3a/output"
  top: "inception_3b/1x1"
  param {
    lr_mult: 1
    decay_mult: 1
  }
  param {
    lr_mult: 2
    decay_mult: 0
  }
  convolution_param {
    num_output: 128
    kernel_size: 1
    weight_filler {
      type: "xavier"
    }
    bias_filler {
      type: "constant"
      value: 0.2
    }
  }
}
layer {
  name: "inception_3b/relu_1x1"
  type: "ReLU"
  bottom: "inception_3b/1x1"
  top: "inception_3b/1x1"
}
layer {
  name: "inception_3b/3x3_reduce"
  type: "Convolution"
  bottom: "inception_3a/output"
  top: "inception_3b/3x3_reduce"
  param {
    lr_mult: 1
    decay_mult: 1
  }
  param {
    lr_mult: 2
    decay_mult: 0
  }
  convolution_param {
    num_output: 128
    kernel_size: 1
    weight_filler {
      type: "xavier"
    }
    bias_filler {
      type: "constant"
      value: 0.2
    }
  }
}
layer {
  name: "inception_3b/relu_3x3_reduce"
  type: "ReLU"
  bottom: "inception_3b/3x3_reduce"
  top: "inception_3b/3x3_reduce"
}
layer {
  name: "inception_3b/3x3"
  type: "Convolution"
  bottom: "inception_3b/3x3_reduce"
  top: "inception_3b/3x3"
  param {
    lr_mult: 1
    decay_mult: 1
  }
  param {
    lr_mult: 2
    decay_mult: 0
  }
  convolution_param {
    num_output: 192
    pad: 1
    kernel_size: 3
    weight_filler {
      type: "xavier"
    }
    bias_filler {
      type: "constant"
      value: 0.2
    }
  }
}
layer {
  name: "inception_3b/relu_3x3"
  type: "ReLU"
  bottom: "inception_3b/3x3"
  top: "inception_3b/3x3"
}
layer {
  name: "inception_3b/5x5_reduce"
  type: "Convolution"
  bottom: "inception_3a/output"
  top: "inception_3b/5x5_reduce"
  param {
    lr_mult: 1
    decay_mult: 1
  }
  param {
    lr_mult: 2
    decay_mult: 0
  }
  convolution_param {
    num_output: 32
    kernel_size: 1
    weight_filler {
      type: "xavier"
    }
    bias_filler {
      type: "constant"
      value: 0.2
    }
  }
}
layer {
  name: "inception_3b/relu_5x5_reduce"
  type: "ReLU"
  bottom: "inception_3b/5x5_reduce"
  top: "inception_3b/5x5_reduce"
}
layer {
  name: "inception_3b/5x5"
  type: "Convolution"
  bottom: "inception_3b/5x5_reduce"
  top: "inception_3b/5x5"
  param {
    lr_mult: 1
    decay_mult: 1
  }
  param {
    lr_mult: 2
    decay_mult: 0
  }
  convolution_param {
    num_output: 96
    pad: 2
    kernel_size: 5
    weight_filler {
      type: "xavier"
    }
    bias_filler {
      type: "constant"
      value: 0.2
    }
  }
}
layer {
  name: "inception_3b/relu_5x5"
  type: "ReLU"
  bottom: "inception_3b/5x5"
  top: "inception_3b/5x5"
}
layer {
  name: "inception_3b/pool"
  type: "Pooling"
  bottom: "inception_3a/output"
  top: "inception_3b/pool"
  pooling_param {
    pool: MAX
    kernel_size: 3
    stride: 1
    pad: 1
  }
}
layer {
  name: "inception_3b/pool_proj"
  type: "Convolution"
  bottom: "inception_3b/pool"
  top: "inception_3b/pool_proj"
  param {
    lr_mult: 1
    decay_mult: 1
  }
  param {
    lr_mult: 2
    decay_mult: 0
  }
  convolution_param {
    num_output: 64
    kernel_size: 1
    weight_filler {
      type: "xavier"
    }
    bias_filler {
      type: "constant"
      value: 0.2
    }
  }
}
layer {
  name: "inception_3b/relu_pool_proj"
  type: "ReLU"
  bottom: "inception_3b/pool_proj"
  top: "inception_3b/pool_proj"
}
layer {
  name: "inception_3b/output"
  type: "Concat"
  bottom: "inception_3b/1x1"
  bottom: "inception_3b/3x3"
  bottom: "inception_3b/5x5"
  bottom: "inception_3b/pool_proj"
  top: "inception_3b/output"
}
layer {
  name: "pool3/3x3_s2"
  type: "Pooling"
  bottom: "inception_3b/output"
  top: "pool3/3x3_s2"
  pooling_param {
    pool: MAX
    kernel_size: 3
    stride: 2
  }
}
layer {
  name: "inception_4a/1x1"
  type: "Convolution"
  bottom: "pool3/3x3_s2"
  top: "inception_4a/1x1"
  param {
    lr_mult: 1
    decay_mult: 1
  }
  param {
    lr_mult: 2
    decay_mult: 0
  }
  convolution_param {
    num_output: 192
    kernel_size: 1
    weight_filler {
      type: "xavier"
    }
    bias_filler {
      type: "constant"
      value: 0.2
    }
  }
}
layer {
  name: "inception_4a/relu_1x1"
  type: "ReLU"
  bottom: "inception_4a/1x1"
  top: "inception_4a/1x1"
}
layer {
  name: "inception_4a/3x3_reduce"
  type: "Convolution"
  bottom: "pool3/3x3_s2"
  top: "inception_4a/3x3_reduce"
  param {
    lr_mult: 1
    decay_mult: 1
  }
  param {
    lr_mult: 2
    decay_mult: 0
  }
  convolution_param {
    num_output: 96
    kernel_size: 1
    weight_filler {
      type: "xavier"
    }
    bias_filler {
      type: "constant"
      value: 0.2
    }
  }
}
layer {
  name: "inception_4a/relu_3x3_reduce"
  type: "ReLU"
  bottom: "inception_4a/3x3_reduce"
  top: "inception_4a/3x3_reduce"
}
layer {
  name: "inception_4a/3x3"
  type: "Convolution"
  bottom: "inception_4a/3x3_reduce"
  top: "inception_4a/3x3"
  param {
    lr_mult: 1
    decay_mult: 1
  }
  param {
    lr_mult: 2
    decay_mult: 0
  }
  convolution_param {
    num_output: 208
    pad: 1
    kernel_size: 3
    weight_filler {
      type: "xavier"
    }
    bias_filler {
      type: "constant"
      value: 0.2
    }
  }
}
layer {
  name: "inception_4a/relu_3x3"
  type: "ReLU"
  bottom: "inception_4a/3x3"
  top: "inception_4a/3x3"
}
layer {
  name: "inception_4a/5x5_reduce"
  type: "Convolution"
  bottom: "pool3/3x3_s2"
  top: "inception_4a/5x5_reduce"
  param {
    lr_mult: 1
    decay_mult: 1
  }
  param {
    lr_mult: 2
    decay_mult: 0
  }
  convolution_param {
    num_output: 16
    kernel_size: 1
    weight_filler {
      type: "xavier"
    }
    bias_filler {
      type: "constant"
      value: 0.2
    }
  }
}
layer {
  name: "inception_4a/relu_5x5_reduce"
  type: "ReLU"
  bottom: "inception_4a/5x5_reduce"
  top: "inception_4a/5x5_reduce"
}
layer {
  name: "inception_4a/5x5"
  type: "Convolution"
  bottom: "inception_4a/5x5_reduce"
  top: "inception_4a/5x5"
  param {
    lr_mult: 1
    decay_mult: 1
  }
  param {
    lr_mult: 2
    decay_mult: 0
  }
  convolution_param {
    num_output: 48
    pad: 2
    kernel_size: 5
    weight_filler {
      type: "xavier"
    }
    bias_filler {
      type: "constant"
      value: 0.2
    }
  }
}
layer {
  name: "inception_4a/relu_5x5"
  type: "ReLU"
  bottom: "inception_4a/5x5"
  top: "inception_4a/5x5"
}
layer {
  name: "inception_4a/pool"
  type: "Pooling"
  bottom: "pool3/3x3_s2"
  top: "inception_4a/pool"
  pooling_param {
    pool: MAX
    kernel_size: 3
    stride: 1
    pad: 1
  }
}
layer {
  name: "inception_4a/pool_proj"
  type: "Convolution"
  bottom: "inception_4a/pool"
  top: "inception_4a/pool_proj"
  param {
    lr_mult: 1
    decay_mult: 1
  }
  param {
    lr_mult: 2
    decay_mult: 0
  }
  convolution_param {
    num_output: 64
    kernel_size: 1
    weight_filler {
      type: "xavier"
    }
    bias_filler {
      type: "constant"
      value: 0.2
    }
  }
}
layer {
  name: "inception_4a/relu_pool_proj"
  type: "ReLU"
  bottom: "inception_4a/pool_proj"
  top: "inception_4a/pool_proj"
}
layer {
  name: "inception_4a/output"
  type: "Concat"
  bottom: "inception_4a/1x1"
  bottom: "inception_4a/3x3"
  bottom: "inception_4a/5x5"
  bottom: "inception_4a/pool_proj"
  top: "inception_4a/output"
}
layer {
  name: "loss1/ave_pool"
  type: "Pooling"
  bottom: "inception_4a/output"
  top: "loss1/ave_pool"
  pooling_param {
    pool: AVE
    kernel_size: 5
    stride: 3
  }
}
layer {
  name: "loss1/conv"
  type: "Convolution"
  bottom: "loss1/ave_pool"
  top: "loss1/conv"
  param {
    lr_mult: 1
    decay_mult: 1
  }
  param {
    lr_mult: 2
    decay_mult: 0
  }
  convolution_param {
    num_output: 128
    kernel_size: 1
    weight_filler {
      type: "xavier"
    }
    bias_filler {
      type: "constant"
      value: 0.2
    }
  }
}
layer {
  name: "loss1/relu_conv"
  type: "ReLU"
  bottom: "loss1/conv"
  top: "loss1/conv"
}
layer {
  name: "loss1/fc"
  type: "InnerProduct"
  bottom: "loss1/conv"
  top: "loss1/fc"
  param {
    lr_mult: 1
    decay_mult: 1
  }
  param {
    lr_mult: 2
    decay_mult: 0
  }
  inner_product_param {
    num_output: 1024
    weight_filler {
      type: "xavier"
    }
    bias_filler {
      type: "constant"
      value: 0.2
    }
  }
}
layer {
  name: "loss1/relu_fc"
  type: "ReLU"
  bottom: "loss1/fc"
  top: "loss1/fc"
}
layer {
  name: "loss1/drop_fc"
  type: "Dropout"
  bottom: "loss1/fc"
  top: "loss1/fc"
  dropout_param {
    dropout_ratio: 0.7
  }
}
layer {
  name: "loss1/classifier"
  type: "InnerProduct"
  bottom: "loss1/fc"
  top: "loss1/classifier"
  param {
    lr_mult: 1
    decay_mult: 1
  }
  param {
    lr_mult: 2
    decay_mult: 0
  }
  inner_product_param {
    num_output: 1000
    weight_filler {
      type: "xavier"
    }
    bias_filler {
      type: "constant"
      value: 0
    }
  }
}
layer {
  name: "loss1/loss"
  type: "SoftmaxWithLoss"
  bottom: "loss1/classifier"
  bottom: "label"
  top: "loss1/loss1"
  loss_weight: 0.3
}
layer {
  name: "inception_4b/1x1"
  type: "Convolution"
  bottom: "inception_4a/output"
  top: "inception_4b/1x1"
  param {
    lr_mult: 1
    decay_mult: 1
  }
  param {
    lr_mult: 2
    decay_mult: 0
  }
  convolution_param {
    num_output: 160
    kernel_size: 1
    weight_filler {
      type: "xavier"
    }
    bias_filler {
      type: "constant"
      value: 0.2
    }
  }
}
layer {
  name: "inception_4b/relu_1x1"
  type: "ReLU"
  bottom: "inception_4b/1x1"
  top: "inception_4b/1x1"
}
layer {
  name: "inception_4b/3x3_reduce"
  type: "Convolution"
  bottom: "inception_4a/output"
  top: "inception_4b/3x3_reduce"
  param {
    lr_mult: 1
    decay_mult: 1
  }
  param {
    lr_mult: 2
    decay_mult: 0
  }
  convolution_param {
    num_output: 112
    kernel_size: 1
    weight_filler {
      type: "xavier"
    }
    bias_filler {
      type: "constant"
      value: 0.2
    }
  }
}
layer {
  name: "inception_4b/relu_3x3_reduce"
  type: "ReLU"
  bottom: "inception_4b/3x3_reduce"
  top: "inception_4b/3x3_reduce"
}
layer {
  name: "inception_4b/3x3"
  type: "Convolution"
  bottom: "inception_4b/3x3_reduce"
  top: "inception_4b/3x3"
  param {
    lr_mult: 1
    decay_mult: 1
  }
  param {
    lr_mult: 2
    decay_mult: 0
  }
  convolution_param {
    num_output: 224
    pad: 1
    kernel_size: 3
    weight_filler {
      type: "xavier"
    }
    bias_filler {
      type: "constant"
      value: 0.2
    }
  }
}
layer {
  name: "inception_4b/relu_3x3"
  type: "ReLU"
  bottom: "inception_4b/3x3"
  top: "inception_4b/3x3"
}
layer {
  name: "inception_4b/5x5_reduce"
  type: "Convolution"
  bottom: "inception_4a/output"
  top: "inception_4b/5x5_reduce"
  param {
    lr_mult: 1
    decay_mult: 1
  }
  param {
    lr_mult: 2
    decay_mult: 0
  }
  convolution_param {
    num_output: 24
    kernel_size: 1
    weight_filler {
      type: "xavier"
    }
    bias_filler {
      type: "constant"
      value: 0.2
    }
  }
}
layer {
  name: "inception_4b/relu_5x5_reduce"
  type: "ReLU"
  bottom: "inception_4b/5x5_reduce"
  top: "inception_4b/5x5_reduce"
}
layer {
  name: "inception_4b/5x5"
  type: "Convolution"
  bottom: "inception_4b/5x5_reduce"
  top: "inception_4b/5x5"
  param {
    lr_mult: 1
    decay_mult: 1
  }
  param {
    lr_mult: 2
    decay_mult: 0
  }
  convolution_param {
    num_output: 64
    pad: 2
    kernel_size: 5
    weight_filler {
      type: "xavier"
    }
    bias_filler {
      type: "constant"
      value: 0.2
    }
  }
}
layer {
  name: "inception_4b/relu_5x5"
  type: "ReLU"
  bottom: "inception_4b/5x5"
  top: "inception_4b/5x5"
}
layer {
  name: "inception_4b/pool"
  type: "Pooling"
  bottom: "inception_4a/output"
  top: "inception_4b/pool"
  pooling_param {
    pool: MAX
    kernel_size: 3
    stride: 1
    pad: 1
  }
}
layer {
  name: "inception_4b/pool_proj"
  type: "Convolution"
  bottom: "inception_4b/pool"
  top: "inception_4b/pool_proj"
  param {
    lr_mult: 1
    decay_mult: 1
  }
  param {
    lr_mult: 2
    decay_mult: 0
  }
  convolution_param {
    num_output: 64
    kernel_size: 1
    weight_filler {
      type: "xavier"
    }
    bias_filler {
      type: "constant"
      value: 0.2
    }
  }
}
layer {
  name: "inception_4b/relu_pool_proj"
  type: "ReLU"
  bottom: "inception_4b/pool_proj"
  top: "inception_4b/pool_proj"
}
layer {
  name: "inception_4b/output"
  type: "Concat"
  bottom: "inception_4b/1x1"
  bottom: "inception_4b/3x3"
  bottom: "inception_4b/5x5"
  bottom: "inception_4b/pool_proj"
  top: "inception_4b/output"
}
layer {
  name: "inception_4c/1x1"
  type: "Convolution"
  bottom: "inception_4b/output"
  top: "inception_4c/1x1"
  param {
    lr_mult: 1
    decay_mult: 1
  }
  param {
    lr_mult: 2
    decay_mult: 0
  }
  convolution_param {
    num_output: 128
    kernel_size: 1
    weight_filler {
      type: "xavier"
    }
    bias_filler {
      type: "constant"
      value: 0.2
    }
  }
}
layer {
  name: "inception_4c/relu_1x1"
  type: "ReLU"
  bottom: "inception_4c/1x1"
  top: "inception_4c/1x1"
}
layer {
  name: "inception_4c/3x3_reduce"
  type: "Convolution"
  bottom: "inception_4b/output"
  top: "inception_4c/3x3_reduce"
  param {
    lr_mult: 1
    decay_mult: 1
  }
  param {
    lr_mult: 2
    decay_mult: 0
  }
  convolution_param {
    num_output: 128
    kernel_size: 1
    weight_filler {
      type: "xavier"
    }
    bias_filler {
      type: "constant"
      value: 0.2
    }
  }
}
layer {
  name: "inception_4c/relu_3x3_reduce"
  type: "ReLU"
  bottom: "inception_4c/3x3_reduce"
  top: "inception_4c/3x3_reduce"
}
layer {
  name: "inception_4c/3x3"
  type: "Convolution"
  bottom: "inception_4c/3x3_reduce"
  top: "inception_4c/3x3"
  param {
    lr_mult: 1
    decay_mult: 1
  }
  param {
    lr_mult: 2
    decay_mult: 0
  }
  convolution_param {
    num_output: 256
    pad: 1
    kernel_size: 3
    weight_filler {
      type: "xavier"
    }
    bias_filler {
      type: "constant"
      value: 0.2
    }
  }
}
layer {
  name: "inception_4c/relu_3x3"
  type: "ReLU"
  bottom: "inception_4c/3x3"
  top: "inception_4c/3x3"
}
layer {
  name: "inception_4c/5x5_reduce"
  type: "Convolution"
  bottom: "inception_4b/output"
  top: "inception_4c/5x5_reduce"
  param {
    lr_mult: 1
    decay_mult: 1
  }
  param {
    lr_mult: 2
    decay_mult: 0
  }
  convolution_param {
    num_output: 24
    kernel_size: 1
    weight_filler {
      type: "xavier"
    }
    bias_filler {
      type: "constant"
      value: 0.2
    }
  }
}
layer {
  name: "inception_4c/relu_5x5_reduce"
  type: "ReLU"
  bottom: "inception_4c/5x5_reduce"
  top: "inception_4c/5x5_reduce"
}
layer {
  name: "inception_4c/5x5"
  type: "Convolution"
  bottom: "inception_4c/5x5_reduce"
  top: "inception_4c/5x5"
  param {
    lr_mult: 1
    decay_mult: 1
  }
  param {
    lr_mult: 2
    decay_mult: 0
  }
  convolution_param {
    num_output: 64
    pad: 2
    kernel_size: 5
    weight_filler {
      type: "xavier"
    }
    bias_filler {
      type: "constant"
      value: 0.2
    }
  }
}
layer {
  name: "inception_4c/relu_5x5"
  type: "ReLU"
  bottom: "inception_4c/5x5"
  top: "inception_4c/5x5"
}
layer {
  name: "inception_4c/pool"
  type: "Pooling"
  bottom: "inception_4b/output"
  top: "inception_4c/pool"
  pooling_param {
    pool: MAX
    kernel_size: 3
    stride: 1
    pad: 1
  }
}
layer {
  name: "inception_4c/pool_proj"
  type: "Convolution"
  bottom: "inception_4c/pool"
  top: "inception_4c/pool_proj"
  param {
    lr_mult: 1
    decay_mult: 1
  }
  param {
    lr_mult: 2
    decay_mult: 0
  }
  convolution_param {
    num_output: 64
    kernel_size: 1
    weight_filler {
      type: "xavier"
    }
    bias_filler {
      type: "constant"
      value: 0.2
    }
  }
}
layer {
  name: "inception_4c/relu_pool_proj"
  type: "ReLU"
  bottom: "inception_4c/pool_proj"
  top: "inception_4c/pool_proj"
}
layer {
  name: "inception_4c/output"
  type: "Concat"
  bottom: "inception_4c/1x1"
  bottom: "inception_4c/3x3"
  bottom: "inception_4c/5x5"
  bottom: "inception_4c/pool_proj"
  top: "inception_4c/output"
}
layer {
  name: "inception_4d/1x1"
  type: "Convolution"
  bottom: "inception_4c/output"
  top: "inception_4d/1x1"
  param {
    lr_mult: 1
    decay_mult: 1
  }
  param {
    lr_mult: 2
    decay_mult: 0
  }
  convolution_param {
    num_output: 112
    kernel_size: 1
    weight_filler {
      type: "xavier"
    }
    bias_filler {
      type: "constant"
      value: 0.2
    }
  }
}
layer {
  name: "inception_4d/relu_1x1"
  type: "ReLU"
  bottom: "inception_4d/1x1"
  top: "inception_4d/1x1"
}
layer {
  name: "inception_4d/3x3_reduce"
  type: "Convolution"
  bottom: "inception_4c/output"
  top: "inception_4d/3x3_reduce"
  param {
    lr_mult: 1
    decay_mult: 1
  }
  param {
    lr_mult: 2
    decay_mult: 0
  }
  convolution_param {
    num_output: 144
    kernel_size: 1
    weight_filler {
      type: "xavier"
    }
    bias_filler {
      type: "constant"
      value: 0.2
    }
  }
}
layer {
  name: "inception_4d/relu_3x3_reduce"
  type: "ReLU"
  bottom: "inception_4d/3x3_reduce"
  top: "inception_4d/3x3_reduce"
}
layer {
  name: "inception_4d/3x3"
  type: "Convolution"
  bottom: "inception_4d/3x3_reduce"
  top: "inception_4d/3x3"
  param {
    lr_mult: 1
    decay_mult: 1
  }
  param {
    lr_mult: 2
    decay_mult: 0
  }
  convolution_param {
    num_output: 288
    pad: 1
    kernel_size: 3
    weight_filler {
      type: "xavier"
    }
    bias_filler {
      type: "constant"
      value: 0.2
    }
  }
}
layer {
  name: "inception_4d/relu_3x3"
  type: "ReLU"
  bottom: "inception_4d/3x3"
  top: "inception_4d/3x3"
}
layer {
  name: "inception_4d/5x5_reduce"
  type: "Convolution"
  bottom: "inception_4c/output"
  top: "inception_4d/5x5_reduce"
  param {
    lr_mult: 1
    decay_mult: 1
  }
  param {
    lr_mult: 2
    decay_mult: 0
  }
  convolution_param {
    num_output: 32
    kernel_size: 1
    weight_filler {
      type: "xavier"
    }
    bias_filler {
      type: "constant"
      value: 0.2
    }
  }
}
layer {
  name: "inception_4d/relu_5x5_reduce"
  type: "ReLU"
  bottom: "inception_4d/5x5_reduce"
  top: "inception_4d/5x5_reduce"
}
layer {
  name: "inception_4d/5x5"
  type: "Convolution"
  bottom: "inception_4d/5x5_reduce"
  top: "inception_4d/5x5"
  param {
    lr_mult: 1
    decay_mult: 1
  }
  param {
    lr_mult: 2
    decay_mult: 0
  }
  convolution_param {
    num_output: 64
    pad: 2
    kernel_size: 5
    weight_filler {
      type: "xavier"
    }
    bias_filler {
      type: "constant"
      value: 0.2
    }
  }
}
layer {
  name: "inception_4d/relu_5x5"
  type: "ReLU"
  bottom: "inception_4d/5x5"
  top: "inception_4d/5x5"
}
layer {
  name: "inception_4d/pool"
  type: "Pooling"
  bottom: "inception_4c/output"
  top: "inception_4d/pool"
  pooling_param {
    pool: MAX
    kernel_size: 3
    stride: 1
    pad: 1
  }
}
layer {
  name: "inception_4d/pool_proj"
  type: "Convolution"
  bottom: "inception_4d/pool"
  top: "inception_4d/pool_proj"
  param {
    lr_mult: 1
    decay_mult: 1
  }
  param {
    lr_mult: 2
    decay_mult: 0
  }
  convolution_param {
    num_output: 64
    kernel_size: 1
    weight_filler {
      type: "xavier"
    }
    bias_filler {
      type: "constant"
      value: 0.2
    }
  }
}
layer {
  name: "inception_4d/relu_pool_proj"
  type: "ReLU"
  bottom: "inception_4d/pool_proj"
  top: "inception_4d/pool_proj"
}
layer {
  name: "inception_4d/output"
  type: "Concat"
  bottom: "inception_4d/1x1"
  bottom: "inception_4d/3x3"
  bottom: "inception_4d/5x5"
  bottom: "inception_4d/pool_proj"
  top: "inception_4d/output"
}
layer {
  name: "loss2/ave_pool"
  type: "Pooling"
  bottom: "inception_4d/output"
  top: "loss2/ave_pool"
  pooling_param {
    pool: AVE
    kernel_size: 5
    stride: 3
  }
}
layer {
  name: "loss2/conv"
  type: "Convolution"
  bottom: "loss2/ave_pool"
  top: "loss2/conv"
  param {
    lr_mult: 1
    decay_mult: 1
  }
  param {
    lr_mult: 2
    decay_mult: 0
  }
  convolution_param {
    num_output: 128
    kernel_size: 1
    weight_filler {
      type: "xavier"
    }
    bias_filler {
      type: "constant"
      value: 0.2
    }
  }
}
layer {
  name: "loss2/relu_conv"
  type: "ReLU"
  bottom: "loss2/conv"
  top: "loss2/conv"
}
layer {
  name: "loss2/fc"
  type: "InnerProduct"
  bottom: "loss2/conv"
  top: "loss2/fc"
  param {
    lr_mult: 1
    decay_mult: 1
  }
  param {
    lr_mult: 2
    decay_mult: 0
  }
  inner_product_param {
    num_output: 1024
    weight_filler {
      type: "xavier"
    }
    bias_filler {
      type: "constant"
      value: 0.2
    }
  }
}
layer {
  name: "loss2/relu_fc"
  type: "ReLU"
  bottom: "loss2/fc"
  top: "loss2/fc"
}
layer {
  name: "loss2/drop_fc"
  type: "Dropout"
  bottom: "loss2/fc"
  top: "loss2/fc"
  dropout_param {
    dropout_ratio: 0.7
  }
}
layer {
  name: "loss2/classifier"
  type: "InnerProduct"
  bottom: "loss2/fc"
  top: "loss2/classifier"
  param {
    lr_mult: 1
    decay_mult: 1
  }
  param {
    lr_mult: 2
    decay_mult: 0
  }
  inner_product_param {
    num_output: 1000
    weight_filler {
      type: "xavier"
    }
    bias_filler {
      type: "constant"
      value: 0
    }
  }
}
layer {
  name: "loss2/loss"
  type: "SoftmaxWithLoss"
  bottom: "loss2/classifier"
  bottom: "label"
  top: "loss2/loss1"
  loss_weight: 0.3
}
layer {
  name: "inception_4e/1x1"
  type: "Convolution"
  bottom: "inception_4d/output"
  top: "inception_4e/1x1"
  param {
    lr_mult: 1
    decay_mult: 1
  }
  param {
    lr_mult: 2
    decay_mult: 0
  }
  convolution_param {
    num_output: 256
    kernel_size: 1
    weight_filler {
      type: "xavier"
    }
    bias_filler {
      type: "constant"
      value: 0.2
    }
  }
}
layer {
  name: "inception_4e/relu_1x1"
  type: "ReLU"
  bottom: "inception_4e/1x1"
  top: "inception_4e/1x1"
}
layer {
  name: "inception_4e/3x3_reduce"
  type: "Convolution"
  bottom: "inception_4d/output"
  top: "inception_4e/3x3_reduce"
  param {
    lr_mult: 1
    decay_mult: 1
  }
  param {
    lr_mult: 2
    decay_mult: 0
  }
  convolution_param {
    num_output: 160
    kernel_size: 1
    weight_filler {
      type: "xavier"
    }
    bias_filler {
      type: "constant"
      value: 0.2
    }
  }
}
layer {
  name: "inception_4e/relu_3x3_reduce"
  type: "ReLU"
  bottom: "inception_4e/3x3_reduce"
  top: "inception_4e/3x3_reduce"
}
layer {
  name: "inception_4e/3x3"
  type: "Convolution"
  bottom: "inception_4e/3x3_reduce"
  top: "inception_4e/3x3"
  param {
    lr_mult: 1
    decay_mult: 1
  }
  param {
    lr_mult: 2
    decay_mult: 0
  }
  convolution_param {
    num_output: 320
    pad: 1
    kernel_size: 3
    weight_filler {
      type: "xavier"
    }
    bias_filler {
      type: "constant"
      value: 0.2
    }
  }
}
layer {
  name: "inception_4e/relu_3x3"
  type: "ReLU"
  bottom: "inception_4e/3x3"
  top: "inception_4e/3x3"
}
layer {
  name: "inception_4e/5x5_reduce"
  type: "Convolution"
  bottom: "inception_4d/output"
  top: "inception_4e/5x5_reduce"
  param {
    lr_mult: 1
    decay_mult: 1
  }
  param {
    lr_mult: 2
    decay_mult: 0
  }
  convolution_param {
    num_output: 32
    kernel_size: 1
    weight_filler {
      type: "xavier"
    }
    bias_filler {
      type: "constant"
      value: 0.2
    }
  }
}
layer {
  name: "inception_4e/relu_5x5_reduce"
  type: "ReLU"
  bottom: "inception_4e/5x5_reduce"
  top: "inception_4e/5x5_reduce"
}
layer {
  name: "inception_4e/5x5"
  type: "Convolution"
  bottom: "inception_4e/5x5_reduce"
  top: "inception_4e/5x5"
  param {
    lr_mult: 1
    decay_mult: 1
  }
  param {
    lr_mult: 2
    decay_mult: 0
  }
  convolution_param {
    num_output: 128
    pad: 2
    kernel_size: 5
    weight_filler {
      type: "xavier"
    }
    bias_filler {
      type: "constant"
      value: 0.2
    }
  }
}
layer {
  name: "inception_4e/relu_5x5"
  type: "ReLU"
  bottom: "inception_4e/5x5"
  top: "inception_4e/5x5"
}
layer {
  name: "inception_4e/pool"
  type: "Pooling"
  bottom: "inception_4d/output"
  top: "inception_4e/pool"
  pooling_param {
    p
I0619 10:19:04.299139  1973 layer_factory.hpp:77] Creating layer data
I0619 10:19:04.310042  1973 net.cpp:94] Creating Layer data
I0619 10:19:04.310091  1973 net.cpp:409] data -> data
I0619 10:19:04.310153  1973 net.cpp:409] data -> label
I0619 10:19:04.311779  1979 db_lmdb.cpp:35] Opened lmdb /home/wenxizhu/wenxi/internal-intel-caffe/examples/imagenet/ilsvrc12_train_lmdb
I0619 10:19:04.316681  1973 data_layer.cpp:76] output data size: 96,3,224,224
I0619 10:19:04.474723  1973 net.cpp:144] Setting up data
I0619 10:19:04.474804  1973 net.cpp:151] Top shape: 96 3 224 224 (14450688)
I0619 10:19:04.474813  1973 net.cpp:151] Top shape: 96 (96)
I0619 10:19:04.474818  1973 net.cpp:159] Memory required for data: 57803136
I0619 10:19:04.474839  1973 layer_factory.hpp:77] Creating layer label_data_1_split
I0619 10:19:04.474861  1973 net.cpp:94] Creating Layer label_data_1_split
I0619 10:19:04.474871  1973 net.cpp:435] label_data_1_split <- label
I0619 10:19:04.474894  1973 net.cpp:409] label_data_1_split -> label_data_1_split_0
I0619 10:19:04.474908  1973 net.cpp:409] label_data_1_split -> label_data_1_split_1
I0619 10:19:04.474916  1973 net.cpp:409] label_data_1_split -> label_data_1_split_2
I0619 10:19:04.475028  1973 net.cpp:144] Setting up label_data_1_split
I0619 10:19:04.475040  1973 net.cpp:151] Top shape: 96 (96)
I0619 10:19:04.475045  1973 net.cpp:151] Top shape: 96 (96)
I0619 10:19:04.475050  1973 net.cpp:151] Top shape: 96 (96)
I0619 10:19:04.475054  1973 net.cpp:159] Memory required for data: 57804288
I0619 10:19:04.475059  1973 layer_factory.hpp:77] Creating layer conv1/7x7_s2
I0619 10:19:04.475092  1973 net.cpp:94] Creating Layer conv1/7x7_s2
I0619 10:19:04.475097  1973 net.cpp:435] conv1/7x7_s2 <- data
I0619 10:19:04.475106  1973 net.cpp:409] conv1/7x7_s2 -> conv1/7x7_s2
I0619 10:19:04.599421  1973 net.cpp:144] Setting up conv1/7x7_s2
I0619 10:19:04.599467  1973 net.cpp:151] Top shape: 96 64 112 112 (77070336)
I0619 10:19:04.599476  1973 net.cpp:159] Memory required for data: 366085632
I0619 10:19:04.599531  1973 layer_factory.hpp:77] Creating layer conv1/relu_7x7
I0619 10:19:04.599553  1973 net.cpp:94] Creating Layer conv1/relu_7x7
I0619 10:19:04.599565  1973 net.cpp:435] conv1/relu_7x7 <- conv1/7x7_s2
I0619 10:19:04.599578  1973 net.cpp:396] conv1/relu_7x7 -> conv1/7x7_s2 (in-place)
I0619 10:19:04.599617  1973 net.cpp:144] Setting up conv1/relu_7x7
I0619 10:19:04.599627  1973 net.cpp:151] Top shape: 96 64 112 112 (77070336)
I0619 10:19:04.599634  1973 net.cpp:159] Memory required for data: 674366976
I0619 10:19:04.599642  1973 layer_factory.hpp:77] Creating layer pool1/3x3_s2
I0619 10:19:04.599680  1973 net.cpp:94] Creating Layer pool1/3x3_s2
I0619 10:19:04.599685  1973 net.cpp:435] pool1/3x3_s2 <- conv1/7x7_s2
I0619 10:19:04.599694  1973 net.cpp:409] pool1/3x3_s2 -> pool1/3x3_s2
I0619 10:19:04.599792  1973 net.cpp:144] Setting up pool1/3x3_s2
I0619 10:19:04.599804  1973 net.cpp:151] Top shape: 96 64 56 56 (19267584)
I0619 10:19:04.599808  1973 net.cpp:159] Memory required for data: 751437312
I0619 10:19:04.599813  1973 layer_factory.hpp:77] Creating layer pool1/norm1
I0619 10:19:04.599833  1973 net.cpp:94] Creating Layer pool1/norm1
I0619 10:19:04.599838  1973 net.cpp:435] pool1/norm1 <- pool1/3x3_s2
I0619 10:19:04.599845  1973 net.cpp:409] pool1/norm1 -> pool1/norm1
I0619 10:19:04.599908  1973 net.cpp:144] Setting up pool1/norm1
I0619 10:19:04.599922  1973 net.cpp:151] Top shape: 96 64 56 56 (19267584)
I0619 10:19:04.599927  1973 net.cpp:159] Memory required for data: 828507648
I0619 10:19:04.599932  1973 layer_factory.hpp:77] Creating layer conv2/3x3_reduce
I0619 10:19:04.599949  1973 net.cpp:94] Creating Layer conv2/3x3_reduce
I0619 10:19:04.599956  1973 net.cpp:435] conv2/3x3_reduce <- pool1/norm1
I0619 10:19:04.599964  1973 net.cpp:409] conv2/3x3_reduce -> conv2/3x3_reduce
I0619 10:19:04.625598  1973 net.cpp:144] Setting up conv2/3x3_reduce
I0619 10:19:04.625635  1973 net.cpp:151] Top shape: 96 64 56 56 (19267584)
I0619 10:19:04.625644  1973 net.cpp:159] Memory required for data: 905577984
I0619 10:19:04.625664  1973 layer_factory.hpp:77] Creating layer conv2/relu_3x3_reduce
I0619 10:19:04.625680  1973 net.cpp:94] Creating Layer conv2/relu_3x3_reduce
I0619 10:19:04.625689  1973 net.cpp:435] conv2/relu_3x3_reduce <- conv2/3x3_reduce
I0619 10:19:04.625701  1973 net.cpp:396] conv2/relu_3x3_reduce -> conv2/3x3_reduce (in-place)
I0619 10:19:04.625720  1973 net.cpp:144] Setting up conv2/relu_3x3_reduce
I0619 10:19:04.625731  1973 net.cpp:151] Top shape: 96 64 56 56 (19267584)
I0619 10:19:04.625738  1973 net.cpp:159] Memory required for data: 982648320
I0619 10:19:04.625744  1973 layer_factory.hpp:77] Creating layer conv2/3x3
I0619 10:19:04.625766  1973 net.cpp:94] Creating Layer conv2/3x3
I0619 10:19:04.625774  1973 net.cpp:435] conv2/3x3 <- conv2/3x3_reduce
I0619 10:19:04.625788  1973 net.cpp:409] conv2/3x3 -> conv2/3x3
I0619 10:19:04.768682  1973 net.cpp:144] Setting up conv2/3x3
I0619 10:19:04.768710  1973 net.cpp:151] Top shape: 96 192 56 56 (57802752)
I0619 10:19:04.768718  1973 net.cpp:159] Memory required for data: 1213859328
I0619 10:19:04.768734  1973 layer_factory.hpp:77] Creating layer conv2/relu_3x3
I0619 10:19:04.768748  1973 net.cpp:94] Creating Layer conv2/relu_3x3
I0619 10:19:04.768754  1973 net.cpp:435] conv2/relu_3x3 <- conv2/3x3
I0619 10:19:04.768764  1973 net.cpp:396] conv2/relu_3x3 -> conv2/3x3 (in-place)
I0619 10:19:04.768777  1973 net.cpp:144] Setting up conv2/relu_3x3
I0619 10:19:04.768785  1973 net.cpp:151] Top shape: 96 192 56 56 (57802752)
I0619 10:19:04.768790  1973 net.cpp:159] Memory required for data: 1445070336
I0619 10:19:04.768795  1973 layer_factory.hpp:77] Creating layer conv2/norm2
I0619 10:19:04.768806  1973 net.cpp:94] Creating Layer conv2/norm2
I0619 10:19:04.768811  1973 net.cpp:435] conv2/norm2 <- conv2/3x3
I0619 10:19:04.768821  1973 net.cpp:409] conv2/norm2 -> conv2/norm2
I0619 10:19:04.768944  1973 net.cpp:144] Setting up conv2/norm2
I0619 10:19:04.768959  1973 net.cpp:151] Top shape: 96 192 56 56 (57802752)
I0619 10:19:04.768965  1973 net.cpp:159] Memory required for data: 1676281344
I0619 10:19:04.768970  1973 layer_factory.hpp:77] Creating layer pool2/3x3_s2
I0619 10:19:04.768981  1973 net.cpp:94] Creating Layer pool2/3x3_s2
I0619 10:19:04.768987  1973 net.cpp:435] pool2/3x3_s2 <- conv2/norm2
I0619 10:19:04.768996  1973 net.cpp:409] pool2/3x3_s2 -> pool2/3x3_s2
I0619 10:19:04.769049  1973 net.cpp:144] Setting up pool2/3x3_s2
I0619 10:19:04.769059  1973 net.cpp:151] Top shape: 96 192 28 28 (14450688)
I0619 10:19:04.769063  1973 net.cpp:159] Memory required for data: 1734084096
I0619 10:19:04.769068  1973 layer_factory.hpp:77] Creating layer pool2/3x3_s2_pool2/3x3_s2_0_split
I0619 10:19:04.769079  1973 net.cpp:94] Creating Layer pool2/3x3_s2_pool2/3x3_s2_0_split
I0619 10:19:04.769084  1973 net.cpp:435] pool2/3x3_s2_pool2/3x3_s2_0_split <- pool2/3x3_s2
I0619 10:19:04.769093  1973 net.cpp:409] pool2/3x3_s2_pool2/3x3_s2_0_split -> pool2/3x3_s2_pool2/3x3_s2_0_split_0
I0619 10:19:04.769101  1973 net.cpp:409] pool2/3x3_s2_pool2/3x3_s2_0_split -> pool2/3x3_s2_pool2/3x3_s2_0_split_1
I0619 10:19:04.769111  1973 net.cpp:409] pool2/3x3_s2_pool2/3x3_s2_0_split -> pool2/3x3_s2_pool2/3x3_s2_0_split_2
I0619 10:19:04.769119  1973 net.cpp:409] pool2/3x3_s2_pool2/3x3_s2_0_split -> pool2/3x3_s2_pool2/3x3_s2_0_split_3
I0619 10:19:04.769953  1973 net.cpp:144] Setting up pool2/3x3_s2_pool2/3x3_s2_0_split
I0619 10:19:04.769970  1973 net.cpp:151] Top shape: 96 192 28 28 (14450688)
I0619 10:19:04.769979  1973 net.cpp:151] Top shape: 96 192 28 28 (14450688)
I0619 10:19:04.769987  1973 net.cpp:151] Top shape: 96 192 28 28 (14450688)
I0619 10:19:04.769994  1973 net.cpp:151] Top shape: 96 192 28 28 (14450688)
I0619 10:19:04.769999  1973 net.cpp:159] Memory required for data: 1965295104
I0619 10:19:04.770004  1973 layer_factory.hpp:77] Creating layer inception_3a/1x1
I0619 10:19:04.770021  1973 net.cpp:94] Creating Layer inception_3a/1x1
I0619 10:19:04.770028  1973 net.cpp:435] inception_3a/1x1 <- pool2/3x3_s2_pool2/3x3_s2_0_split_0
I0619 10:19:04.770040  1973 net.cpp:409] inception_3a/1x1 -> inception_3a/1x1
I0619 10:19:04.788362  1973 net.cpp:144] Setting up inception_3a/1x1
I0619 10:19:04.788391  1973 net.cpp:151] Top shape: 96 64 28 28 (4816896)
I0619 10:19:04.788398  1973 net.cpp:159] Memory required for data: 1984562688
I0619 10:19:04.788410  1973 layer_factory.hpp:77] Creating layer inception_3a/relu_1x1
I0619 10:19:04.788424  1973 net.cpp:94] Creating Layer inception_3a/relu_1x1
I0619 10:19:04.788430  1973 net.cpp:435] inception_3a/relu_1x1 <- inception_3a/1x1
I0619 10:19:04.788439  1973 net.cpp:396] inception_3a/relu_1x1 -> inception_3a/1x1 (in-place)
I0619 10:19:04.788453  1973 net.cpp:144] Setting up inception_3a/relu_1x1
I0619 10:19:04.788461  1973 net.cpp:151] Top shape: 96 64 28 28 (4816896)
I0619 10:19:04.788466  1973 net.cpp:159] Memory required for data: 2003830272
I0619 10:19:04.788471  1973 layer_factory.hpp:77] Creating layer inception_3a/3x3_reduce
I0619 10:19:04.788489  1973 net.cpp:94] Creating Layer inception_3a/3x3_reduce
I0619 10:19:04.788496  1973 net.cpp:435] inception_3a/3x3_reduce <- pool2/3x3_s2_pool2/3x3_s2_0_split_1
I0619 10:19:04.788506  1973 net.cpp:409] inception_3a/3x3_reduce -> inception_3a/3x3_reduce
I0619 10:19:04.808468  1973 net.cpp:144] Setting up inception_3a/3x3_reduce
I0619 10:19:04.808504  1973 net.cpp:151] Top shape: 96 96 28 28 (7225344)
I0619 10:19:04.808513  1973 net.cpp:159] Memory required for data: 2032731648
I0619 10:19:04.808537  1973 layer_factory.hpp:77] Creating layer inception_3a/relu_3x3_reduce
I0619 10:19:04.808560  1973 net.cpp:94] Creating Layer inception_3a/relu_3x3_reduce
I0619 10:19:04.808585  1973 net.cpp:435] inception_3a/relu_3x3_reduce <- inception_3a/3x3_reduce
I0619 10:19:04.808594  1973 net.cpp:396] inception_3a/relu_3x3_reduce -> inception_3a/3x3_reduce (in-place)
I0619 10:19:04.808609  1973 net.cpp:144] Setting up inception_3a/relu_3x3_reduce
I0619 10:19:04.808645  1973 net.cpp:151] Top shape: 96 96 28 28 (7225344)
I0619 10:19:04.808652  1973 net.cpp:159] Memory required for data: 2061633024
I0619 10:19:04.808656  1973 layer_factory.hpp:77] Creating layer inception_3a/3x3
I0619 10:19:04.808677  1973 net.cpp:94] Creating Layer inception_3a/3x3
I0619 10:19:04.808683  1973 net.cpp:435] inception_3a/3x3 <- inception_3a/3x3_reduce
I0619 10:19:04.808696  1973 net.cpp:409] inception_3a/3x3 -> inception_3a/3x3
I0619 10:19:04.848664  1973 net.cpp:144] Setting up inception_3a/3x3
I0619 10:19:04.848701  1973 net.cpp:151] Top shape: 96 128 28 28 (9633792)
I0619 10:19:04.848708  1973 net.cpp:159] Memory required for data: 2100168192
I0619 10:19:04.848726  1973 layer_factory.hpp:77] Creating layer inception_3a/relu_3x3
I0619 10:19:04.848757  1973 net.cpp:94] Creating Layer inception_3a/relu_3x3
I0619 10:19:04.848763  1973 net.cpp:435] inception_3a/relu_3x3 <- inception_3a/3x3
I0619 10:19:04.848783  1973 net.cpp:396] inception_3a/relu_3x3 -> inception_3a/3x3 (in-place)
I0619 10:19:04.848798  1973 net.cpp:144] Setting up inception_3a/relu_3x3
I0619 10:19:04.848806  1973 net.cpp:151] Top shape: 96 128 28 28 (9633792)
I0619 10:19:04.848811  1973 net.cpp:159] Memory required for data: 2138703360
I0619 10:19:04.848815  1973 layer_factory.hpp:77] Creating layer inception_3a/5x5_reduce
I0619 10:19:04.848834  1973 net.cpp:94] Creating Layer inception_3a/5x5_reduce
I0619 10:19:04.848841  1973 net.cpp:435] inception_3a/5x5_reduce <- pool2/3x3_s2_pool2/3x3_s2_0_split_2
I0619 10:19:04.848850  1973 net.cpp:409] inception_3a/5x5_reduce -> inception_3a/5x5_reduce
I0619 10:19:04.867746  1973 net.cpp:144] Setting up inception_3a/5x5_reduce
I0619 10:19:04.867777  1973 net.cpp:151] Top shape: 96 16 28 28 (1204224)
I0619 10:19:04.867784  1973 net.cpp:159] Memory required for data: 2143520256
I0619 10:19:04.867797  1973 layer_factory.hpp:77] Creating layer inception_3a/relu_5x5_reduce
I0619 10:19:04.867815  1973 net.cpp:94] Creating Layer inception_3a/relu_5x5_reduce
I0619 10:19:04.867822  1973 net.cpp:435] inception_3a/relu_5x5_reduce <- inception_3a/5x5_reduce
I0619 10:19:04.867832  1973 net.cpp:396] inception_3a/relu_5x5_reduce -> inception_3a/5x5_reduce (in-place)
I0619 10:19:04.867848  1973 net.cpp:144] Setting up inception_3a/relu_5x5_reduce
I0619 10:19:04.867856  1973 net.cpp:151] Top shape: 96 16 28 28 (1204224)
I0619 10:19:04.867861  1973 net.cpp:159] Memory required for data: 2148337152
I0619 10:19:04.867867  1973 layer_factory.hpp:77] Creating layer inception_3a/5x5
I0619 10:19:04.867882  1973 net.cpp:94] Creating Layer inception_3a/5x5
I0619 10:19:04.867888  1973 net.cpp:435] inception_3a/5x5 <- inception_3a/5x5_reduce
I0619 10:19:04.867902  1973 net.cpp:409] inception_3a/5x5 -> inception_3a/5x5
I0619 10:19:04.881212  1973 net.cpp:144] Setting up inception_3a/5x5
I0619 10:19:04.881243  1973 net.cpp:151] Top shape: 96 32 28 28 (2408448)
I0619 10:19:04.881250  1973 net.cpp:159] Memory required for data: 2157970944
I0619 10:19:04.881263  1973 layer_factory.hpp:77] Creating layer inception_3a/relu_5x5
I0619 10:19:04.881280  1973 net.cpp:94] Creating Layer inception_3a/relu_5x5
I0619 10:19:04.881289  1973 net.cpp:435] inception_3a/relu_5x5 <- inception_3a/5x5
I0619 10:19:04.881297  1973 net.cpp:396] inception_3a/relu_5x5 -> inception_3a/5x5 (in-place)
I0619 10:19:04.881314  1973 net.cpp:144] Setting up inception_3a/relu_5x5
I0619 10:19:04.881326  1973 net.cpp:151] Top shape: 96 32 28 28 (2408448)
I0619 10:19:04.881331  1973 net.cpp:159] Memory required for data: 2167604736
I0619 10:19:04.881337  1973 layer_factory.hpp:77] Creating layer inception_3a/pool
I0619 10:19:04.881347  1973 net.cpp:94] Creating Layer inception_3a/pool
I0619 10:19:04.881355  1973 net.cpp:435] inception_3a/pool <- pool2/3x3_s2_pool2/3x3_s2_0_split_3
I0619 10:19:04.881363  1973 net.cpp:409] inception_3a/pool -> inception_3a/pool
I0619 10:19:04.881454  1973 net.cpp:144] Setting up inception_3a/pool
I0619 10:19:04.881469  1973 net.cpp:151] Top shape: 96 192 28 28 (14450688)
I0619 10:19:04.881505  1973 net.cpp:159] Memory required for data: 2225407488
I0619 10:19:04.881512  1973 layer_factory.hpp:77] Creating layer inception_3a/pool_proj
I0619 10:19:04.881533  1973 net.cpp:94] Creating Layer inception_3a/pool_proj
I0619 10:19:04.881541  1973 net.cpp:435] inception_3a/pool_proj <- inception_3a/pool
I0619 10:19:04.881554  1973 net.cpp:409] inception_3a/pool_proj -> inception_3a/pool_proj
I0619 10:19:04.896183  1973 net.cpp:144] Setting up inception_3a/pool_proj
I0619 10:19:04.896224  1973 net.cpp:151] Top shape: 96 32 28 28 (2408448)
I0619 10:19:04.896231  1973 net.cpp:159] Memory required for data: 2235041280
I0619 10:19:04.896250  1973 layer_factory.hpp:77] Creating layer inception_3a/relu_pool_proj
I0619 10:19:04.896268  1973 net.cpp:94] Creating Layer inception_3a/relu_pool_proj
I0619 10:19:04.896276  1973 net.cpp:435] inception_3a/relu_pool_proj <- inception_3a/pool_proj
I0619 10:19:04.896286  1973 net.cpp:396] inception_3a/relu_pool_proj -> inception_3a/pool_proj (in-place)
I0619 10:19:04.896302  1973 net.cpp:144] Setting up inception_3a/relu_pool_proj
I0619 10:19:04.896311  1973 net.cpp:151] Top shape: 96 32 28 28 (2408448)
I0619 10:19:04.896317  1973 net.cpp:159] Memory required for data: 2244675072
I0619 10:19:04.896322  1973 layer_factory.hpp:77] Creating layer inception_3a/output
I0619 10:19:04.896340  1973 net.cpp:94] Creating Layer inception_3a/output
I0619 10:19:04.896347  1973 net.cpp:435] inception_3a/output <- inception_3a/1x1
I0619 10:19:04.896354  1973 net.cpp:435] inception_3a/output <- inception_3a/3x3
I0619 10:19:04.896365  1973 net.cpp:435] inception_3a/output <- inception_3a/5x5
I0619 10:19:04.896373  1973 net.cpp:435] inception_3a/output <- inception_3a/pool_proj
I0619 10:19:04.896380  1973 net.cpp:409] inception_3a/output -> inception_3a/output
I0619 10:19:04.896445  1973 net.cpp:144] Setting up inception_3a/output
I0619 10:19:04.896457  1973 net.cpp:151] Top shape: 96 256 28 28 (19267584)
I0619 10:19:04.896463  1973 net.cpp:159] Memory required for data: 2321745408
I0619 10:19:04.896469  1973 layer_factory.hpp:77] Creating layer inception_3a/output_inception_3a/output_0_split
I0619 10:19:04.896483  1973 net.cpp:94] Creating Layer inception_3a/output_inception_3a/output_0_split
I0619 10:19:04.896491  1973 net.cpp:435] inception_3a/output_inception_3a/output_0_split <- inception_3a/output
I0619 10:19:04.896498  1973 net.cpp:409] inception_3a/output_inception_3a/output_0_split -> inception_3a/output_inception_3a/output_0_split_0
I0619 10:19:04.896513  1973 net.cpp:409] inception_3a/output_inception_3a/output_0_split -> inception_3a/output_inception_3a/output_0_split_1
I0619 10:19:04.896539  1973 net.cpp:409] inception_3a/output_inception_3a/output_0_split -> inception_3a/output_inception_3a/output_0_split_2
I0619 10:19:04.896548  1973 net.cpp:409] inception_3a/output_inception_3a/output_0_split -> inception_3a/output_inception_3a/output_0_split_3
I0619 10:19:04.896651  1973 net.cpp:144] Setting up inception_3a/output_inception_3a/output_0_split
I0619 10:19:04.896675  1973 net.cpp:151] Top shape: 96 256 28 28 (19267584)
I0619 10:19:04.896683  1973 net.cpp:151] Top shape: 96 256 28 28 (19267584)
I0619 10:19:04.896689  1973 net.cpp:151] Top shape: 96 256 28 28 (19267584)
I0619 10:19:04.896697  1973 net.cpp:151] Top shape: 96 256 28 28 (19267584)
I0619 10:19:04.896702  1973 net.cpp:159] Memory required for data: 2630026752
I0619 10:19:04.896706  1973 layer_factory.hpp:77] Creating layer inception_3b/1x1
I0619 10:19:04.896725  1973 net.cpp:94] Creating Layer inception_3b/1x1
I0619 10:19:04.896731  1973 net.cpp:435] inception_3b/1x1 <- inception_3a/output_inception_3a/output_0_split_0
I0619 10:19:04.896744  1973 net.cpp:409] inception_3b/1x1 -> inception_3b/1x1
I0619 10:19:04.915817  1973 net.cpp:144] Setting up inception_3b/1x1
I0619 10:19:04.915854  1973 net.cpp:151] Top shape: 96 128 28 28 (9633792)
I0619 10:19:04.915863  1973 net.cpp:159] Memory required for data: 2668561920
I0619 10:19:04.915880  1973 layer_factory.hpp:77] Creating layer inception_3b/relu_1x1
I0619 10:19:04.915930  1973 net.cpp:94] Creating Layer inception_3b/relu_1x1
I0619 10:19:04.915941  1973 net.cpp:435] inception_3b/relu_1x1 <- inception_3b/1x1
I0619 10:19:04.915954  1973 net.cpp:396] inception_3b/relu_1x1 -> inception_3b/1x1 (in-place)
I0619 10:19:04.915976  1973 net.cpp:144] Setting up inception_3b/relu_1x1
I0619 10:19:04.915987  1973 net.cpp:151] Top shape: 96 128 28 28 (9633792)
I0619 10:19:04.915994  1973 net.cpp:159] Memory required for data: 2707097088
I0619 10:19:04.916002  1973 layer_factory.hpp:77] Creating layer inception_3b/3x3_reduce
I0619 10:19:04.916024  1973 net.cpp:94] Creating Layer inception_3b/3x3_reduce
I0619 10:19:04.916033  1973 net.cpp:435] inception_3b/3x3_reduce <- inception_3a/output_inception_3a/output_0_split_1
I0619 10:19:04.916050  1973 net.cpp:409] inception_3b/3x3_reduce -> inception_3b/3x3_reduce
I0619 10:19:04.934725  1973 net.cpp:144] Setting up inception_3b/3x3_reduce
I0619 10:19:04.934762  1973 net.cpp:151] Top shape: 96 128 28 28 (9633792)
I0619 10:19:04.934770  1973 net.cpp:159] Memory required for data: 2745632256
I0619 10:19:04.934787  1973 layer_factory.hpp:77] Creating layer inception_3b/relu_3x3_reduce
I0619 10:19:04.934803  1973 net.cpp:94] Creating Layer inception_3b/relu_3x3_reduce
I0619 10:19:04.934813  1973 net.cpp:435] inception_3b/relu_3x3_reduce <- inception_3b/3x3_reduce
I0619 10:19:04.934826  1973 net.cpp:396] inception_3b/relu_3x3_reduce -> inception_3b/3x3_reduce (in-place)
I0619 10:19:04.934845  1973 net.cpp:144] Setting up inception_3b/relu_3x3_reduce
I0619 10:19:04.934856  1973 net.cpp:151] Top shape: 96 128 28 28 (9633792)
I0619 10:19:04.934862  1973 net.cpp:159] Memory required for data: 2784167424
I0619 10:19:04.934870  1973 layer_factory.hpp:77] Creating layer inception_3b/3x3
I0619 10:19:04.934903  1973 net.cpp:94] Creating Layer inception_3b/3x3
I0619 10:19:04.934911  1973 net.cpp:435] inception_3b/3x3 <- inception_3b/3x3_reduce
I0619 10:19:04.934929  1973 net.cpp:409] inception_3b/3x3 -> inception_3b/3x3
I0619 10:19:05.006839  1973 net.cpp:144] Setting up inception_3b/3x3
I0619 10:19:05.006876  1973 net.cpp:151] Top shape: 96 192 28 28 (14450688)
I0619 10:19:05.006886  1973 net.cpp:159] Memory required for data: 2841970176
I0619 10:19:05.006902  1973 layer_factory.hpp:77] Creating layer inception_3b/relu_3x3
I0619 10:19:05.006918  1973 net.cpp:94] Creating Layer inception_3b/relu_3x3
I0619 10:19:05.006927  1973 net.cpp:435] inception_3b/relu_3x3 <- inception_3b/3x3
I0619 10:19:05.006945  1973 net.cpp:396] inception_3b/relu_3x3 -> inception_3b/3x3 (in-place)
I0619 10:19:05.006965  1973 net.cpp:144] Setting up inception_3b/relu_3x3
I0619 10:19:05.006976  1973 net.cpp:151] Top shape: 96 192 28 28 (14450688)
I0619 10:19:05.006983  1973 net.cpp:159] Memory required for data: 2899772928
I0619 10:19:05.006990  1973 layer_factory.hpp:77] Creating layer inception_3b/5x5_reduce
I0619 10:19:05.007014  1973 net.cpp:94] Creating Layer inception_3b/5x5_reduce
I0619 10:19:05.007021  1973 net.cpp:435] inception_3b/5x5_reduce <- inception_3a/output_inception_3a/output_0_split_2
I0619 10:19:05.007035  1973 net.cpp:409] inception_3b/5x5_reduce -> inception_3b/5x5_reduce
I0619 10:19:05.024188  1973 net.cpp:144] Setting up inception_3b/5x5_reduce
I0619 10:19:05.024224  1973 net.cpp:151] Top shape: 96 32 28 28 (2408448)
I0619 10:19:05.024233  1973 net.cpp:159] Memory required for data: 2909406720
I0619 10:19:05.024266  1973 layer_factory.hpp:77] Creating layer inception_3b/relu_5x5_reduce
I0619 10:19:05.024281  1973 net.cpp:94] Creating Layer inception_3b/relu_5x5_reduce
I0619 10:19:05.024289  1973 net.cpp:435] inception_3b/relu_5x5_reduce <- inception_3b/5x5_reduce
I0619 10:19:05.024300  1973 net.cpp:396] inception_3b/relu_5x5_reduce -> inception_3b/5x5_reduce (in-place)
I0619 10:19:05.024318  1973 net.cpp:144] Setting up inception_3b/relu_5x5_reduce
I0619 10:19:05.024328  1973 net.cpp:151] Top shape: 96 32 28 28 (2408448)
I0619 10:19:05.024334  1973 net.cpp:159] Memory required for data: 2919040512
I0619 10:19:05.024340  1973 layer_factory.hpp:77] Creating layer inception_3b/5x5
I0619 10:19:05.024390  1973 net.cpp:94] Creating Layer inception_3b/5x5
I0619 10:19:05.024399  1973 net.cpp:435] inception_3b/5x5 <- inception_3b/5x5_reduce
I0619 10:19:05.024412  1973 net.cpp:409] inception_3b/5x5 -> inception_3b/5x5
I0619 10:19:05.056995  1973 net.cpp:144] Setting up inception_3b/5x5
I0619 10:19:05.057031  1973 net.cpp:151] Top shape: 96 96 28 28 (7225344)
I0619 10:19:05.057040  1973 net.cpp:159] Memory required for data: 2947941888
I0619 10:19:05.057056  1973 layer_factory.hpp:77] Creating layer inception_3b/relu_5x5
I0619 10:19:05.057070  1973 net.cpp:94] Creating Layer inception_3b/relu_5x5
I0619 10:19:05.057080  1973 net.cpp:435] inception_3b/relu_5x5 <- inception_3b/5x5
I0619 10:19:05.057090  1973 net.cpp:396] inception_3b/relu_5x5 -> inception_3b/5x5 (in-place)
I0619 10:19:05.057108  1973 net.cpp:144] Setting up inception_3b/relu_5x5
I0619 10:19:05.057118  1973 net.cpp:151] Top shape: 96 96 28 28 (7225344)
I0619 10:19:05.057126  1973 net.cpp:159] Memory required for data: 2976843264
I0619 10:19:05.057132  1973 layer_factory.hpp:77] Creating layer inception_3b/pool
I0619 10:19:05.057143  1973 net.cpp:94] Creating Layer inception_3b/pool
I0619 10:19:05.057152  1973 net.cpp:435] inception_3b/pool <- inception_3a/output_inception_3a/output_0_split_3
I0619 10:19:05.057186  1973 net.cpp:409] inception_3b/pool -> inception_3b/pool
I0619 10:19:05.057297  1973 net.cpp:144] Setting up inception_3b/pool
I0619 10:19:05.057325  1973 net.cpp:151] Top shape: 96 256 28 28 (19267584)
I0619 10:19:05.057332  1973 net.cpp:159] Memory required for data: 3053913600
I0619 10:19:05.057338  1973 layer_factory.hpp:77] Creating layer inception_3b/pool_proj
I0619 10:19:05.057365  1973 net.cpp:94] Creating Layer inception_3b/pool_proj
I0619 10:19:05.057374  1973 net.cpp:435] inception_3b/pool_proj <- inception_3b/pool
I0619 10:19:05.057385  1973 net.cpp:409] inception_3b/pool_proj -> inception_3b/pool_proj
I0619 10:19:05.076670  1973 net.cpp:144] Setting up inception_3b/pool_proj
I0619 10:19:05.076709  1973 net.cpp:151] Top shape: 96 64 28 28 (4816896)
I0619 10:19:05.076717  1973 net.cpp:159] Memory required for data: 3073181184
I0619 10:19:05.076733  1973 layer_factory.hpp:77] Creating layer inception_3b/relu_pool_proj
I0619 10:19:05.076750  1973 net.cpp:94] Creating Layer inception_3b/relu_pool_proj
I0619 10:19:05.076761  1973 net.cpp:435] inception_3b/relu_pool_proj <- inception_3b/pool_proj
I0619 10:19:05.076773  1973 net.cpp:396] inception_3b/relu_pool_proj -> inception_3b/pool_proj (in-place)
I0619 10:19:05.076792  1973 net.cpp:144] Setting up inception_3b/relu_pool_proj
I0619 10:19:05.076803  1973 net.cpp:151] Top shape: 96 64 28 28 (4816896)
I0619 10:19:05.076810  1973 net.cpp:159] Memory required for data: 3092448768
I0619 10:19:05.076817  1973 layer_factory.hpp:77] Creating layer inception_3b/output
I0619 10:19:05.076833  1973 net.cpp:94] Creating Layer inception_3b/output
I0619 10:19:05.076841  1973 net.cpp:435] inception_3b/output <- inception_3b/1x1
I0619 10:19:05.076851  1973 net.cpp:435] inception_3b/output <- inception_3b/3x3
I0619 10:19:05.076860  1973 net.cpp:435] inception_3b/output <- inception_3b/5x5
I0619 10:19:05.076869  1973 net.cpp:435] inception_3b/output <- inception_3b/pool_proj
I0619 10:19:05.076879  1973 net.cpp:409] inception_3b/output -> inception_3b/output
I0619 10:19:05.076969  1973 net.cpp:144] Setting up inception_3b/output
I0619 10:19:05.076982  1973 net.cpp:151] Top shape: 96 480 28 28 (36126720)
I0619 10:19:05.076989  1973 net.cpp:159] Memory required for data: 3236955648
I0619 10:19:05.076995  1973 layer_factory.hpp:77] Creating layer pool3/3x3_s2
I0619 10:19:05.077008  1973 net.cpp:94] Creating Layer pool3/3x3_s2
I0619 10:19:05.077014  1973 net.cpp:435] pool3/3x3_s2 <- inception_3b/output
I0619 10:19:05.077029  1973 net.cpp:409] pool3/3x3_s2 -> pool3/3x3_s2
I0619 10:19:05.077122  1973 net.cpp:144] Setting up pool3/3x3_s2
I0619 10:19:05.077160  1973 net.cpp:151] Top shape: 96 480 14 14 (9031680)
I0619 10:19:05.077180  1973 net.cpp:159] Memory required for data: 3273082368
I0619 10:19:05.077216  1973 layer_factory.hpp:77] Creating layer pool3/3x3_s2_pool3/3x3_s2_0_split
I0619 10:19:05.077231  1973 net.cpp:94] Creating Layer pool3/3x3_s2_pool3/3x3_s2_0_split
I0619 10:19:05.077239  1973 net.cpp:435] pool3/3x3_s2_pool3/3x3_s2_0_split <- pool3/3x3_s2
I0619 10:19:05.077253  1973 net.cpp:409] pool3/3x3_s2_pool3/3x3_s2_0_split -> pool3/3x3_s2_pool3/3x3_s2_0_split_0
I0619 10:19:05.077266  1973 net.cpp:409] pool3/3x3_s2_pool3/3x3_s2_0_split -> pool3/3x3_s2_pool3/3x3_s2_0_split_1
I0619 10:19:05.077278  1973 net.cpp:409] pool3/3x3_s2_pool3/3x3_s2_0_split -> pool3/3x3_s2_pool3/3x3_s2_0_split_2
I0619 10:19:05.077289  1973 net.cpp:409] pool3/3x3_s2_pool3/3x3_s2_0_split -> pool3/3x3_s2_pool3/3x3_s2_0_split_3
I0619 10:19:05.077414  1973 net.cpp:144] Setting up pool3/3x3_s2_pool3/3x3_s2_0_split
I0619 10:19:05.077438  1973 net.cpp:151] Top shape: 96 480 14 14 (9031680)
I0619 10:19:05.077447  1973 net.cpp:151] Top shape: 96 480 14 14 (9031680)
I0619 10:19:05.077455  1973 net.cpp:151] Top shape: 96 480 14 14 (9031680)
I0619 10:19:05.077463  1973 net.cpp:151] Top shape: 96 480 14 14 (9031680)
I0619 10:19:05.077469  1973 net.cpp:159] Memory required for data: 3417589248
I0619 10:19:05.077476  1973 layer_factory.hpp:77] Creating layer inception_4a/1x1
I0619 10:19:05.077497  1973 net.cpp:94] Creating Layer inception_4a/1x1
I0619 10:19:05.077505  1973 net.cpp:435] inception_4a/1x1 <- pool3/3x3_s2_pool3/3x3_s2_0_split_0
I0619 10:19:05.077517  1973 net.cpp:409] inception_4a/1x1 -> inception_4a/1x1
I0619 10:19:05.098296  1973 net.cpp:144] Setting up inception_4a/1x1
I0619 10:19:05.098333  1973 net.cpp:151] Top shape: 96 192 14 14 (3612672)
I0619 10:19:05.098342  1973 net.cpp:159] Memory required for data: 3432039936
I0619 10:19:05.098359  1973 layer_factory.hpp:77] Creating layer inception_4a/relu_1x1
I0619 10:19:05.098374  1973 net.cpp:94] Creating Layer inception_4a/relu_1x1
I0619 10:19:05.098383  1973 net.cpp:435] inception_4a/relu_1x1 <- inception_4a/1x1
I0619 10:19:05.098395  1973 net.cpp:396] inception_4a/relu_1x1 -> inception_4a/1x1 (in-place)
I0619 10:19:05.098414  1973 net.cpp:144] Setting up inception_4a/relu_1x1
I0619 10:19:05.098426  1973 net.cpp:151] Top shape: 96 192 14 14 (3612672)
I0619 10:19:05.098433  1973 net.cpp:159] Memory required for data: 3446490624
I0619 10:19:05.098439  1973 layer_factory.hpp:77] Creating layer inception_4a/3x3_reduce
I0619 10:19:05.098462  1973 net.cpp:94] Creating Layer inception_4a/3x3_reduce
I0619 10:19:05.098475  1973 net.cpp:435] inception_4a/3x3_reduce <- pool3/3x3_s2_pool3/3x3_s2_0_split_1
I0619 10:19:05.098489  1973 net.cpp:409] inception_4a/3x3_reduce -> inception_4a/3x3_reduce
I0619 10:19:05.113415  1973 net.cpp:144] Setting up inception_4a/3x3_reduce
I0619 10:19:05.113450  1973 net.cpp:151] Top shape: 96 96 14 14 (1806336)
I0619 10:19:05.113458  1973 net.cpp:159] Memory required for data: 3453715968
I0619 10:19:05.113487  1973 layer_factory.hpp:77] Creating layer inception_4a/relu_3x3_reduce
I0619 10:19:05.113502  1973 net.cpp:94] Creating Layer inception_4a/relu_3x3_reduce
I0619 10:19:05.113512  1973 net.cpp:435] inception_4a/relu_3x3_reduce <- inception_4a/3x3_reduce
I0619 10:19:05.113528  1973 net.cpp:396] inception_4a/relu_3x3_reduce -> inception_4a/3x3_reduce (in-place)
I0619 10:19:05.113548  1973 net.cpp:144] Setting up inception_4a/relu_3x3_reduce
I0619 10:19:05.113559  1973 net.cpp:151] Top shape: 96 96 14 14 (1806336)
I0619 10:19:05.113564  1973 net.cpp:159] Memory required for data: 3460941312
I0619 10:19:05.113570  1973 layer_factory.hpp:77] Creating layer inception_4a/3x3
I0619 10:19:05.113592  1973 net.cpp:94] Creating Layer inception_4a/3x3
I0619 10:19:05.113600  1973 net.cpp:435] inception_4a/3x3 <- inception_4a/3x3_reduce
I0619 10:19:05.113611  1973 net.cpp:409] inception_4a/3x3 -> inception_4a/3x3
I0619 10:19:05.138128  1973 net.cpp:144] Setting up inception_4a/3x3
I0619 10:19:05.138164  1973 net.cpp:151] Top shape: 96 208 14 14 (3913728)
I0619 10:19:05.138191  1973 net.cpp:159] Memory required for data: 3476596224
I0619 10:19:05.138209  1973 layer_factory.hpp:77] Creating layer inception_4a/relu_3x3
I0619 10:19:05.138257  1973 net.cpp:94] Creating Layer inception_4a/relu_3x3
I0619 10:19:05.138268  1973 net.cpp:435] inception_4a/relu_3x3 <- inception_4a/3x3
I0619 10:19:05.138281  1973 net.cpp:396] inception_4a/relu_3x3 -> inception_4a/3x3 (in-place)
I0619 10:19:05.138303  1973 net.cpp:144] Setting up inception_4a/relu_3x3
I0619 10:19:05.138314  1973 net.cpp:151] Top shape: 96 208 14 14 (3913728)
I0619 10:19:05.138320  1973 net.cpp:159] Memory required for data: 3492251136
I0619 10:19:05.138327  1973 layer_factory.hpp:77] Creating layer inception_4a/5x5_reduce
I0619 10:19:05.138351  1973 net.cpp:94] Creating Layer inception_4a/5x5_reduce
I0619 10:19:05.138360  1973 net.cpp:435] inception_4a/5x5_reduce <- pool3/3x3_s2_pool3/3x3_s2_0_split_2
I0619 10:19:05.138377  1973 net.cpp:409] inception_4a/5x5_reduce -> inception_4a/5x5_reduce
I0619 10:19:05.151711  1973 net.cpp:144] Setting up inception_4a/5x5_reduce
I0619 10:19:05.151746  1973 net.cpp:151] Top shape: 96 16 14 14 (301056)
I0619 10:19:05.151754  1973 net.cpp:159] Memory required for data: 3493455360
I0619 10:19:05.151770  1973 layer_factory.hpp:77] Creating layer inception_4a/relu_5x5_reduce
I0619 10:19:05.151790  1973 net.cpp:94] Creating Layer inception_4a/relu_5x5_reduce
I0619 10:19:05.151800  1973 net.cpp:435] inception_4a/relu_5x5_reduce <- inception_4a/5x5_reduce
I0619 10:19:05.151813  1973 net.cpp:396] inception_4a/relu_5x5_reduce -> inception_4a/5x5_reduce (in-place)
I0619 10:19:05.151832  1973 net.cpp:144] Setting up inception_4a/relu_5x5_reduce
I0619 10:19:05.151842  1973 net.cpp:151] Top shape: 96 16 14 14 (301056)
I0619 10:19:05.151849  1973 net.cpp:159] Memory required for data: 3494659584
I0619 10:19:05.151855  1973 layer_factory.hpp:77] Creating layer inception_4a/5x5
I0619 10:19:05.151872  1973 net.cpp:94] Creating Layer inception_4a/5x5
I0619 10:19:05.151880  1973 net.cpp:435] inception_4a/5x5 <- inception_4a/5x5_reduce
I0619 10:19:05.151895  1973 net.cpp:409] inception_4a/5x5 -> inception_4a/5x5
I0619 10:19:05.160890  1973 net.cpp:144] Setting up inception_4a/5x5
I0619 10:19:05.160923  1973 net.cpp:151] Top shape: 96 48 14 14 (903168)
I0619 10:19:05.160931  1973 net.cpp:159] Memory required for data: 3498272256
I0619 10:19:05.160946  1973 layer_factory.hpp:77] Creating layer inception_4a/relu_5x5
I0619 10:19:05.160964  1973 net.cpp:94] Creating Layer inception_4a/relu_5x5
I0619 10:19:05.160974  1973 net.cpp:435] inception_4a/relu_5x5 <- inception_4a/5x5
I0619 10:19:05.160985  1973 net.cpp:396] inception_4a/relu_5x5 -> inception_4a/5x5 (in-place)
I0619 10:19:05.161005  1973 net.cpp:144] Setting up inception_4a/relu_5x5
I0619 10:19:05.161015  1973 net.cpp:151] Top shape: 96 48 14 14 (903168)
I0619 10:19:05.161020  1973 net.cpp:159] Memory required for data: 3501884928
I0619 10:19:05.161027  1973 layer_factory.hpp:77] Creating layer inception_4a/pool
I0619 10:19:05.161038  1973 net.cpp:94] Creating Layer inception_4a/pool
I0619 10:19:05.161051  1973 net.cpp:435] inception_4a/pool <- pool3/3x3_s2_pool3/3x3_s2_0_split_3
I0619 10:19:05.161062  1973 net.cpp:409] inception_4a/pool -> inception_4a/pool
I0619 10:19:05.161190  1973 net.cpp:144] Setting up inception_4a/pool
I0619 10:19:05.161208  1973 net.cpp:151] Top shape: 96 480 14 14 (9031680)
I0619 10:19:05.161216  1973 net.cpp:159] Memory required for data: 3538011648
I0619 10:19:05.161221  1973 layer_factory.hpp:77] Creating layer inception_4a/pool_proj
I0619 10:19:05.161243  1973 net.cpp:94] Creating Layer inception_4a/pool_proj
I0619 10:19:05.161252  1973 net.cpp:435] inception_4a/pool_proj <- inception_4a/pool
I0619 10:19:05.161265  1973 net.cpp:409] inception_4a/pool_proj -> inception_4a/pool_proj
I0619 10:19:05.175565  1973 net.cpp:144] Setting up inception_4a/pool_proj
I0619 10:19:05.175603  1973 net.cpp:151] Top shape: 96 64 14 14 (1204224)
I0619 10:19:05.175611  1973 net.cpp:159] Memory required for data: 3542828544
I0619 10:19:05.175627  1973 layer_factory.hpp:77] Creating layer inception_4a/relu_pool_proj
I0619 10:19:05.175647  1973 net.cpp:94] Creating Layer inception_4a/relu_pool_proj
I0619 10:19:05.175690  1973 net.cpp:435] inception_4a/relu_pool_proj <- inception_4a/pool_proj
I0619 10:19:05.175705  1973 net.cpp:396] inception_4a/relu_pool_proj -> inception_4a/pool_proj (in-place)
I0619 10:19:05.175726  1973 net.cpp:144] Setting up inception_4a/relu_pool_proj
I0619 10:19:05.175739  1973 net.cpp:151] Top shape: 96 64 14 14 (1204224)
I0619 10:19:05.175745  1973 net.cpp:159] Memory required for data: 3547645440
I0619 10:19:05.175752  1973 layer_factory.hpp:77] Creating layer inception_4a/output
I0619 10:19:05.175763  1973 net.cpp:94] Creating Layer inception_4a/output
I0619 10:19:05.175771  1973 net.cpp:435] inception_4a/output <- inception_4a/1x1
I0619 10:19:05.175782  1973 net.cpp:435] inception_4a/output <- inception_4a/3x3
I0619 10:19:05.175792  1973 net.cpp:435] inception_4a/output <- inception_4a/5x5
I0619 10:19:05.175801  1973 net.cpp:435] inception_4a/output <- inception_4a/pool_proj
I0619 10:19:05.175822  1973 net.cpp:409] inception_4a/output -> inception_4a/output
I0619 10:19:05.175904  1973 net.cpp:144] Setting up inception_4a/output
I0619 10:19:05.175916  1973 net.cpp:151] Top shape: 96 512 14 14 (9633792)
I0619 10:19:05.175922  1973 net.cpp:159] Memory required for data: 3586180608
I0619 10:19:05.175930  1973 layer_factory.hpp:77] Creating layer inception_4a/output_inception_4a/output_0_split
I0619 10:19:05.175940  1973 net.cpp:94] Creating Layer inception_4a/output_inception_4a/output_0_split
I0619 10:19:05.175947  1973 net.cpp:435] inception_4a/output_inception_4a/output_0_split <- inception_4a/output
I0619 10:19:05.175962  1973 net.cpp:409] inception_4a/output_inception_4a/output_0_split -> inception_4a/output_inception_4a/output_0_split_0
I0619 10:19:05.175976  1973 net.cpp:409] inception_4a/output_inception_4a/output_0_split -> inception_4a/output_inception_4a/output_0_split_1
I0619 10:19:05.175987  1973 net.cpp:409] inception_4a/output_inception_4a/output_0_split -> inception_4a/output_inception_4a/output_0_split_2
I0619 10:19:05.175999  1973 net.cpp:409] inception_4a/output_inception_4a/output_0_split -> inception_4a/output_inception_4a/output_0_split_3
I0619 10:19:05.176010  1973 net.cpp:409] inception_4a/output_inception_4a/output_0_split -> inception_4a/output_inception_4a/output_0_split_4
I0619 10:19:05.176188  1973 net.cpp:144] Setting up inception_4a/output_inception_4a/output_0_split
I0619 10:19:05.176210  1973 net.cpp:151] Top shape: 96 512 14 14 (9633792)
I0619 10:19:05.176219  1973 net.cpp:151] Top shape: 96 512 14 14 (9633792)
I0619 10:19:05.176229  1973 net.cpp:151] Top shape: 96 512 14 14 (9633792)
I0619 10:19:05.176236  1973 net.cpp:151] Top shape: 96 512 14 14 (9633792)
I0619 10:19:05.176244  1973 net.cpp:151] Top shape: 96 512 14 14 (9633792)
I0619 10:19:05.176249  1973 net.cpp:159] Memory required for data: 3778856448
I0619 10:19:05.176256  1973 layer_factory.hpp:77] Creating layer loss1/ave_pool
I0619 10:19:05.176268  1973 net.cpp:94] Creating Layer loss1/ave_pool
I0619 10:19:05.176276  1973 net.cpp:435] loss1/ave_pool <- inception_4a/output_inception_4a/output_0_split_0
I0619 10:19:05.176290  1973 net.cpp:409] loss1/ave_pool -> loss1/ave_pool
I0619 10:19:05.176367  1973 net.cpp:144] Setting up loss1/ave_pool
I0619 10:19:05.176398  1973 net.cpp:151] Top shape: 96 512 4 4 (786432)
I0619 10:19:05.176404  1973 net.cpp:159] Memory required for data: 3782002176
I0619 10:19:05.176410  1973 layer_factory.hpp:77] Creating layer loss1/conv
I0619 10:19:05.176437  1973 net.cpp:94] Creating Layer loss1/conv
I0619 10:19:05.176445  1973 net.cpp:435] loss1/conv <- loss1/ave_pool
I0619 10:19:05.176457  1973 net.cpp:409] loss1/conv -> loss1/conv
I0619 10:19:05.184031  1973 net.cpp:144] Setting up loss1/conv
I0619 10:19:05.184063  1973 net.cpp:151] Top shape: 96 128 4 4 (196608)
I0619 10:19:05.184072  1973 net.cpp:159] Memory required for data: 3782788608
I0619 10:19:05.184088  1973 layer_factory.hpp:77] Creating layer loss1/relu_conv
I0619 10:19:05.184103  1973 net.cpp:94] Creating Layer loss1/relu_conv
I0619 10:19:05.184113  1973 net.cpp:435] loss1/relu_conv <- loss1/conv
I0619 10:19:05.184157  1973 net.cpp:396] loss1/relu_conv -> loss1/conv (in-place)
I0619 10:19:05.184192  1973 net.cpp:144] Setting up loss1/relu_conv
I0619 10:19:05.184206  1973 net.cpp:151] Top shape: 96 128 4 4 (196608)
I0619 10:19:05.184213  1973 net.cpp:159] Memory required for data: 3783575040
I0619 10:19:05.184221  1973 layer_factory.hpp:77] Creating layer loss1/fc
I0619 10:19:05.184249  1973 net.cpp:94] Creating Layer loss1/fc
I0619 10:19:05.184257  1973 net.cpp:435] loss1/fc <- loss1/conv
I0619 10:19:05.184268  1973 net.cpp:409] loss1/fc -> loss1/fc
I0619 10:19:05.213374  1973 net.cpp:144] Setting up loss1/fc
I0619 10:19:05.213403  1973 net.cpp:151] Top shape: 96 1024 (98304)
I0619 10:19:05.213412  1973 net.cpp:159] Memory required for data: 3783968256
I0619 10:19:05.213424  1973 layer_factory.hpp:77] Creating layer loss1/relu_fc
I0619 10:19:05.213436  1973 net.cpp:94] Creating Layer loss1/relu_fc
I0619 10:19:05.213444  1973 net.cpp:435] loss1/relu_fc <- loss1/fc
I0619 10:19:05.213459  1973 net.cpp:396] loss1/relu_fc -> loss1/fc (in-place)
I0619 10:19:05.213475  1973 net.cpp:144] Setting up loss1/relu_fc
I0619 10:19:05.213485  1973 net.cpp:151] Top shape: 96 1024 (98304)
I0619 10:19:05.213490  1973 net.cpp:159] Memory required for data: 3784361472
I0619 10:19:05.213497  1973 layer_factory.hpp:77] Creating layer loss1/drop_fc
I0619 10:19:05.213527  1973 net.cpp:94] Creating Layer loss1/drop_fc
I0619 10:19:05.213551  1973 net.cpp:435] loss1/drop_fc <- loss1/fc
I0619 10:19:05.213560  1973 net.cpp:396] loss1/drop_fc -> loss1/fc (in-place)
I0619 10:19:05.213634  1973 net.cpp:144] Setting up loss1/drop_fc
I0619 10:19:05.213647  1973 net.cpp:151] Top shape: 96 1024 (98304)
I0619 10:19:05.213654  1973 net.cpp:159] Memory required for data: 3784754688
I0619 10:19:05.213660  1973 layer_factory.hpp:77] Creating layer loss1/classifier
I0619 10:19:05.213673  1973 net.cpp:94] Creating Layer loss1/classifier
I0619 10:19:05.213680  1973 net.cpp:435] loss1/classifier <- loss1/fc
I0619 10:19:05.213693  1973 net.cpp:409] loss1/classifier -> loss1/classifier
I0619 10:19:05.227779  1973 net.cpp:144] Setting up loss1/classifier
I0619 10:19:05.227807  1973 net.cpp:151] Top shape: 96 1000 (96000)
I0619 10:19:05.227814  1973 net.cpp:159] Memory required for data: 3785138688
I0619 10:19:05.227843  1973 layer_factory.hpp:77] Creating layer loss1/loss
I0619 10:19:05.227864  1973 net.cpp:94] Creating Layer loss1/loss
I0619 10:19:05.227874  1973 net.cpp:435] loss1/loss <- loss1/classifier
I0619 10:19:05.227883  1973 net.cpp:435] loss1/loss <- label_data_1_split_0
I0619 10:19:05.227892  1973 net.cpp:409] loss1/loss -> loss1/loss1
I0619 10:19:05.227918  1973 layer_factory.hpp:77] Creating layer loss1/loss
I0619 10:19:05.228214  1973 net.cpp:144] Setting up loss1/loss
I0619 10:19:05.228229  1973 net.cpp:151] Top shape: (1)
I0619 10:19:05.228235  1973 net.cpp:154]     with loss weight 0.3
I0619 10:19:05.228282  1973 net.cpp:159] Memory required for data: 3785138692
I0619 10:19:05.228289  1973 layer_factory.hpp:77] Creating layer inception_4b/1x1
I0619 10:19:05.228309  1973 net.cpp:94] Creating Layer inception_4b/1x1
I0619 10:19:05.228315  1973 net.cpp:435] inception_4b/1x1 <- inception_4a/output_inception_4a/output_0_split_1
I0619 10:19:05.228327  1973 net.cpp:409] inception_4b/1x1 -> inception_4b/1x1
I0619 10:19:05.245393  1973 net.cpp:144] Setting up inception_4b/1x1
I0619 10:19:05.245427  1973 net.cpp:151] Top shape: 96 160 14 14 (3010560)
I0619 10:19:05.245437  1973 net.cpp:159] Memory required for data: 3797180932
I0619 10:19:05.245453  1973 layer_factory.hpp:77] Creating layer inception_4b/relu_1x1
I0619 10:19:05.245468  1973 net.cpp:94] Creating Layer inception_4b/relu_1x1
I0619 10:19:05.245477  1973 net.cpp:435] inception_4b/relu_1x1 <- inception_4b/1x1
I0619 10:19:05.245489  1973 net.cpp:396] inception_4b/relu_1x1 -> inception_4b/1x1 (in-place)
I0619 10:19:05.245509  1973 net.cpp:144] Setting up inception_4b/relu_1x1
I0619 10:19:05.245519  1973 net.cpp:151] Top shape: 96 160 14 14 (3010560)
I0619 10:19:05.245554  1973 net.cpp:159] Memory required for data: 3809223172
I0619 10:19:05.245563  1973 layer_factory.hpp:77] Creating layer inception_4b/3x3_reduce
I0619 10:19:05.245585  1973 net.cpp:94] Creating Layer inception_4b/3x3_reduce
I0619 10:19:05.245594  1973 net.cpp:435] inception_4b/3x3_reduce <- inception_4a/output_inception_4a/output_0_split_2
I0619 10:19:05.245613  1973 net.cpp:409] inception_4b/3x3_reduce -> inception_4b/3x3_reduce
I0619 10:19:05.259701  1973 net.cpp:144] Setting up inception_4b/3x3_reduce
I0619 10:19:05.259737  1973 net.cpp:151] Top shape: 96 112 14 14 (2107392)
I0619 10:19:05.259745  1973 net.cpp:159] Memory required for data: 3817652740
I0619 10:19:05.259762  1973 layer_factory.hpp:77] Creating layer inception_4b/relu_3x3_reduce
I0619 10:19:05.259778  1973 net.cpp:94] Creating Layer inception_4b/relu_3x3_reduce
I0619 10:19:05.259788  1973 net.cpp:435] inception_4b/relu_3x3_reduce <- inception_4b/3x3_reduce
I0619 10:19:05.259799  1973 net.cpp:396] inception_4b/relu_3x3_reduce -> inception_4b/3x3_reduce (in-place)
I0619 10:19:05.259819  1973 net.cpp:144] Setting up inception_4b/relu_3x3_reduce
I0619 10:19:05.259830  1973 net.cpp:151] Top shape: 96 112 14 14 (2107392)
I0619 10:19:05.259837  1973 net.cpp:159] Memory required for data: 3826082308
I0619 10:19:05.259845  1973 layer_factory.hpp:77] Creating layer inception_4b/3x3
I0619 10:19:05.259866  1973 net.cpp:94] Creating Layer inception_4b/3x3
I0619 10:19:05.259886  1973 net.cpp:435] inception_4b/3x3 <- inception_4b/3x3_reduce
I0619 10:19:05.259902  1973 net.cpp:409] inception_4b/3x3 -> inception_4b/3x3
I0619 10:19:05.288662  1973 net.cpp:144] Setting up inception_4b/3x3
I0619 10:19:05.288698  1973 net.cpp:151] Top shape: 96 224 14 14 (4214784)
I0619 10:19:05.288707  1973 net.cpp:159] Memory required for data: 3842941444
I0619 10:19:05.288723  1973 layer_factory.hpp:77] Creating layer inception_4b/relu_3x3
I0619 10:19:05.288738  1973 net.cpp:94] Creating Layer inception_4b/relu_3x3
I0619 10:19:05.288748  1973 net.cpp:435] inception_4b/relu_3x3 <- inception_4b/3x3
I0619 10:19:05.288761  1973 net.cpp:396] inception_4b/relu_3x3 -> inception_4b/3x3 (in-place)
I0619 10:19:05.288787  1973 net.cpp:144] Setting up inception_4b/relu_3x3
I0619 10:19:05.288799  1973 net.cpp:151] Top shape: 96 224 14 14 (4214784)
I0619 10:19:05.288805  1973 net.cpp:159] Memory required for data: 3859800580
I0619 10:19:05.288815  1973 layer_factory.hpp:77] Creating layer inception_4b/5x5_reduce
I0619 10:19:05.288836  1973 net.cpp:94] Creating Layer inception_4b/5x5_reduce
I0619 10:19:05.288846  1973 net.cpp:435] inception_4b/5x5_reduce <- inception_4a/output_inception_4a/output_0_split_3
I0619 10:19:05.288862  1973 net.cpp:409] inception_4b/5x5_reduce -> inception_4b/5x5_reduce
I0619 10:19:05.302325  1973 net.cpp:144] Setting up inception_4b/5x5_reduce
I0619 10:19:05.302356  1973 net.cpp:151] Top shape: 96 24 14 14 (451584)
I0619 10:19:05.302364  1973 net.cpp:159] Memory required for data: 3861606916
I0619 10:19:05.302378  1973 layer_factory.hpp:77] Creating layer inception_4b/relu_5x5_reduce
I0619 10:19:05.302397  1973 net.cpp:94] Creating Layer inception_4b/relu_5x5_reduce
I0619 10:19:05.302405  1973 net.cpp:435] inception_4b/relu_5x5_reduce <- inception_4b/5x5_reduce
I0619 10:19:05.302417  1973 net.cpp:396] inception_4b/relu_5x5_reduce -> inception_4b/5x5_reduce (in-place)
I0619 10:19:05.302438  1973 net.cpp:144] Setting up inception_4b/relu_5x5_reduce
I0619 10:19:05.302448  1973 net.cpp:151] Top shape: 96 24 14 14 (451584)
I0619 10:19:05.302454  1973 net.cpp:159] Memory required for data: 3863413252
I0619 10:19:05.302460  1973 layer_factory.hpp:77] Creating layer inception_4b/5x5
I0619 10:19:05.302477  1973 net.cpp:94] Creating Layer inception_4b/5x5
I0619 10:19:05.302484  1973 net.cpp:435] inception_4b/5x5 <- inception_4b/5x5_reduce
I0619 10:19:05.302500  1973 net.cpp:409] inception_4b/5x5 -> inception_4b/5x5
I0619 10:19:05.312958  1973 net.cpp:144] Setting up inception_4b/5x5
I0619 10:19:05.312994  1973 net.cpp:151] Top shape: 96 64 14 14 (1204224)
I0619 10:19:05.313040  1973 net.cpp:159] Memory required for data: 3868230148
I0619 10:19:05.313060  1973 layer_factory.hpp:77] Creating layer inception_4b/relu_5x5
I0619 10:19:05.313082  1973 net.cpp:94] Creating Layer inception_4b/relu_5x5
I0619 10:19:05.313093  1973 net.cpp:435] inception_4b/relu_5x5 <- inception_4b/5x5
I0619 10:19:05.313107  1973 net.cpp:396] inception_4b/relu_5x5 -> inception_4b/5x5 (in-place)
I0619 10:19:05.313125  1973 net.cpp:144] Setting up inception_4b/relu_5x5
I0619 10:19:05.313138  1973 net.cpp:151] Top shape: 96 64 14 14 (1204224)
I0619 10:19:05.313143  1973 net.cpp:159] Memory required for data: 3873047044
I0619 10:19:05.313151  1973 layer_factory.hpp:77] Creating layer inception_4b/pool
I0619 10:19:05.313164  1973 net.cpp:94] Creating Layer inception_4b/pool
I0619 10:19:05.313195  1973 net.cpp:435] inception_4b/pool <- inception_4a/output_inception_4a/output_0_split_4
I0619 10:19:05.313208  1973 net.cpp:409] inception_4b/pool -> inception_4b/pool
I0619 10:19:05.313351  1973 net.cpp:144] Setting up inception_4b/pool
I0619 10:19:05.313370  1973 net.cpp:151] Top shape: 96 512 14 14 (9633792)
I0619 10:19:05.313393  1973 net.cpp:159] Memory required for data: 3911582212
I0619 10:19:05.313400  1973 layer_factory.hpp:77] Creating layer inception_4b/pool_proj
I0619 10:19:05.313424  1973 net.cpp:94] Creating Layer inception_4b/pool_proj
I0619 10:19:05.313436  1973 net.cpp:435] inception_4b/pool_proj <- inception_4b/pool
I0619 10:19:05.313447  1973 net.cpp:409] inception_4b/pool_proj -> inception_4b/pool_proj
I0619 10:19:05.329110  1973 net.cpp:144] Setting up inception_4b/pool_proj
I0619 10:19:05.329146  1973 net.cpp:151] Top shape: 96 64 14 14 (1204224)
I0619 10:19:05.329156  1973 net.cpp:159] Memory required for data: 3916399108
I0619 10:19:05.329185  1973 layer_factory.hpp:77] Creating layer inception_4b/relu_pool_proj
I0619 10:19:05.329203  1973 net.cpp:94] Creating Layer inception_4b/relu_pool_proj
I0619 10:19:05.329213  1973 net.cpp:435] inception_4b/relu_pool_proj <- inception_4b/pool_proj
I0619 10:19:05.329226  1973 net.cpp:396] inception_4b/relu_pool_proj -> inception_4b/pool_proj (in-place)
I0619 10:19:05.329251  1973 net.cpp:144] Setting up inception_4b/relu_pool_proj
I0619 10:19:05.329262  1973 net.cpp:151] Top shape: 96 64 14 14 (1204224)
I0619 10:19:05.329268  1973 net.cpp:159] Memory required for data: 3921216004
I0619 10:19:05.329277  1973 layer_factory.hpp:77] Creating layer inception_4b/output
I0619 10:19:05.329289  1973 net.cpp:94] Creating Layer inception_4b/output
I0619 10:19:05.329296  1973 net.cpp:435] inception_4b/output <- inception_4b/1x1
I0619 10:19:05.329306  1973 net.cpp:435] inception_4b/output <- inception_4b/3x3
I0619 10:19:05.329316  1973 net.cpp:435] inception_4b/output <- inception_4b/5x5
I0619 10:19:05.329324  1973 net.cpp:435] inception_4b/output <- inception_4b/pool_proj
I0619 10:19:05.329341  1973 net.cpp:409] inception_4b/output -> inception_4b/output
I0619 10:19:05.329442  1973 net.cpp:144] Setting up inception_4b/output
I0619 10:19:05.329457  1973 net.cpp:151] Top shape: 96 512 14 14 (9633792)
I0619 10:19:05.329463  1973 net.cpp:159] Memory required for data: 3959751172
I0619 10:19:05.329469  1973 layer_factory.hpp:77] Creating layer inception_4b/output_inception_4b/output_0_split
I0619 10:19:05.329488  1973 net.cpp:94] Creating Layer inception_4b/output_inception_4b/output_0_split
I0619 10:19:05.329495  1973 net.cpp:435] inception_4b/output_inception_4b/output_0_split <- inception_4b/output
I0619 10:19:05.329505  1973 net.cpp:409] inception_4b/output_inception_4b/output_0_split -> inception_4b/output_inception_4b/output_0_split_0
I0619 10:19:05.329520  1973 net.cpp:409] inception_4b/output_inception_4b/output_0_split -> inception_4b/output_inception_4b/output_0_split_1
I0619 10:19:05.329532  1973 net.cpp:409] inception_4b/output_inception_4b/output_0_split -> inception_4b/output_inception_4b/output_0_split_2
I0619 10:19:05.329545  1973 net.cpp:409] inception_4b/output_inception_4b/output_0_split -> inception_4b/output_inception_4b/output_0_split_3
I0619 10:19:05.329684  1973 net.cpp:144] Setting up inception_4b/output_inception_4b/output_0_split
I0619 10:19:05.329726  1973 net.cpp:151] Top shape: 96 512 14 14 (9633792)
I0619 10:19:05.329738  1973 net.cpp:151] Top shape: 96 512 14 14 (9633792)
I0619 10:19:05.329746  1973 net.cpp:151] Top shape: 96 512 14 14 (9633792)
I0619 10:19:05.329753  1973 net.cpp:151] Top shape: 96 512 14 14 (9633792)
I0619 10:19:05.329759  1973 net.cpp:159] Memory required for data: 4113891844
I0619 10:19:05.329766  1973 layer_factory.hpp:77] Creating layer inception_4c/1x1
I0619 10:19:05.329787  1973 net.cpp:94] Creating Layer inception_4c/1x1
I0619 10:19:05.329797  1973 net.cpp:435] inception_4c/1x1 <- inception_4b/output_inception_4b/output_0_split_0
I0619 10:19:05.329813  1973 net.cpp:409] inception_4c/1x1 -> inception_4c/1x1
I0619 10:19:05.344868  1973 net.cpp:144] Setting up inception_4c/1x1
I0619 10:19:05.344904  1973 net.cpp:151] Top shape: 96 128 14 14 (2408448)
I0619 10:19:05.344913  1973 net.cpp:159] Memory required for data: 4123525636
I0619 10:19:05.344930  1973 layer_factory.hpp:77] Creating layer inception_4c/relu_1x1
I0619 10:19:05.344945  1973 net.cpp:94] Creating Layer inception_4c/relu_1x1
I0619 10:19:05.344955  1973 net.cpp:435] inception_4c/relu_1x1 <- inception_4c/1x1
I0619 10:19:05.344969  1973 net.cpp:396] inception_4c/relu_1x1 -> inception_4c/1x1 (in-place)
I0619 10:19:05.344992  1973 net.cpp:144] Setting up inception_4c/relu_1x1
I0619 10:19:05.345003  1973 net.cpp:151] Top shape: 96 128 14 14 (2408448)
I0619 10:19:05.345010  1973 net.cpp:159] Memory required for data: 4133159428
I0619 10:19:05.345019  1973 layer_factory.hpp:77] Creating layer inception_4c/3x3_reduce
I0619 10:19:05.345042  1973 net.cpp:94] Creating Layer inception_4c/3x3_reduce
I0619 10:19:05.345052  1973 net.cpp:435] inception_4c/3x3_reduce <- inception_4b/output_inception_4b/output_0_split_1
I0619 10:19:05.345065  1973 net.cpp:409] inception_4c/3x3_reduce -> inception_4c/3x3_reduce
I0619 10:19:05.360080  1973 net.cpp:144] Setting up inception_4c/3x3_reduce
I0619 10:19:05.360116  1973 net.cpp:151] Top shape: 96 128 14 14 (2408448)
I0619 10:19:05.360126  1973 net.cpp:159] Memory required for data: 4142793220
I0619 10:19:05.360142  1973 layer_factory.hpp:77] Creating layer inception_4c/relu_3x3_reduce
I0619 10:19:05.360163  1973 net.cpp:94] Creating Layer inception_4c/relu_3x3_reduce
I0619 10:19:05.360185  1973 net.cpp:435] inception_4c/relu_3x3_reduce <- inception_4c/3x3_reduce
I0619 10:19:05.360198  1973 net.cpp:396] inception_4c/relu_3x3_reduce -> inception_4c/3x3_reduce (in-place)
I0619 10:19:05.360224  1973 net.cpp:144] Setting up inception_4c/relu_3x3_reduce
I0619 10:19:05.360235  1973 net.cpp:151] Top shape: 96 128 14 14 (2408448)
I0619 10:19:05.360242  1973 net.cpp:159] Memory required for data: 4152427012
I0619 10:19:05.360249  1973 layer_factory.hpp:77] Creating layer inception_4c/3x3
I0619 10:19:05.360270  1973 net.cpp:94] Creating Layer inception_4c/3x3
I0619 10:19:05.360281  1973 net.cpp:435] inception_4c/3x3 <- inception_4c/3x3_reduce
I0619 10:19:05.360298  1973 net.cpp:409] inception_4c/3x3 -> inception_4c/3x3
I0619 10:19:05.394217  1973 net.cpp:144] Setting up inception_4c/3x3
I0619 10:19:05.394254  1973 net.cpp:151] Top shape: 96 256 14 14 (4816896)
I0619 10:19:05.394263  1973 net.cpp:159] Memory required for data: 4171694596
I0619 10:19:05.394305  1973 layer_factory.hpp:77] Creating layer inception_4c/relu_3x3
I0619 10:19:05.394326  1973 net.cpp:94] Creating Layer inception_4c/relu_3x3
I0619 10:19:05.394336  1973 net.cpp:435] inception_4c/relu_3x3 <- inception_4c/3x3
I0619 10:19:05.394364  1973 net.cpp:396] inception_4c/relu_3x3 -> inception_4c/3x3 (in-place)
I0619 10:19:05.394385  1973 net.cpp:144] Setting up inception_4c/relu_3x3
I0619 10:19:05.394397  1973 net.cpp:151] Top shape: 96 256 14 14 (4816896)
I0619 10:19:05.394402  1973 net.cpp:159] Memory required for data: 4190962180
I0619 10:19:05.394415  1973 layer_factory.hpp:77] Creating layer inception_4c/5x5_reduce
I0619 10:19:05.394433  1973 net.cpp:94] Creating Layer inception_4c/5x5_reduce
I0619 10:19:05.394471  1973 net.cpp:435] inception_4c/5x5_reduce <- inception_4b/output_inception_4b/output_0_split_2
I0619 10:19:05.394498  1973 net.cpp:409] inception_4c/5x5_reduce -> inception_4c/5x5_reduce
I0619 10:19:05.406371  1973 net.cpp:144] Setting up inception_4c/5x5_reduce
I0619 10:19:05.406407  1973 net.cpp:151] Top shape: 96 24 14 14 (451584)
I0619 10:19:05.406416  1973 net.cpp:159] Memory required for data: 4192768516
I0619 10:19:05.406432  1973 layer_factory.hpp:77] Creating layer inception_4c/relu_5x5_reduce
I0619 10:19:05.406453  1973 net.cpp:94] Creating Layer inception_4c/relu_5x5_reduce
I0619 10:19:05.406464  1973 net.cpp:435] inception_4c/relu_5x5_reduce <- inception_4c/5x5_reduce
I0619 10:19:05.406482  1973 net.cpp:396] inception_4c/relu_5x5_reduce -> inception_4c/5x5_reduce (in-place)
I0619 10:19:05.406503  1973 net.cpp:144] Setting up inception_4c/relu_5x5_reduce
I0619 10:19:05.406514  1973 net.cpp:151] Top shape: 96 24 14 14 (451584)
I0619 10:19:05.406522  1973 net.cpp:159] Memory required for data: 4194574852
I0619 10:19:05.406528  1973 layer_factory.hpp:77] Creating layer inception_4c/5x5
I0619 10:19:05.406548  1973 net.cpp:94] Creating Layer inception_4c/5x5
I0619 10:19:05.406555  1973 net.cpp:435] inception_4c/5x5 <- inception_4c/5x5_reduce
I0619 10:19:05.406572  1973 net.cpp:409] inception_4c/5x5 -> inception_4c/5x5
I0619 10:19:05.419706  1973 net.cpp:144] Setting up inception_4c/5x5
I0619 10:19:05.419742  1973 net.cpp:151] Top shape: 96 64 14 14 (1204224)
I0619 10:19:05.419750  1973 net.cpp:159] Memory required for data: 4199391748
I0619 10:19:05.419765  1973 layer_factory.hpp:77] Creating layer inception_4c/relu_5x5
I0619 10:19:05.419780  1973 net.cpp:94] Creating Layer inception_4c/relu_5x5
I0619 10:19:05.419790  1973 net.cpp:435] inception_4c/relu_5x5 <- inception_4c/5x5
I0619 10:19:05.419806  1973 net.cpp:396] inception_4c/relu_5x5 -> inception_4c/5x5 (in-place)
I0619 10:19:05.419824  1973 net.cpp:144] Setting up inception_4c/relu_5x5
I0619 10:19:05.419836  1973 net.cpp:151] Top shape: 96 64 14 14 (1204224)
I0619 10:19:05.419842  1973 net.cpp:159] Memory required for data: 4204208644
I0619 10:19:05.419848  1973 layer_factory.hpp:77] Creating layer inception_4c/pool
I0619 10:19:05.419864  1973 net.cpp:94] Creating Layer inception_4c/pool
I0619 10:19:05.419876  1973 net.cpp:435] inception_4c/pool <- inception_4b/output_inception_4b/output_0_split_3
I0619 10:19:05.419888  1973 net.cpp:409] inception_4c/pool -> inception_4c/pool
I0619 10:19:05.420020  1973 net.cpp:144] Setting up inception_4c/pool
I0619 10:19:05.420037  1973 net.cpp:151] Top shape: 96 512 14 14 (9633792)
I0619 10:19:05.420047  1973 net.cpp:159] Memory required for data: 4242743812
I0619 10:19:05.420053  1973 layer_factory.hpp:77] Creating layer inception_4c/pool_proj
I0619 10:19:05.420076  1973 net.cpp:94] Creating Layer inception_4c/pool_proj
I0619 10:19:05.420086  1973 net.cpp:435] inception_4c/pool_proj <- inception_4c/pool
I0619 10:19:05.420104  1973 net.cpp:409] inception_4c/pool_proj -> inception_4c/pool_proj
I0619 10:19:05.434659  1973 net.cpp:144] Setting up inception_4c/pool_proj
I0619 10:19:05.434695  1973 net.cpp:151] Top shape: 96 64 14 14 (1204224)
I0619 10:19:05.434705  1973 net.cpp:159] Memory required for data: 4247560708
I0619 10:19:05.434721  1973 layer_factory.hpp:77] Creating layer inception_4c/relu_pool_proj
I0619 10:19:05.434741  1973 net.cpp:94] Creating Layer inception_4c/relu_pool_proj
I0619 10:19:05.434752  1973 net.cpp:435] inception_4c/relu_pool_proj <- inception_4c/pool_proj
I0619 10:19:05.434764  1973 net.cpp:396] inception_4c/relu_pool_proj -> inception_4c/pool_proj (in-place)
I0619 10:19:05.434788  1973 net.cpp:144] Setting up inception_4c/relu_pool_proj
I0619 10:19:05.434800  1973 net.cpp:151] Top shape: 96 64 14 14 (1204224)
I0619 10:19:05.434808  1973 net.cpp:159] Memory required for data: 4252377604
I0619 10:19:05.434815  1973 layer_factory.hpp:77] Creating layer inception_4c/output
I0619 10:19:05.434844  1973 net.cpp:94] Creating Layer inception_4c/output
I0619 10:19:05.434851  1973 net.cpp:435] inception_4c/output <- inception_4c/1x1
I0619 10:19:05.434895  1973 net.cpp:435] inception_4c/output <- inception_4c/3x3
I0619 10:19:05.434909  1973 net.cpp:435] inception_4c/output <- inception_4c/5x5
I0619 10:19:05.434917  1973 net.cpp:435] inception_4c/output <- inception_4c/pool_proj
I0619 10:19:05.434928  1973 net.cpp:409] inception_4c/output -> inception_4c/output
I0619 10:19:05.435014  1973 net.cpp:144] Setting up inception_4c/output
I0619 10:19:05.435030  1973 net.cpp:151] Top shape: 96 512 14 14 (9633792)
I0619 10:19:05.435039  1973 net.cpp:159] Memory required for data: 4290912772
I0619 10:19:05.435046  1973 layer_factory.hpp:77] Creating layer inception_4c/output_inception_4c/output_0_split
I0619 10:19:05.435063  1973 net.cpp:94] Creating Layer inception_4c/output_inception_4c/output_0_split
I0619 10:19:05.435075  1973 net.cpp:435] inception_4c/output_inception_4c/output_0_split <- inception_4c/output
I0619 10:19:05.435089  1973 net.cpp:409] inception_4c/output_inception_4c/output_0_split -> inception_4c/output_inception_4c/output_0_split_0
I0619 10:19:05.435106  1973 net.cpp:409] inception_4c/output_inception_4c/output_0_split -> inception_4c/output_inception_4c/output_0_split_1
I0619 10:19:05.435119  1973 net.cpp:409] inception_4c/output_inception_4c/output_0_split -> inception_4c/output_inception_4c/output_0_split_2
I0619 10:19:05.435134  1973 net.cpp:409] inception_4c/output_inception_4c/output_0_split -> inception_4c/output_inception_4c/output_0_split_3
I0619 10:19:05.435303  1973 net.cpp:144] Setting up inception_4c/output_inception_4c/output_0_split
I0619 10:19:05.435324  1973 net.cpp:151] Top shape: 96 512 14 14 (9633792)
I0619 10:19:05.435338  1973 net.cpp:151] Top shape: 96 512 14 14 (9633792)
I0619 10:19:05.435345  1973 net.cpp:151] Top shape: 96 512 14 14 (9633792)
I0619 10:19:05.435353  1973 net.cpp:151] Top shape: 96 512 14 14 (9633792)
I0619 10:19:05.435359  1973 net.cpp:159] Memory required for data: 4445053444
I0619 10:19:05.435366  1973 layer_factory.hpp:77] Creating layer inception_4d/1x1
I0619 10:19:05.435387  1973 net.cpp:94] Creating Layer inception_4d/1x1
I0619 10:19:05.435400  1973 net.cpp:435] inception_4d/1x1 <- inception_4c/output_inception_4c/output_0_split_0
I0619 10:19:05.435416  1973 net.cpp:409] inception_4d/1x1 -> inception_4d/1x1
I0619 10:19:05.450541  1973 net.cpp:144] Setting up inception_4d/1x1
I0619 10:19:05.450578  1973 net.cpp:151] Top shape: 96 112 14 14 (2107392)
I0619 10:19:05.450587  1973 net.cpp:159] Memory required for data: 4453483012
I0619 10:19:05.450604  1973 layer_factory.hpp:77] Creating layer inception_4d/relu_1x1
I0619 10:19:05.450624  1973 net.cpp:94] Creating Layer inception_4d/relu_1x1
I0619 10:19:05.450635  1973 net.cpp:435] inception_4d/relu_1x1 <- inception_4d/1x1
I0619 10:19:05.450652  1973 net.cpp:396] inception_4d/relu_1x1 -> inception_4d/1x1 (in-place)
I0619 10:19:05.450673  1973 net.cpp:144] Setting up inception_4d/relu_1x1
I0619 10:19:05.450685  1973 net.cpp:151] Top shape: 96 112 14 14 (2107392)
I0619 10:19:05.450692  1973 net.cpp:159] Memory required for data: 4461912580
I0619 10:19:05.450698  1973 layer_factory.hpp:77] Creating layer inception_4d/3x3_reduce
I0619 10:19:05.450716  1973 net.cpp:94] Creating Layer inception_4d/3x3_reduce
I0619 10:19:05.450726  1973 net.cpp:435] inception_4d/3x3_reduce <- inception_4c/output_inception_4c/output_0_split_1
I0619 10:19:05.450743  1973 net.cpp:409] inception_4d/3x3_reduce -> inception_4d/3x3_reduce
I0619 10:19:05.468405  1973 net.cpp:144] Setting up inception_4d/3x3_reduce
I0619 10:19:05.468441  1973 net.cpp:151] Top shape: 96 144 14 14 (2709504)
I0619 10:19:05.468451  1973 net.cpp:159] Memory required for data: 4472750596
I0619 10:19:05.468467  1973 layer_factory.hpp:77] Creating layer inception_4d/relu_3x3_reduce
I0619 10:19:05.468503  1973 net.cpp:94] Creating Layer inception_4d/relu_3x3_reduce
I0619 10:19:05.468514  1973 net.cpp:435] inception_4d/relu_3x3_reduce <- inception_4d/3x3_reduce
I0619 10:19:05.468529  1973 net.cpp:396] inception_4d/relu_3x3_reduce -> inception_4d/3x3_reduce (in-place)
I0619 10:19:05.468578  1973 net.cpp:144] Setting up inception_4d/relu_3x3_reduce
I0619 10:19:05.468591  1973 net.cpp:151] Top shape: 96 144 14 14 (2709504)
I0619 10:19:05.468605  1973 net.cpp:159] Memory required for data: 4483588612
I0619 10:19:05.468612  1973 layer_factory.hpp:77] Creating layer inception_4d/3x3
I0619 10:19:05.468631  1973 net.cpp:94] Creating Layer inception_4d/3x3
I0619 10:19:05.468641  1973 net.cpp:435] inception_4d/3x3 <- inception_4d/3x3_reduce
I0619 10:19:05.468657  1973 net.cpp:409] inception_4d/3x3 -> inception_4d/3x3
I0619 10:19:05.516044  1973 net.cpp:144] Setting up inception_4d/3x3
I0619 10:19:05.516083  1973 net.cpp:151] Top shape: 96 288 14 14 (5419008)
I0619 10:19:05.516093  1973 net.cpp:159] Memory required for data: 4505264644
I0619 10:19:05.516108  1973 layer_factory.hpp:77] Creating layer inception_4d/relu_3x3
I0619 10:19:05.516129  1973 net.cpp:94] Creating Layer inception_4d/relu_3x3
I0619 10:19:05.516139  1973 net.cpp:435] inception_4d/relu_3x3 <- inception_4d/3x3
I0619 10:19:05.516152  1973 net.cpp:396] inception_4d/relu_3x3 -> inception_4d/3x3 (in-place)
I0619 10:19:05.516605  1973 net.cpp:144] Setting up inception_4d/relu_3x3
I0619 10:19:05.516625  1973 net.cpp:151] Top shape: 96 288 14 14 (5419008)
I0619 10:19:05.516633  1973 net.cpp:159] Memory required for data: 4526940676
I0619 10:19:05.516639  1973 layer_factory.hpp:77] Creating layer inception_4d/5x5_reduce
I0619 10:19:05.516664  1973 net.cpp:94] Creating Layer inception_4d/5x5_reduce
I0619 10:19:05.516675  1973 net.cpp:435] inception_4d/5x5_reduce <- inception_4c/output_inception_4c/output_0_split_2
I0619 10:19:05.516693  1973 net.cpp:409] inception_4d/5x5_reduce -> inception_4d/5x5_reduce
I0619 10:19:05.530645  1973 net.cpp:144] Setting up inception_4d/5x5_reduce
I0619 10:19:05.530681  1973 net.cpp:151] Top shape: 96 32 14 14 (602112)
I0619 10:19:05.530690  1973 net.cpp:159] Memory required for data: 4529349124
I0619 10:19:05.530707  1973 layer_factory.hpp:77] Creating layer inception_4d/relu_5x5_reduce
I0619 10:19:05.530722  1973 net.cpp:94] Creating Layer inception_4d/relu_5x5_reduce
I0619 10:19:05.530735  1973 net.cpp:435] inception_4d/relu_5x5_reduce <- inception_4d/5x5_reduce
I0619 10:19:05.530747  1973 net.cpp:396] inception_4d/relu_5x5_reduce -> inception_4d/5x5_reduce (in-place)
I0619 10:19:05.530767  1973 net.cpp:144] Setting up inception_4d/relu_5x5_reduce
I0619 10:19:05.530778  1973 net.cpp:151] Top shape: 96 32 14 14 (602112)
I0619 10:19:05.530784  1973 net.cpp:159] Memory required for data: 4531757572
I0619 10:19:05.530791  1973 layer_factory.hpp:77] Creating layer inception_4d/5x5
I0619 10:19:05.530819  1973 net.cpp:94] Creating Layer inception_4d/5x5
I0619 10:19:05.530830  1973 net.cpp:435] inception_4d/5x5 <- inception_4d/5x5_reduce
I0619 10:19:05.530844  1973 net.cpp:409] inception_4d/5x5 -> inception_4d/5x5
I0619 10:19:05.542721  1973 net.cpp:144] Setting up inception_4d/5x5
I0619 10:19:05.542755  1973 net.cpp:151] Top shape: 96 64 14 14 (1204224)
I0619 10:19:05.542763  1973 net.cpp:159] Memory required for data: 4536574468
I0619 10:19:05.542780  1973 layer_factory.hpp:77] Creating layer inception_4d/relu_5x5
I0619 10:19:05.542795  1973 net.cpp:94] Creating Layer inception_4d/relu_5x5
I0619 10:19:05.542806  1973 net.cpp:435] inception_4d/relu_5x5 <- inception_4d/5x5
I0619 10:19:05.542819  1973 net.cpp:396] inception_4d/relu_5x5 -> inception_4d/5x5 (in-place)
I0619 10:19:05.542843  1973 net.cpp:144] Setting up inception_4d/relu_5x5
I0619 10:19:05.542855  1973 net.cpp:151] Top shape: 96 64 14 14 (1204224)
I0619 10:19:05.542861  1973 net.cpp:159] Memory required for data: 4541391364
I0619 10:19:05.542870  1973 layer_factory.hpp:77] Creating layer inception_4d/pool
I0619 10:19:05.542887  1973 net.cpp:94] Creating Layer inception_4d/pool
I0619 10:19:05.542896  1973 net.cpp:435] inception_4d/pool <- inception_4c/output_inception_4c/output_0_split_3
I0619 10:19:05.542913  1973 net.cpp:409] inception_4d/pool -> inception_4d/pool
I0619 10:19:05.543054  1973 net.cpp:144] Setting up inception_4d/pool
I0619 10:19:05.543102  1973 net.cpp:151] Top shape: 96 512 14 14 (9633792)
I0619 10:19:05.543112  1973 net.cpp:159] Memory required for data: 4579926532
I0619 10:19:05.543120  1973 layer_factory.hpp:77] Creating layer inception_4d/pool_proj
I0619 10:19:05.543143  1973 net.cpp:94] Creating Layer inception_4d/pool_proj
I0619 10:19:05.543155  1973 net.cpp:435] inception_4d/pool_proj <- inception_4d/pool
I0619 10:19:05.543189  1973 net.cpp:409] inception_4d/pool_proj -> inception_4d/pool_proj
I0619 10:19:05.558086  1973 net.cpp:144] Setting up inception_4d/pool_proj
I0619 10:19:05.558123  1973 net.cpp:151] Top shape: 96 64 14 14 (1204224)
I0619 10:19:05.558132  1973 net.cpp:159] Memory required for data: 4584743428
I0619 10:19:05.558149  1973 layer_factory.hpp:77] Creating layer inception_4d/relu_pool_proj
I0619 10:19:05.558183  1973 net.cpp:94] Creating Layer inception_4d/relu_pool_proj
I0619 10:19:05.558197  1973 net.cpp:435] inception_4d/relu_pool_proj <- inception_4d/pool_proj
I0619 10:19:05.558212  1973 net.cpp:396] inception_4d/relu_pool_proj -> inception_4d/pool_proj (in-place)
I0619 10:19:05.558236  1973 net.cpp:144] Setting up inception_4d/relu_pool_proj
I0619 10:19:05.558248  1973 net.cpp:151] Top shape: 96 64 14 14 (1204224)
I0619 10:19:05.558255  1973 net.cpp:159] Memory required for data: 4589560324
I0619 10:19:05.558264  1973 layer_factory.hpp:77] Creating layer inception_4d/output
I0619 10:19:05.558274  1973 net.cpp:94] Creating Layer inception_4d/output
I0619 10:19:05.558282  1973 net.cpp:435] inception_4d/output <- inception_4d/1x1
I0619 10:19:05.558292  1973 net.cpp:435] inception_4d/output <- inception_4d/3x3
I0619 10:19:05.558302  1973 net.cpp:435] inception_4d/output <- inception_4d/5x5
I0619 10:19:05.558318  1973 net.cpp:435] inception_4d/output <- inception_4d/pool_proj
I0619 10:19:05.558328  1973 net.cpp:409] inception_4d/output -> inception_4d/output
I0619 10:19:05.558426  1973 net.cpp:144] Setting up inception_4d/output
I0619 10:19:05.558444  1973 net.cpp:151] Top shape: 96 528 14 14 (9934848)
I0619 10:19:05.558451  1973 net.cpp:159] Memory required for data: 4629299716
I0619 10:19:05.558462  1973 layer_factory.hpp:77] Creating layer inception_4d/output_inception_4d/output_0_split
I0619 10:19:05.558475  1973 net.cpp:94] Creating Layer inception_4d/output_inception_4d/output_0_split
I0619 10:19:05.558483  1973 net.cpp:435] inception_4d/output_inception_4d/output_0_split <- inception_4d/output
I0619 10:19:05.558501  1973 net.cpp:409] inception_4d/output_inception_4d/output_0_split -> inception_4d/output_inception_4d/output_0_split_0
I0619 10:19:05.558519  1973 net.cpp:409] inception_4d/output_inception_4d/output_0_split -> inception_4d/output_inception_4d/output_0_split_1
I0619 10:19:05.558535  1973 net.cpp:409] inception_4d/output_inception_4d/output_0_split -> inception_4d/output_inception_4d/output_0_split_2
I0619 10:19:05.558548  1973 net.cpp:409] inception_4d/output_inception_4d/output_0_split -> inception_4d/output_inception_4d/output_0_split_3
I0619 10:19:05.558563  1973 net.cpp:409] inception_4d/output_inception_4d/output_0_split -> inception_4d/output_inception_4d/output_0_split_4
I0619 10:19:05.558773  1973 net.cpp:144] Setting up inception_4d/output_inception_4d/output_0_split
I0619 10:19:05.558789  1973 net.cpp:151] Top shape: 96 528 14 14 (9934848)
I0619 10:19:05.558799  1973 net.cpp:151] Top shape: 96 528 14 14 (9934848)
I0619 10:19:05.558810  1973 net.cpp:151] Top shape: 96 528 14 14 (9934848)
I0619 10:19:05.558818  1973 net.cpp:151] Top shape: 96 528 14 14 (9934848)
I0619 10:19:05.558827  1973 net.cpp:151] Top shape: 96 528 14 14 (9934848)
I0619 10:19:05.558833  1973 net.cpp:159] Memory required for data: 4827996676
I0619 10:19:05.558841  1973 layer_factory.hpp:77] Creating layer loss2/ave_pool
I0619 10:19:05.558857  1973 net.cpp:94] Creating Layer loss2/ave_pool
I0619 10:19:05.558866  1973 net.cpp:435] loss2/ave_pool <- inception_4d/output_inception_4d/output_0_split_0
I0619 10:19:05.558881  1973 net.cpp:409] loss2/ave_pool -> loss2/ave_pool
I0619 10:19:05.558950  1973 net.cpp:144] Setting up loss2/ave_pool
I0619 10:19:05.558996  1973 net.cpp:151] Top shape: 96 528 4 4 (811008)
I0619 10:19:05.559008  1973 net.cpp:159] Memory required for data: 4831240708
I0619 10:19:05.559015  1973 layer_factory.hpp:77] Creating layer loss2/conv
I0619 10:19:05.559043  1973 net.cpp:94] Creating Layer loss2/conv
I0619 10:19:05.559054  1973 net.cpp:435] loss2/conv <- loss2/ave_pool
I0619 10:19:05.559067  1973 net.cpp:409] loss2/conv -> loss2/conv
I0619 10:19:05.566922  1973 net.cpp:144] Setting up loss2/conv
I0619 10:19:05.566957  1973 net.cpp:151] Top shape: 96 128 4 4 (196608)
I0619 10:19:05.566968  1973 net.cpp:159] Memory required for data: 4832027140
I0619 10:19:05.566984  1973 layer_factory.hpp:77] Creating layer loss2/relu_conv
I0619 10:19:05.566999  1973 net.cpp:94] Creating Layer loss2/relu_conv
I0619 10:19:05.567010  1973 net.cpp:435] loss2/relu_conv <- loss2/conv
I0619 10:19:05.567028  1973 net.cpp:396] loss2/relu_conv -> loss2/conv (in-place)
I0619 10:19:05.567047  1973 net.cpp:144] Setting up loss2/relu_conv
I0619 10:19:05.567059  1973 net.cpp:151] Top shape: 96 128 4 4 (196608)
I0619 10:19:05.567065  1973 net.cpp:159] Memory required for data: 4832813572
I0619 10:19:05.567071  1973 layer_factory.hpp:77] Creating layer loss2/fc
I0619 10:19:05.567086  1973 net.cpp:94] Creating Layer loss2/fc
I0619 10:19:05.567093  1973 net.cpp:435] loss2/fc <- loss2/conv
I0619 10:19:05.567109  1973 net.cpp:409] loss2/fc -> loss2/fc
I0619 10:19:05.596442  1973 net.cpp:144] Setting up loss2/fc
I0619 10:19:05.596472  1973 net.cpp:151] Top shape: 96 1024 (98304)
I0619 10:19:05.596480  1973 net.cpp:159] Memory required for data: 4833206788
I0619 10:19:05.596495  1973 layer_factory.hpp:77] Creating layer loss2/relu_fc
I0619 10:19:05.596513  1973 net.cpp:94] Creating Layer loss2/relu_fc
I0619 10:19:05.596521  1973 net.cpp:435] loss2/relu_fc <- loss2/fc
I0619 10:19:05.596532  1973 net.cpp:396] loss2/relu_fc -> loss2/fc (in-place)
I0619 10:19:05.596549  1973 net.cpp:144] Setting up loss2/relu_fc
I0619 10:19:05.596562  1973 net.cpp:151] Top shape: 96 1024 (98304)
I0619 10:19:05.596568  1973 net.cpp:159] Memory required for data: 4833600004
I0619 10:19:05.596575  1973 layer_factory.hpp:77] Creating layer loss2/drop_fc
I0619 10:19:05.596586  1973 net.cpp:94] Creating Layer loss2/drop_fc
I0619 10:19:05.596597  1973 net.cpp:435] loss2/drop_fc <- loss2/fc
I0619 10:19:05.596607  1973 net.cpp:396] loss2/drop_fc -> loss2/fc (in-place)
I0619 10:19:05.596674  1973 net.cpp:144] Setting up loss2/drop_fc
I0619 10:19:05.596686  1973 net.cpp:151] Top shape: 96 1024 (98304)
I0619 10:19:05.596693  1973 net.cpp:159] Memory required for data: 4833993220
I0619 10:19:05.596699  1973 layer_factory.hpp:77] Creating layer loss2/classifier
I0619 10:19:05.596716  1973 net.cpp:94] Creating Layer loss2/classifier
I0619 10:19:05.596724  1973 net.cpp:435] loss2/classifier <- loss2/fc
I0619 10:19:05.596735  1973 net.cpp:409] loss2/classifier -> loss2/classifier
I0619 10:19:05.611191  1973 net.cpp:144] Setting up loss2/classifier
I0619 10:19:05.611219  1973 net.cpp:151] Top shape: 96 1000 (96000)
I0619 10:19:05.611225  1973 net.cpp:159] Memory required for data: 4834377220
I0619 10:19:05.611238  1973 layer_factory.hpp:77] Creating layer loss2/loss
I0619 10:19:05.611254  1973 net.cpp:94] Creating Layer loss2/loss
I0619 10:19:05.611263  1973 net.cpp:435] loss2/loss <- loss2/classifier
I0619 10:19:05.611273  1973 net.cpp:435] loss2/loss <- label_data_1_split_1
I0619 10:19:05.611281  1973 net.cpp:409] loss2/loss -> loss2/loss1
I0619 10:19:05.611297  1973 layer_factory.hpp:77] Creating layer loss2/loss
I0619 10:19:05.613816  1973 net.cpp:144] Setting up loss2/loss
I0619 10:19:05.613842  1973 net.cpp:151] Top shape: (1)
I0619 10:19:05.613848  1973 net.cpp:154]     with loss weight 0.3
I0619 10:19:05.613863  1973 net.cpp:159] Memory required for data: 4834377224
I0619 10:19:05.613870  1973 layer_factory.hpp:77] Creating layer inception_4e/1x1
I0619 10:19:05.613893  1973 net.cpp:94] Creating Layer inception_4e/1x1
I0619 10:19:05.613904  1973 net.cpp:435] inception_4e/1x1 <- inception_4d/output_inception_4d/output_0_split_1
I0619 10:19:05.613957  1973 net.cpp:409] inception_4e/1x1 -> inception_4e/1x1
I0619 10:19:05.634678  1973 net.cpp:144] Setting up inception_4e/1x1
I0619 10:19:05.634711  1973 net.cpp:151] Top shape: 96 256 14 14 (4816896)
I0619 10:19:05.634717  1973 net.cpp:159] Memory required for data: 4853644808
I0619 10:19:05.634732  1973 layer_factory.hpp:77] Creating layer inception_4e/relu_1x1
I0619 10:19:05.634744  1973 net.cpp:94] Creating Layer inception_4e/relu_1x1
I0619 10:19:05.634752  1973 net.cpp:435] inception_4e/relu_1x1 <- inception_4e/1x1
I0619 10:19:05.634766  1973 net.cpp:396] inception_4e/relu_1x1 -> inception_4e/1x1 (in-place)
I0619 10:19:05.634783  1973 net.cpp:144] Setting up inception_4e/relu_1x1
I0619 10:19:05.634793  1973 net.cpp:151] Top shape: 96 256 14 14 (4816896)
I0619 10:19:05.634799  1973 net.cpp:159] Memory required for data: 4872912392
I0619 10:19:05.634804  1973 layer_factory.hpp:77] Creating layer inception_4e/3x3_reduce
I0619 10:19:05.634822  1973 net.cpp:94] Creating Layer inception_4e/3x3_reduce
I0619 10:19:05.634829  1973 net.cpp:435] inception_4e/3x3_reduce <- inception_4d/output_inception_4d/output_0_split_2
I0619 10:19:05.634841  1973 net.cpp:409] inception_4e/3x3_reduce -> inception_4e/3x3_reduce
I0619 10:19:05.653972  1973 net.cpp:144] Setting up inception_4e/3x3_reduce
I0619 10:19:05.654009  1973 net.cpp:151] Top shape: 96 160 14 14 (3010560)
I0619 10:19:05.654018  1973 net.cpp:159] Memory required for data: 4884954632
I0619 10:19:05.654036  1973 layer_factory.hpp:77] Creating layer inception_4e/relu_3x3_reduce
I0619 10:19:05.654052  1973 net.cpp:94] Creating Layer inception_4e/relu_3x3_reduce
I0619 10:19:05.654067  1973 net.cpp:435] inception_4e/relu_3x3_reduce <- inception_4e/3x3_reduce
I0619 10:19:05.654078  1973 net.cpp:396] inception_4e/relu_3x3_reduce -> inception_4e/3x3_reduce (in-place)
I0619 10:19:05.654099  1973 net.cpp:144] Setting up inception_4e/relu_3x3_reduce
I0619 10:19:05.654110  1973 net.cpp:151] Top shape: 96 160 14 14 (3010560)
I0619 10:19:05.654117  1973 net.cpp:159] Memory required for data: 4896996872
I0619 10:19:05.654124  1973 layer_factory.hpp:77] Creating layer inception_4e/3x3
I0619 10:19:05.654150  1973 net.cpp:94] Creating Layer inception_4e/3x3
I0619 10:19:05.654163  1973 net.cpp:435] inception_4e/3x3 <- inception_4e/3x3_reduce
I0619 10:19:05.654194  1973 net.cpp:409] inception_4e/3x3 -> inception_4e/3x3
I0619 10:19:05.703865  1973 net.cpp:144] Setting up inception_4e/3x3
I0619 10:19:05.703902  1973 net.cpp:151] Top shape: 96 320 14 14 (6021120)
I0619 10:19:05.703912  1973 net.cpp:159] Memory required for data: 4921081352
I0619 10:19:05.703928  1973 layer_factory.hpp:77] Creating layer inception_4e/relu_3x3
I0619 10:19:05.703943  1973 net.cpp:94] Creating Layer inception_4e/relu_3x3
I0619 10:19:05.703953  1973 net.cpp:435] inception_4e/relu_3x3 <- inception_4e/3x3
I0619 10:19:05.703972  1973 net.cpp:396] inception_4e/relu_3x3 -> inception_4e/3x3 (in-place)
I0619 10:19:05.703996  1973 net.cpp:144] Setting up inception_4e/relu_3x3
I0619 10:19:05.704007  1973 net.cpp:151] Top shape: 96 320 14 14 (6021120)
I0619 10:19:05.704015  1973 net.cpp:159] Memory required for data: 4945165832
I0619 10:19:05.704023  1973 layer_factory.hpp:77] Creating layer inception_4e/5x5_reduce
I0619 10:19:05.704048  1973 net.cpp:94] Creating Layer inception_4e/5x5_reduce
I0619 10:19:05.704057  1973 net.cpp:435] inception_4e/5x5_reduce <- inception_4d/output_inception_4d/output_0_split_3
I0619 10:19:05.704071  1973 net.cpp:409] inception_4e/5x5_reduce -> inception_4e/5x5_reduce
I0619 10:19:05.717748  1973 net.cpp:144] Setting up inception_4e/5x5_reduce
I0619 10:19:05.717787  1973 net.cpp:151] Top shape: 96 32 14 14 (602112)
I0619 10:19:05.717795  1973 net.cpp:159] Memory required for data: 4947574280
I0619 10:19:05.717811  1973 layer_factory.hpp:77] Creating layer inception_4e/relu_5x5_reduce
I0619 10:19:05.717826  1973 net.cpp:94] Creating Layer inception_4e/relu_5x5_reduce
I0619 10:19:05.717838  1973 net.cpp:435] inception_4e/relu_5x5_reduce <- inception_4e/5x5_reduce
I0619 10:19:05.717885  1973 net.cpp:396] inception_4e/relu_5x5_reduce -> inception_4e/5x5_reduce (in-place)
I0619 10:19:05.717907  1973 net.cpp:144] Setting up inception_4e/relu_5x5_reduce
I0619 10:19:05.717919  1973 net.cpp:151] Top shape: 96 32 14 14 (602112)
I0619 10:19:05.717926  1973 net.cpp:159] Memory required for data: 4949982728
I0619 10:19:05.717933  1973 layer_factory.hpp:77] Creating layer inception_4e/5x5
I0619 10:19:05.717983  1973 net.cpp:94] Creating Layer inception_4e/5x5
I0619 10:19:05.717996  1973 net.cpp:435] inception_4e/5x5 <- inception_4e/5x5_reduce
I0619 10:19:05.718010  1973 net.cpp:409] inception_4e/5x5 -> inception_4e/5x5
I0619 10:19:05.733114  1973 net.cpp:144] Setting up inception_4e/5x5
I0619 10:19:05.733150  1973 net.cpp:151] Top shape: 96 128 14 14 (2408448)
I0619 10:19:05.733158  1973 net.cpp:159] Memory required for data: 4959616520
I0619 10:19:05.733186  1973 layer_factory.hpp:77] Creating layer inception_4e/relu_5x5
I0619 10:19:05.733201  1973 net.cpp:94] Creating Layer inception_4e/relu_5x5
I0619 10:19:05.733225  1973 net.cpp:435] inception_4e/relu_5x5 <- inception_4e/5x5
I0619 10:19:05.733247  1973 net.cpp:396] inception_4e/relu_5x5 -> inception_4e/5x5 (in-place)
I0619 10:19:05.733265  1973 net.cpp:144] Setting up inception_4e/relu_5x5
I0619 10:19:05.733278  1973 net.cpp:151] Top shape: 96 128 14 14 (2408448)
I0619 10:19:05.733283  1973 net.cpp:159] Memory required for data: 4969250312
I0619 10:19:05.733290  1973 layer_factory.hpp:77] Creating layer inception_4e/pool
I0619 10:19:05.733302  1973 net.cpp:94] Creating Layer inception_4e/pool
I0619 10:19:05.733314  1973 net.cpp:435] inception_4e/pool <- inception_4d/output_inception_4d/output_0_split_4
I0619 10:19:05.733325  1973 net.cpp:409] inception_4e/pool -> inception_4e/pool
I0619 10:19:05.733467  1973 net.cpp:144] Setting up inception_4e/pool
I0619 10:19:05.733484  1973 net.cpp:151] Top shape: 96 528 14 14 (9934848)
I0619 10:19:05.733490  1973 net.cpp:159] Memory required for data: 5008989704
I0619 10:19:05.733497  1973 layer_factory.hpp:77] Creating layer inception_4e/pool_proj
I0619 10:19:05.733523  1973 net.cpp:94] Creating Layer inception_4e/pool_proj
I0619 10:19:05.733535  1973 net.cpp:435] inception_4e/pool_proj <- inception_4e/pool
I0619 10:19:05.733551  1973 net.cpp:409] inception_4e/pool_proj -> inception_4e/pool_proj
I0619 10:19:05.749845  1973 net.cpp:144] Setting up inception_4e/pool_proj
I0619 10:19:05.749879  1973 net.cpp:151] Top shape: 96 128 14 14 (2408448)
I0619 10:19:05.749888  1973 net.cpp:159] Memory required for data: 5018623496
I0619 10:19:05.749904  1973 layer_factory.hpp:77] Creating layer inception_4e/relu_pool_proj
I0619 10:19:05.749918  1973 net.cpp:94] Creating Layer inception_4e/relu_pool_proj
I0619 10:19:05.749929  1973 net.cpp:435] inception_4e/relu_pool_proj <- inception_4e/pool_proj
I0619 10:19:05.749944  1973 net.cpp:396] inception_4e/relu_pool_proj -> inception_4e/pool_proj (in-place)
I0619 10:19:05.749964  1973 net.cpp:144] Setting up inception_4e/relu_pool_proj
I0619 10:19:05.749975  1973 net.cpp:151] Top shape: 96 128 14 14 (2408448)
I0619 10:19:05.749981  1973 net.cpp:159] Memory required for data: 5028257288
I0619 10:19:05.749989  1973 layer_factory.hpp:77] Creating layer inception_4e/output
I0619 10:19:05.750000  1973 net.cpp:94] Creating Layer inception_4e/output
I0619 10:19:05.750011  1973 net.cpp:435] inception_4e/output <- inception_4e/1x1
I0619 10:19:05.750020  1973 net.cpp:435] inception_4e/output <- inception_4e/3x3
I0619 10:19:05.750028  1973 net.cpp:435] inception_4e/output <- inception_4e/5x5
I0619 10:19:05.750036  1973 net.cpp:435] inception_4e/output <- inception_4e/pool_proj
I0619 10:19:05.750053  1973 net.cpp:409] inception_4e/output -> inception_4e/output
I0619 10:19:05.750144  1973 net.cpp:144] Setting up inception_4e/output
I0619 10:19:05.750180  1973 net.cpp:151] Top shape: 96 832 14 14 (15654912)
I0619 10:19:05.750191  1973 net.cpp:159] Memory required for data: 5090876936
I0619 10:19:05.750198  1973 layer_factory.hpp:77] Creating layer pool4/3x3_s2
I0619 10:19:05.750243  1973 net.cpp:94] Creating Layer pool4/3x3_s2
I0619 10:19:05.750257  1973 net.cpp:435] pool4/3x3_s2 <- inception_4e/output
I0619 10:19:05.750267  1973 net.cpp:409] pool4/3x3_s2 -> pool4/3x3_s2
I0619 10:19:05.750402  1973 net.cpp:144] Setting up pool4/3x3_s2
I0619 10:19:05.750421  1973 net.cpp:151] Top shape: 96 832 7 7 (3913728)
I0619 10:19:05.750427  1973 net.cpp:159] Memory required for data: 5106531848
I0619 10:19:05.750433  1973 layer_factory.hpp:77] Creating layer pool4/3x3_s2_pool4/3x3_s2_0_split
I0619 10:19:05.750445  1973 net.cpp:94] Creating Layer pool4/3x3_s2_pool4/3x3_s2_0_split
I0619 10:19:05.750455  1973 net.cpp:435] pool4/3x3_s2_pool4/3x3_s2_0_split <- pool4/3x3_s2
I0619 10:19:05.750470  1973 net.cpp:409] pool4/3x3_s2_pool4/3x3_s2_0_split -> pool4/3x3_s2_pool4/3x3_s2_0_split_0
I0619 10:19:05.750485  1973 net.cpp:409] pool4/3x3_s2_pool4/3x3_s2_0_split -> pool4/3x3_s2_pool4/3x3_s2_0_split_1
I0619 10:19:05.750499  1973 net.cpp:409] pool4/3x3_s2_pool4/3x3_s2_0_split -> pool4/3x3_s2_pool4/3x3_s2_0_split_2
I0619 10:19:05.750509  1973 net.cpp:409] pool4/3x3_s2_pool4/3x3_s2_0_split -> pool4/3x3_s2_pool4/3x3_s2_0_split_3
I0619 10:19:05.750679  1973 net.cpp:144] Setting up pool4/3x3_s2_pool4/3x3_s2_0_split
I0619 10:19:05.750694  1973 net.cpp:151] Top shape: 96 832 7 7 (3913728)
I0619 10:19:05.750704  1973 net.cpp:151] Top shape: 96 832 7 7 (3913728)
I0619 10:19:05.750713  1973 net.cpp:151] Top shape: 96 832 7 7 (3913728)
I0619 10:19:05.750721  1973 net.cpp:151] Top shape: 96 832 7 7 (3913728)
I0619 10:19:05.750728  1973 net.cpp:159] Memory required for data: 5169151496
I0619 10:19:05.750735  1973 layer_factory.hpp:77] Creating layer inception_5a/1x1
I0619 10:19:05.750756  1973 net.cpp:94] Creating Layer inception_5a/1x1
I0619 10:19:05.750766  1973 net.cpp:435] inception_5a/1x1 <- pool4/3x3_s2_pool4/3x3_s2_0_split_0
I0619 10:19:05.750787  1973 net.cpp:409] inception_5a/1x1 -> inception_5a/1x1
I0619 10:19:05.769971  1973 net.cpp:144] Setting up inception_5a/1x1
I0619 10:19:05.770009  1973 net.cpp:151] Top shape: 96 256 7 7 (1204224)
I0619 10:19:05.770017  1973 net.cpp:159] Memory required for data: 5173968392
I0619 10:19:05.770035  1973 layer_factory.hpp:77] Creating layer inception_5a/relu_1x1
I0619 10:19:05.770050  1973 net.cpp:94] Creating Layer inception_5a/relu_1x1
I0619 10:19:05.770059  1973 net.cpp:435] inception_5a/relu_1x1 <- inception_5a/1x1
I0619 10:19:05.770072  1973 net.cpp:396] inception_5a/relu_1x1 -> inception_5a/1x1 (in-place)
I0619 10:19:05.770097  1973 net.cpp:144] Setting up inception_5a/relu_1x1
I0619 10:19:05.770108  1973 net.cpp:151] Top shape: 96 256 7 7 (1204224)
I0619 10:19:05.770133  1973 net.cpp:159] Memory required for data: 5178785288
I0619 10:19:05.770140  1973 layer_factory.hpp:77] Creating layer inception_5a/3x3_reduce
I0619 10:19:05.770162  1973 net.cpp:94] Creating Layer inception_5a/3x3_reduce
I0619 10:19:05.770185  1973 net.cpp:435] inception_5a/3x3_reduce <- pool4/3x3_s2_pool4/3x3_s2_0_split_1
I0619 10:19:05.770200  1973 net.cpp:409] inception_5a/3x3_reduce -> inception_5a/3x3_reduce
I0619 10:19:05.784597  1973 net.cpp:144] Setting up inception_5a/3x3_reduce
I0619 10:19:05.784636  1973 net.cpp:151] Top shape: 96 160 7 7 (752640)
I0619 10:19:05.784644  1973 net.cpp:159] Memory required for data: 5181795848
I0619 10:19:05.784662  1973 layer_factory.hpp:77] Creating layer inception_5a/relu_3x3_reduce
I0619 10:19:05.784677  1973 net.cpp:94] Creating Layer inception_5a/relu_3x3_reduce
I0619 10:19:05.784687  1973 net.cpp:435] inception_5a/relu_3x3_reduce <- inception_5a/3x3_reduce
I0619 10:19:05.784705  1973 net.cpp:396] inception_5a/relu_3x3_reduce -> inception_5a/3x3_reduce (in-place)
I0619 10:19:05.784730  1973 net.cpp:144] Setting up inception_5a/relu_3x3_reduce
I0619 10:19:05.784741  1973 net.cpp:151] Top shape: 96 160 7 7 (752640)
I0619 10:19:05.784749  1973 net.cpp:159] Memory required for data: 5184806408
I0619 10:19:05.784756  1973 layer_factory.hpp:77] Creating layer inception_5a/3x3
I0619 10:19:05.784780  1973 net.cpp:94] Creating Layer inception_5a/3x3
I0619 10:19:05.784823  1973 net.cpp:435] inception_5a/3x3 <- inception_5a/3x3_reduce
I0619 10:19:05.784843  1973 net.cpp:409] inception_5a/3x3 -> inception_5a/3x3
I0619 10:19:05.814430  1973 net.cpp:144] Setting up inception_5a/3x3
I0619 10:19:05.814473  1973 net.cpp:151] Top shape: 96 320 7 7 (1505280)
I0619 10:19:05.814482  1973 net.cpp:159] Memory required for data: 5190827528
I0619 10:19:05.814501  1973 layer_factory.hpp:77] Creating layer inception_5a/relu_3x3
I0619 10:19:05.814527  1973 net.cpp:94] Creating Layer inception_5a/relu_3x3
I0619 10:19:05.814538  1973 net.cpp:435] inception_5a/relu_3x3 <- inception_5a/3x3
I0619 10:19:05.814554  1973 net.cpp:396] inception_5a/relu_3x3 -> inception_5a/3x3 (in-place)
I0619 10:19:05.814574  1973 net.cpp:144] Setting up inception_5a/relu_3x3
I0619 10:19:05.814589  1973 net.cpp:151] Top shape: 96 320 7 7 (1505280)
I0619 10:19:05.814597  1973 net.cpp:159] Memory required for data: 5196848648
I0619 10:19:05.814604  1973 layer_factory.hpp:77] Creating layer inception_5a/5x5_reduce
I0619 10:19:05.814623  1973 net.cpp:94] Creating Layer inception_5a/5x5_reduce
I0619 10:19:05.814641  1973 net.cpp:435] inception_5a/5x5_reduce <- pool4/3x3_s2_pool4/3x3_s2_0_split_2
I0619 10:19:05.814659  1973 net.cpp:409] inception_5a/5x5_reduce -> inception_5a/5x5_reduce
I0619 10:19:05.823001  1973 net.cpp:144] Setting up inception_5a/5x5_reduce
I0619 10:19:05.823030  1973 net.cpp:151] Top shape: 96 32 7 7 (150528)
I0619 10:19:05.823038  1973 net.cpp:159] Memory required for data: 5197450760
I0619 10:19:05.823052  1973 layer_factory.hpp:77] Creating layer inception_5a/relu_5x5_reduce
I0619 10:19:05.823067  1973 net.cpp:94] Creating Layer inception_5a/relu_5x5_reduce
I0619 10:19:05.823076  1973 net.cpp:435] inception_5a/relu_5x5_reduce <- inception_5a/5x5_reduce
I0619 10:19:05.823086  1973 net.cpp:396] inception_5a/relu_5x5_reduce -> inception_5a/5x5_reduce (in-place)
I0619 10:19:05.823102  1973 net.cpp:144] Setting up inception_5a/relu_5x5_reduce
I0619 10:19:05.823112  1973 net.cpp:151] Top shape: 96 32 7 7 (150528)
I0619 10:19:05.823117  1973 net.cpp:159] Memory required for data: 5198052872
I0619 10:19:05.823123  1973 layer_factory.hpp:77] Creating layer inception_5a/5x5
I0619 10:19:05.823149  1973 net.cpp:94] Creating Layer inception_5a/5x5
I0619 10:19:05.823158  1973 net.cpp:435] inception_5a/5x5 <- inception_5a/5x5_reduce
I0619 10:19:05.823189  1973 net.cpp:409] inception_5a/5x5 -> inception_5a/5x5
I0619 10:19:05.832420  1973 net.cpp:144] Setting up inception_5a/5x5
I0619 10:19:05.832455  1973 net.cpp:151] Top shape: 96 128 7 7 (602112)
I0619 10:19:05.832465  1973 net.cpp:159] Memory required for data: 5200461320
I0619 10:19:05.832484  1973 layer_factory.hpp:77] Creating layer inception_5a/relu_5x5
I0619 10:19:05.832499  1973 net.cpp:94] Creating Layer inception_5a/relu_5x5
I0619 10:19:05.832512  1973 net.cpp:435] inception_5a/relu_5x5 <- inception_5a/5x5
I0619 10:19:05.832525  1973 net.cpp:396] inception_5a/relu_5x5 -> inception_5a/5x5 (in-place)
I0619 10:19:05.832546  1973 net.cpp:144] Setting up inception_5a/relu_5x5
I0619 10:19:05.832557  1973 net.cpp:151] Top shape: 96 128 7 7 (602112)
I0619 10:19:05.832564  1973 net.cpp:159] Memory required for data: 5202869768
I0619 10:19:05.832571  1973 layer_factory.hpp:77] Creating layer inception_5a/pool
I0619 10:19:05.832583  1973 net.cpp:94] Creating Layer inception_5a/pool
I0619 10:19:05.832593  1973 net.cpp:435] inception_5a/pool <- pool4/3x3_s2_pool4/3x3_s2_0_split_3
I0619 10:19:05.832607  1973 net.cpp:409] inception_5a/pool -> inception_5a/pool
I0619 10:19:05.832780  1973 net.cpp:144] Setting up inception_5a/pool
I0619 10:19:05.832797  1973 net.cpp:151] Top shape: 96 832 7 7 (3913728)
I0619 10:19:05.832803  1973 net.cpp:159] Memory required for data: 5218524680
I0619 10:19:05.832810  1973 layer_factory.hpp:77] Creating layer inception_5a/pool_proj
I0619 10:19:05.832839  1973 net.cpp:94] Creating Layer inception_5a/pool_proj
I0619 10:19:05.832850  1973 net.cpp:435] inception_5a/pool_proj <- inception_5a/pool
I0619 10:19:05.832864  1973 net.cpp:409] inception_5a/pool_proj -> inception_5a/pool_proj
I0619 10:19:05.848392  1973 net.cpp:144] Setting up inception_5a/pool_proj
I0619 10:19:05.848426  1973 net.cpp:151] Top shape: 96 128 7 7 (602112)
I0619 10:19:05.848435  1973 net.cpp:159] Memory required for data: 5220933128
I0619 10:19:05.848451  1973 layer_factory.hpp:77] Creating layer inception_5a/relu_pool_proj
I0619 10:19:05.848466  1973 net.cpp:94] Creating Layer inception_5a/relu_pool_proj
I0619 10:19:05.848477  1973 net.cpp:435] inception_5a/relu_pool_proj <- inception_5a/pool_proj
I0619 10:19:05.848490  1973 net.cpp:396] inception_5a/relu_pool_proj -> inception_5a/pool_proj (in-place)
I0619 10:19:05.848515  1973 net.cpp:144] Setting up inception_5a/relu_pool_proj
I0619 10:19:05.848526  1973 net.cpp:151] Top shape: 96 128 7 7 (602112)
I0619 10:19:05.848534  1973 net.cpp:159] Memory required for data: 5223341576
I0619 10:19:05.848542  1973 layer_factory.hpp:77] Creating layer inception_5a/output
I0619 10:19:05.848559  1973 net.cpp:94] Creating Layer inception_5a/output
I0619 10:19:05.848580  1973 net.cpp:435] inception_5a/output <- inception_5a/1x1
I0619 10:19:05.848590  1973 net.cpp:435] inception_5a/output <- inception_5a/3x3
I0619 10:19:05.848604  1973 net.cpp:435] inception_5a/output <- inception_5a/5x5
I0619 10:19:05.848613  1973 net.cpp:435] inception_5a/output <- inception_5a/pool_proj
I0619 10:19:05.848623  1973 net.cpp:409] inception_5a/output -> inception_5a/output
I0619 10:19:05.848726  1973 net.cpp:144] Setting up inception_5a/output
I0619 10:19:05.848742  1973 net.cpp:151] Top shape: 96 832 7 7 (3913728)
I0619 10:19:05.848748  1973 net.cpp:159] Memory required for data: 5238996488
I0619 10:19:05.848757  1973 layer_factory.hpp:77] Creating layer inception_5a/output_inception_5a/output_0_split
I0619 10:19:05.848773  1973 net.cpp:94] Creating Layer inception_5a/output_inception_5a/output_0_split
I0619 10:19:05.848783  1973 net.cpp:435] inception_5a/output_inception_5a/output_0_split <- inception_5a/output
I0619 10:19:05.848804  1973 net.cpp:409] inception_5a/output_inception_5a/output_0_split -> inception_5a/output_inception_5a/output_0_split_0
I0619 10:19:05.848821  1973 net.cpp:409] inception_5a/output_inception_5a/output_0_split -> inception_5a/output_inception_5a/output_0_split_1
I0619 10:19:05.848834  1973 net.cpp:409] inception_5a/output_inception_5a/output_0_split -> inception_5a/output_inception_5a/output_0_split_2
I0619 10:19:05.848850  1973 net.cpp:409] inception_5a/output_inception_5a/output_0_split -> inception_5a/output_inception_5a/output_0_split_3
I0619 10:19:05.849031  1973 net.cpp:144] Setting up inception_5a/output_inception_5a/output_0_split
I0619 10:19:05.849048  1973 net.cpp:151] Top shape: 96 832 7 7 (3913728)
I0619 10:19:05.849057  1973 net.cpp:151] Top shape: 96 832 7 7 (3913728)
I0619 10:19:05.849068  1973 net.cpp:151] Top shape: 96 832 7 7 (3913728)
I0619 10:19:05.849076  1973 net.cpp:151] Top shape: 96 832 7 7 (3913728)
I0619 10:19:05.849082  1973 net.cpp:159] Memory required for data: 5301616136
I0619 10:19:05.849089  1973 layer_factory.hpp:77] Creating layer inception_5b/1x1
I0619 10:19:05.849112  1973 net.cpp:94] Creating Layer inception_5b/1x1
I0619 10:19:05.849122  1973 net.cpp:435] inception_5b/1x1 <- inception_5a/output_inception_5a/output_0_split_0
I0619 10:19:05.849134  1973 net.cpp:409] inception_5b/1x1 -> inception_5b/1x1
I0619 10:19:05.869431  1973 net.cpp:144] Setting up inception_5b/1x1
I0619 10:19:05.869470  1973 net.cpp:151] Top shape: 96 384 7 7 (1806336)
I0619 10:19:05.869480  1973 net.cpp:159] Memory required for data: 5308841480
I0619 10:19:05.869498  1973 layer_factory.hpp:77] Creating layer inception_5b/relu_1x1
I0619 10:19:05.869513  1973 net.cpp:94] Creating Layer inception_5b/relu_1x1
I0619 10:19:05.869524  1973 net.cpp:435] inception_5b/relu_1x1 <- inception_5b/1x1
I0619 10:19:05.869536  1973 net.cpp:396] inception_5b/relu_1x1 -> inception_5b/1x1 (in-place)
I0619 10:19:05.869560  1973 net.cpp:144] Setting up inception_5b/relu_1x1
I0619 10:19:05.869571  1973 net.cpp:151] Top shape: 96 384 7 7 (1806336)
I0619 10:19:05.869607  1973 net.cpp:159] Memory required for data: 5316066824
I0619 10:19:05.869616  1973 layer_factory.hpp:77] Creating layer inception_5b/3x3_reduce
I0619 10:19:05.869642  1973 net.cpp:94] Creating Layer inception_5b/3x3_reduce
I0619 10:19:05.869655  1973 net.cpp:435] inception_5b/3x3_reduce <- inception_5a/output_inception_5a/output_0_split_1
I0619 10:19:05.869669  1973 net.cpp:409] inception_5b/3x3_reduce -> inception_5b/3x3_reduce
I0619 10:19:05.887421  1973 net.cpp:144] Setting up inception_5b/3x3_reduce
I0619 10:19:05.887456  1973 net.cpp:151] Top shape: 96 192 7 7 (903168)
I0619 10:19:05.887466  1973 net.cpp:159] Memory required for data: 5319679496
I0619 10:19:05.887483  1973 layer_factory.hpp:77] Creating layer inception_5b/relu_3x3_reduce
I0619 10:19:05.887500  1973 net.cpp:94] Creating Layer inception_5b/relu_3x3_reduce
I0619 10:19:05.887511  1973 net.cpp:435] inception_5b/relu_3x3_reduce <- inception_5b/3x3_reduce
I0619 10:19:05.887527  1973 net.cpp:396] inception_5b/relu_3x3_reduce -> inception_5b/3x3_reduce (in-place)
I0619 10:19:05.887552  1973 net.cpp:144] Setting up inception_5b/relu_3x3_reduce
I0619 10:19:05.887562  1973 net.cpp:151] Top shape: 96 192 7 7 (903168)
I0619 10:19:05.887569  1973 net.cpp:159] Memory required for data: 5323292168
I0619 10:19:05.887578  1973 layer_factory.hpp:77] Creating layer inception_5b/3x3
I0619 10:19:05.887601  1973 net.cpp:94] Creating Layer inception_5b/3x3
I0619 10:19:05.887609  1973 net.cpp:435] inception_5b/3x3 <- inception_5b/3x3_reduce
I0619 10:19:05.887622  1973 net.cpp:409] inception_5b/3x3 -> inception_5b/3x3
I0619 10:19:05.918442  1973 net.cpp:144] Setting up inception_5b/3x3
I0619 10:19:05.918475  1973 net.cpp:151] Top shape: 96 384 7 7 (1806336)
I0619 10:19:05.918483  1973 net.cpp:159] Memory required for data: 5330517512
I0619 10:19:05.918496  1973 layer_factory.hpp:77] Creating layer inception_5b/relu_3x3
I0619 10:19:05.918509  1973 net.cpp:94] Creating Layer inception_5b/relu_3x3
I0619 10:19:05.918517  1973 net.cpp:435] inception_5b/relu_3x3 <- inception_5b/3x3
I0619 10:19:05.918529  1973 net.cpp:396] inception_5b/relu_3x3 -> inception_5b/3x3 (in-place)
I0619 10:19:05.918548  1973 net.cpp:144] Setting up inception_5b/relu_3x3
I0619 10:19:05.918558  1973 net.cpp:151] Top shape: 96 384 7 7 (1806336)
I0619 10:19:05.918563  1973 net.cpp:159] Memory required for data: 5337742856
I0619 10:19:05.918570  1973 layer_factory.hpp:77] Creating layer inception_5b/5x5_reduce
I0619 10:19:05.918589  1973 net.cpp:94] Creating Layer inception_5b/5x5_reduce
I0619 10:19:05.918597  1973 net.cpp:435] inception_5b/5x5_reduce <- inception_5a/output_inception_5a/output_0_split_2
I0619 10:19:05.918615  1973 net.cpp:409] inception_5b/5x5_reduce -> inception_5b/5x5_reduce
I0619 10:19:05.928313  1973 net.cpp:144] Setting up inception_5b/5x5_reduce
I0619 10:19:05.928359  1973 net.cpp:151] Top shape: 96 48 7 7 (225792)
I0619 10:19:05.928365  1973 net.cpp:159] Memory required for data: 5338646024
I0619 10:19:05.928380  1973 layer_factory.hpp:77] Creating layer inception_5b/relu_5x5_reduce
I0619 10:19:05.928393  1973 net.cpp:94] Creating Layer inception_5b/relu_5x5_reduce
I0619 10:19:05.928402  1973 net.cpp:435] inception_5b/relu_5x5_reduce <- inception_5b/5x5_reduce
I0619 10:19:05.928416  1973 net.cpp:396] inception_5b/relu_5x5_reduce -> inception_5b/5x5_reduce (in-place)
I0619 10:19:05.928433  1973 net.cpp:144] Setting up inception_5b/relu_5x5_reduce
I0619 10:19:05.928443  1973 net.cpp:151] Top shape: 96 48 7 7 (225792)
I0619 10:19:05.928448  1973 net.cpp:159] Memory required for data: 5339549192
I0619 10:19:05.928454  1973 layer_factory.hpp:77] Creating layer inception_5b/5x5
I0619 10:19:05.928477  1973 net.cpp:94] Creating Layer inception_5b/5x5
I0619 10:19:05.928488  1973 net.cpp:435] inception_5b/5x5 <- inception_5b/5x5_reduce
I0619 10:19:05.928503  1973 net.cpp:409] inception_5b/5x5 -> inception_5b/5x5
I0619 10:19:05.938057  1973 net.cpp:144] Setting up inception_5b/5x5
I0619 10:19:05.938089  1973 net.cpp:151] Top shape: 96 128 7 7 (602112)
I0619 10:19:05.938127  1973 net.cpp:159] Memory required for data: 5341957640
I0619 10:19:05.938143  1973 layer_factory.hpp:77] Creating layer inception_5b/relu_5x5
I0619 10:19:05.938159  1973 net.cpp:94] Creating Layer inception_5b/relu_5x5
I0619 10:19:05.938181  1973 net.cpp:435] inception_5b/relu_5x5 <- inception_5b/5x5
I0619 10:19:05.938199  1973 net.cpp:396] inception_5b/relu_5x5 -> inception_5b/5x5 (in-place)
I0619 10:19:05.938217  1973 net.cpp:144] Setting up inception_5b/relu_5x5
I0619 10:19:05.938227  1973 net.cpp:151] Top shape: 96 128 7 7 (602112)
I0619 10:19:05.938232  1973 net.cpp:159] Memory required for data: 5344366088
I0619 10:19:05.938238  1973 layer_factory.hpp:77] Creating layer inception_5b/pool
I0619 10:19:05.938249  1973 net.cpp:94] Creating Layer inception_5b/pool
I0619 10:19:05.938256  1973 net.cpp:435] inception_5b/pool <- inception_5a/output_inception_5a/output_0_split_3
I0619 10:19:05.938271  1973 net.cpp:409] inception_5b/pool -> inception_5b/pool
I0619 10:19:05.938405  1973 net.cpp:144] Setting up inception_5b/pool
I0619 10:19:05.938426  1973 net.cpp:151] Top shape: 96 832 7 7 (3913728)
I0619 10:19:05.938431  1973 net.cpp:159] Memory required for data: 5360021000
I0619 10:19:05.938437  1973 layer_factory.hpp:77] Creating layer inception_5b/pool_proj
I0619 10:19:05.938458  1973 net.cpp:94] Creating Layer inception_5b/pool_proj
I0619 10:19:05.938467  1973 net.cpp:435] inception_5b/pool_proj <- inception_5b/pool
I0619 10:19:05.938477  1973 net.cpp:409] inception_5b/pool_proj -> inception_5b/pool_proj
I0619 10:19:05.950687  1973 net.cpp:144] Setting up inception_5b/pool_proj
I0619 10:19:05.950724  1973 net.cpp:151] Top shape: 96 128 7 7 (602112)
I0619 10:19:05.950733  1973 net.cpp:159] Memory required for data: 5362429448
I0619 10:19:05.950749  1973 layer_factory.hpp:77] Creating layer inception_5b/relu_pool_proj
I0619 10:19:05.950765  1973 net.cpp:94] Creating Layer inception_5b/relu_pool_proj
I0619 10:19:05.950776  1973 net.cpp:435] inception_5b/relu_pool_proj <- inception_5b/pool_proj
I0619 10:19:05.950788  1973 net.cpp:396] inception_5b/relu_pool_proj -> inception_5b/pool_proj (in-place)
I0619 10:19:05.950814  1973 net.cpp:144] Setting up inception_5b/relu_pool_proj
I0619 10:19:05.950824  1973 net.cpp:151] Top shape: 96 128 7 7 (602112)
I0619 10:19:05.950831  1973 net.cpp:159] Memory required for data: 5364837896
I0619 10:19:05.950840  1973 layer_factory.hpp:77] Creating layer inception_5b/output
I0619 10:19:05.950863  1973 net.cpp:94] Creating Layer inception_5b/output
I0619 10:19:05.950872  1973 net.cpp:435] inception_5b/output <- inception_5b/1x1
I0619 10:19:05.950883  1973 net.cpp:435] inception_5b/output <- inception_5b/3x3
I0619 10:19:05.950896  1973 net.cpp:435] inception_5b/output <- inception_5b/5x5
I0619 10:19:05.950906  1973 net.cpp:435] inception_5b/output <- inception_5b/pool_proj
I0619 10:19:05.950915  1973 net.cpp:409] inception_5b/output -> inception_5b/output
I0619 10:19:05.951025  1973 net.cpp:144] Setting up inception_5b/output
I0619 10:19:05.951042  1973 net.cpp:151] Top shape: 96 1024 7 7 (4816896)
I0619 10:19:05.951061  1973 net.cpp:159] Memory required for data: 5384105480
I0619 10:19:05.951069  1973 layer_factory.hpp:77] Creating layer pool5/7x7_s1
I0619 10:19:05.951081  1973 net.cpp:94] Creating Layer pool5/7x7_s1
I0619 10:19:05.951088  1973 net.cpp:435] pool5/7x7_s1 <- inception_5b/output
I0619 10:19:05.951102  1973 net.cpp:409] pool5/7x7_s1 -> pool5/7x7_s1
I0619 10:19:05.951195  1973 net.cpp:144] Setting up pool5/7x7_s1
I0619 10:19:05.951210  1973 net.cpp:151] Top shape: 96 1024 1 1 (98304)
I0619 10:19:05.951215  1973 net.cpp:159] Memory required for data: 5384498696
I0619 10:19:05.951221  1973 layer_factory.hpp:77] Creating layer pool5/drop_7x7_s1
I0619 10:19:05.951236  1973 net.cpp:94] Creating Layer pool5/drop_7x7_s1
I0619 10:19:05.951246  1973 net.cpp:435] pool5/drop_7x7_s1 <- pool5/7x7_s1
I0619 10:19:05.951256  1973 net.cpp:396] pool5/drop_7x7_s1 -> pool5/7x7_s1 (in-place)
I0619 10:19:05.951326  1973 net.cpp:144] Setting up pool5/drop_7x7_s1
I0619 10:19:05.951339  1973 net.cpp:151] Top shape: 96 1024 1 1 (98304)
I0619 10:19:05.951375  1973 net.cpp:159] Memory required for data: 5384891912
I0619 10:19:05.951383  1973 layer_factory.hpp:77] Creating layer loss3/classifier
I0619 10:19:05.951396  1973 net.cpp:94] Creating Layer loss3/classifier
I0619 10:19:05.951406  1973 net.cpp:435] loss3/classifier <- pool5/7x7_s1
I0619 10:19:05.951417  1973 net.cpp:409] loss3/classifier -> loss3/classifier
I0619 10:19:05.964293  1973 net.cpp:144] Setting up loss3/classifier
I0619 10:19:05.964320  1973 net.cpp:151] Top shape: 96 1000 (96000)
I0619 10:19:05.964328  1973 net.cpp:159] Memory required for data: 5385275912
I0619 10:19:05.964339  1973 layer_factory.hpp:77] Creating layer loss3/loss3
I0619 10:19:05.964352  1973 net.cpp:94] Creating Layer loss3/loss3
I0619 10:19:05.964361  1973 net.cpp:435] loss3/loss3 <- loss3/classifier
I0619 10:19:05.964370  1973 net.cpp:435] loss3/loss3 <- label_data_1_split_2
I0619 10:19:05.964382  1973 net.cpp:409] loss3/loss3 -> loss3/loss3
…
