…
I0619 10:28:21.529350 198800 net.cpp:138] Initializing net from parameters: 
I0619 10:28:21.529498 198800 net.cpp:139] 
name: "GoogleNet"
state {
  phase: TRAIN
  level: 0
  stage: ""
}
engine: "MKL2017"
layer {
  name: "data"
  type: "Data"
  top: "data"
  top: "label"
  include {
    phase: TRAIN
  }
  transform_param {
    mirror: true
    crop_size: 224
    mean_value: 104
    mean_value: 117
    mean_value: 123
  }
  data_param {
    source: "/home/wenxizhu/wenxi/internal-intel-caffe/examples/imagenet/ilsvrc12_train_lmdb"
    batch_size: 96
    backend: LMDB
  }
}
layer {
  name: "label_data_1_split"
  type: "Split"
  bottom: "label"
  top: "label_data_1_split_0"
  top: "label_data_1_split_1"
  top: "label_data_1_split_2"
}
layer {
  name: "conv1/7x7_s2"
  type: "Convolution"
  bottom: "data"
  top: "conv1/7x7_s2"
  param {
    lr_mult: 1
    decay_mult: 1
  }
  param {
    lr_mult: 2
    decay_mult: 0
  }
  convolution_param {
    num_output: 64
    pad: 3
    kernel_size: 7
    stride: 2
    weight_filler {
      type: "xavier"
    }
    bias_filler {
      type: "constant"
      value: 0.2
    }
  }
}
layer {
  name: "conv1/relu_7x7"
  type: "ReLU"
  bottom: "conv1/7x7_s2"
  top: "conv1/7x7_s2"
}
layer {
  name: "pool1/3x3_s2"
  type: "Pooling"
  bottom: "conv1/7x7_s2"
  top: "pool1/3x3_s2"
  pooling_param {
    pool: MAX
    kernel_size: 3
    stride: 2
  }
}
layer {
  name: "pool1/norm1"
  type: "LRN"
  bottom: "pool1/3x3_s2"
  top: "pool1/norm1"
  lrn_param {
    local_size: 5
    alpha: 0.0001
    beta: 0.75
  }
}
layer {
  name: "conv2/3x3_reduce"
  type: "Convolution"
  bottom: "pool1/norm1"
  top: "conv2/3x3_reduce"
  param {
    lr_mult: 1
    decay_mult: 1
  }
  param {
    lr_mult: 2
    decay_mult: 0
  }
  convolution_param {
    num_output: 64
    kernel_size: 1
    weight_filler {
      type: "xavier"
    }
    bias_filler {
      type: "constant"
      value: 0.2
    }
  }
}
layer {
  name: "conv2/relu_3x3_reduce"
  type: "ReLU"
  bottom: "conv2/3x3_reduce"
  top: "conv2/3x3_reduce"
}
layer {
  name: "conv2/3x3"
  type: "Convolution"
  bottom: "conv2/3x3_reduce"
  top: "conv2/3x3"
  param {
    lr_mult: 1
    decay_mult: 1
  }
  param {
    lr_mult: 2
    decay_mult: 0
  }
  convolution_param {
    num_output: 192
    pad: 1
    kernel_size: 3
    weight_filler {
      type: "xavier"
    }
    bias_filler {
      type: "constant"
      value: 0.2
    }
  }
}
layer {
  name: "conv2/relu_3x3"
  type: "ReLU"
  bottom: "conv2/3x3"
  top: "conv2/3x3"
}
layer {
  name: "conv2/norm2"
  type: "LRN"
  bottom: "conv2/3x3"
  top: "conv2/norm2"
  lrn_param {
    local_size: 5
    alpha: 0.0001
    beta: 0.75
  }
}
layer {
  name: "pool2/3x3_s2"
  type: "Pooling"
  bottom: "conv2/norm2"
  top: "pool2/3x3_s2"
  pooling_param {
    pool: MAX
    kernel_size: 3
    stride: 2
  }
}
layer {
  name: "pool2/3x3_s2_pool2/3x3_s2_0_split"
  type: "Split"
  bottom: "pool2/3x3_s2"
  top: "pool2/3x3_s2_pool2/3x3_s2_0_split_0"
  top: "pool2/3x3_s2_pool2/3x3_s2_0_split_1"
  top: "pool2/3x3_s2_pool2/3x3_s2_0_split_2"
  top: "pool2/3x3_s2_pool2/3x3_s2_0_split_3"
}
layer {
  name: "inception_3a/1x1"
  type: "Convolution"
  bottom: "pool2/3x3_s2_pool2/3x3_s2_0_split_0"
  top: "inception_3a/1x1"
  param {
    lr_mult: 1
    decay_mult: 1
  }
  param {
    lr_mult: 2
    decay_mult: 0
  }
  convolution_param {
    num_output: 64
    kernel_size: 1
    weight_filler {
      type: "xavier"
    }
    bias_filler {
      type: "constant"
      value: 0.2
    }
  }
}
layer {
  name: "inception_3a/relu_1x1"
  type: "ReLU"
  bottom: "inception_3a/1x1"
  top: "inception_3a/1x1"
}
layer {
  name: "inception_3a/3x3_reduce"
  type: "Convolution"
  bottom: "pool2/3x3_s2_pool2/3x3_s2_0_split_1"
  top: "inception_3a/3x3_reduce"
  param {
    lr_mult: 1
    decay_mult: 1
  }
  param {
    lr_mult: 2
    decay_mult: 0
  }
  convolution_param {
    num_output: 96
    kernel_size: 1
    weight_filler {
      type: "xavier"
    }
    bias_filler {
      type: "constant"
      value: 0.2
    }
  }
}
layer {
  name: "inception_3a/relu_3x3_reduce"
  type: "ReLU"
  bottom: "inception_3a/3x3_reduce"
  top: "inception_3a/3x3_reduce"
}
layer {
  name: "inception_3a/3x3"
  type: "Convolution"
  bottom: "inception_3a/3x3_reduce"
  top: "inception_3a/3x3"
  param {
    lr_mult: 1
    decay_mult: 1
  }
  param {
    lr_mult: 2
    decay_mult: 0
  }
  convolution_param {
    num_output: 128
    pad: 1
    kernel_size: 3
    weight_filler {
      type: "xavier"
    }
    bias_filler {
      type: "constant"
      value: 0.2
    }
  }
}
layer {
  name: "inception_3a/relu_3x3"
  type: "ReLU"
  bottom: "inception_3a/3x3"
  top: "inception_3a/3x3"
}
layer {
  name: "inception_3a/5x5_reduce"
  type: "Convolution"
  bottom: "pool2/3x3_s2_pool2/3x3_s2_0_split_2"
  top: "inception_3a/5x5_reduce"
  param {
    lr_mult: 1
    decay_mult: 1
  }
  param {
    lr_mult: 2
    decay_mult: 0
  }
  convolution_param {
    num_output: 16
    kernel_size: 1
    weight_filler {
      type: "xavier"
    }
    bias_filler {
      type: "constant"
      value: 0.2
    }
  }
}
layer {
  name: "inception_3a/relu_5x5_reduce"
  type: "ReLU"
  bottom: "inception_3a/5x5_reduce"
  top: "inception_3a/5x5_reduce"
}
layer {
  name: "inception_3a/5x5"
  type: "Convolution"
  bottom: "inception_3a/5x5_reduce"
  top: "inception_3a/5x5"
  param {
    lr_mult: 1
    decay_mult: 1
  }
  param {
    lr_mult: 2
    decay_mult: 0
  }
  convolution_param {
    num_output: 32
    pad: 2
    kernel_size: 5
    weight_filler {
      type: "xavier"
    }
    bias_filler {
      type: "constant"
      value: 0.2
    }
  }
}
layer {
  name: "inception_3a/relu_5x5"
  type: "ReLU"
  bottom: "inception_3a/5x5"
  top: "inception_3a/5x5"
}
layer {
  name: "inception_3a/pool"
  type: "Pooling"
  bottom: "pool2/3x3_s2_pool2/3x3_s2_0_split_3"
  top: "inception_3a/pool"
  pooling_param {
    pool: MAX
    kernel_size: 3
    stride: 1
    pad: 1
  }
}
layer {
  name: "inception_3a/pool_proj"
  type: "Convolution"
  bottom: "inception_3a/pool"
  top: "inception_3a/pool_proj"
  param {
    lr_mult: 1
    decay_mult: 1
  }
  param {
    lr_mult: 2
    decay_mult: 0
  }
  convolution_param {
    num_output: 32
    kernel_size: 1
    weight_filler {
      type: "xavier"
    }
    bias_filler {
      type: "constant"
      value: 0.2
    }
  }
}
layer {
  name: "inception_3a/relu_pool_proj"
  type: "ReLU"
  bottom: "inception_3a/pool_proj"
  top: "inception_3a/pool_proj"
}
layer {
  name: "inception_3a/output"
  type: "Concat"
  bottom: "inception_3a/1x1"
  bottom: "inception_3a/3x3"
  bottom: "inception_3a/5x5"
  bottom: "inception_3a/pool_proj"
  top: "inception_3a/output"
}
layer {
  name: "inception_3a/output_inception_3a/output_0_split"
  type: "Split"
  bottom: "inception_3a/output"
  top: "inception_3a/output_inception_3a/output_0_split_0"
  top: "inception_3a/output_inception_3a/output_0_split_1"
  top: "inception_3a/output_inception_3a/output_0_split_2"
  top: "inception_3a/output_inception_3a/output_0_split_3"
}
layer {
  name: "inception_3b/1x1"
  type: "Convolution"
  bottom: "inception_3a/output_inception_3a/output_0_split_0"
  top: "inception_3b/1x1"
  param {
    lr_mult: 1
    decay_mult: 1
  }
  param {
    lr_mult: 2
    decay_mult: 0
  }
  convolution_param {
    num_output: 128
    kernel_size: 1
    weight_filler {
      type: "xavier"
    }
    bias_filler {
      type: "constant"
      value: 0.2
    }
  }
}
layer {
  name: "inception_3b/relu_1x1"
  type: "ReLU"
  bottom: "inception_3b/1x1"
  top: "inception_3b/1x1"
}
layer {
  name: "inception_3b/3x3_reduce"
  type: "Convolution"
  bottom: "inception_3a/output_inception_3a/output_0_split_1"
  top: "inception_3b/3x3_reduce"
  param {
    lr_mult: 1
    decay_mult: 1
  }
  param {
    lr_mult: 2
    decay_mult: 0
  }
  convolution_param {
    num_output: 128
    kernel_size: 1
    weight_filler {
      type: "xavier"
    }
    bias_filler {
      type: "constant"
      value: 0.2
    }
  }
}
layer {
  name: "inception_3b/relu_3x3_reduce"
  type: "ReLU"
  bottom: "inception_3b/3x3_reduce"
  top: "inception_3b/3x3_reduce"
}
layer {
  name: "inception_3b/3x3"
  type: "Convolution"
  bottom: "inception_3b/3x3_reduce"
  top: "inception_3b/3x3"
  param {
    lr_mult: 1
    decay_mult: 1
  }
  param {
    lr_mult: 2
    decay_mult: 0
  }
  convolution_param {
    num_output: 192
    pad: 1
    kernel_size: 3
    weight_filler {
      type: "xavier"
    }
    bias_filler {
      type: "constant"
      value: 0.2
    }
  }
}
layer {
  name: "inception_3b/relu_3x3"
  type: "ReLU"
  bottom: "inception_3b/3x3"
  top: "inception_3b/3x3"
}
layer {
  name: "inception_3b/5x5_reduce"
  type: "Convolution"
  bottom: "inception_3a/output_inception_3a/output_0_split_2"
  top: "inception_3b/5x5_reduce"
  param {
    lr_mult: 1
    decay_mult: 1
  }
  param {
    lr_mult: 2
    decay_mult: 0
  }
  convolution_param {
    num_output: 32
    kernel_size: 1
    weight_filler {
      type: "xavier"
    }
    bias_filler {
      type: "constant"
      value: 0.2
    }
  }
}
layer {
  name: "inception_3b/relu_5x5_reduce"
  type: "ReLU"
  bottom: "inception_3b/5x5_reduce"
  top: "inception_3b/5x5_reduce"
}
layer {
  name: "inception_3b/5x5"
  type: "Convolution"
  bottom: "inception_3b/5x5_reduce"
  top: "inception_3b/5x5"
  param {
    lr_mult: 1
    decay_mult: 1
  }
  param {
    lr_mult: 2
    decay_mult: 0
  }
  convolution_param {
    num_output: 96
    pad: 2
    kernel_size: 5
    weight_filler {
      type: "xavier"
    }
    bias_filler {
      type: "constant"
      value: 0.2
    }
  }
}
layer {
  name: "inception_3b/relu_5x5"
  type: "ReLU"
  bottom: "inception_3b/5x5"
  top: "inception_3b/5x5"
}
layer {
  name: "inception_3b/pool"
  type: "Pooling"
  bottom: "inception_3a/output_inception_3a/output_0_split_3"
  top: "inception_3b/pool"
  pooling_param {
    pool: MAX
    kernel_size: 3
    stride: 1
    pad: 1
  }
}
layer {
  name: "inception_3b/pool_proj"
  type: "Convolution"
  bottom: "inception_3b/pool"
  top: "inception_3b/pool_proj"
  param {
    lr_mult: 1
    decay_mult: 1
  }
  param {
    lr_mult: 2
    decay_mult: 0
  }
  convolution_param {
    num_output: 64
    kernel_size: 1
    weight_filler {
      type: "xavier"
    }
    bias_filler {
      type: "constant"
      value: 0.2
    }
  }
}
layer {
  name: "inception_3b/relu_pool_proj"
  type: "ReLU"
  bottom: "inception_3b/pool_proj"
  top: "inception_3b/pool_proj"
}
layer {
  name: "inception_3b/output"
  type: "Concat"
  bottom: "inception_3b/1x1"
  bottom: "inception_3b/3x3"
  bottom: "inception_3b/5x5"
  bottom: "inception_3b/pool_proj"
  top: "inception_3b/output"
}
layer {
  name: "pool3/3x3_s2"
  type: "Pooling"
  bottom: "inception_3b/output"
  top: "pool3/3x3_s2"
  pooling_param {
    pool: MAX
    kernel_size: 3
    stride: 2
  }
}
layer {
  name: "pool3/3x3_s2_pool3/3x3_s2_0_split"
  type: "Split"
  bottom: "pool3/3x3_s2"
  top: "pool3/3x3_s2_pool3/3x3_s2_0_split_0"
  top: "pool3/3x3_s2_pool3/3x3_s2_0_split_1"
  top: "pool3/3x3_s2_pool3/3x3_s2_0_split_2"
  top: "pool3/3x3_s2_pool3/3x3_s2_0_split_3"
}
layer {
  name: "inception_4a/1x1"
  type: "Convolution"
  bottom: "pool3/3x3_s2_pool3/3x3_s2_0_split_0"
  top: "inception_4a/1x1"
  param {
    lr_mult: 1
    decay_mult: 1
  }
  param {
    lr_mult: 2
    decay_mult: 0
  }
  convolution_param {
    num_output: 192
    kernel_size: 1
    weight_filler {
      type: "xavier"
    }
    bias_filler {
      type: "constant"
      value: 0.2
    }
  }
}
layer {
  name: "inception_4a/relu_1x1"
  type: "ReLU"
  bottom: "inception_4a/1x1"
  top: "inception_4a/1x1"
}
layer {
  name: "inception_4a/3x3_reduce"
  type: "Convolution"
  bottom: "pool3/3x3_s2_pool3/3x3_s2_0_split_1"
  top: "inception_4a/3x3_reduce"
  param {
    lr_mult: 1
    decay_mult: 1
  }
  param {
    lr_mult: 2
    decay_mult: 0
  }
  convolution_param {
    num_output: 96
    kernel_size: 1
    weight_filler {
      type: "xavier"
    }
    bias_filler {
      type: "constant"
      value: 0.2
    }
  }
}
layer {
  name: "inception_4a/relu_3x3_reduce"
  type: "ReLU"
  bottom: "inception_4a/3x3_reduce"
  top: "inception_4a/3x3_reduce"
}
layer {
  name: "inception_4a/3x3"
  type: "Convolution"
  bottom: "inception_4a/3x3_reduce"
  top: "inception_4a/3x3"
  param {
    lr_mult: 1
    decay_mult: 1
  }
  param {
    lr_mult: 2
    decay_mult: 0
  }
  convolution_param {
    num_output: 208
    pad: 1
    kernel_size: 3
    weight_filler {
      type: "xavier"
    }
    bias_filler {
      type: "constant"
      value: 0.2
    }
  }
}
layer {
  name: "inception_4a/relu_3x3"
  type: "ReLU"
  bottom: "inception_4a/3x3"
  top: "inception_4a/3x3"
}
layer {
  name: "inception_4a/5x5_reduce"
  type: "Convolution"
  bottom: "pool3/3x3_s2_pool3/3x3_s2_0_split_2"
  top: "inception_4a/5x5_reduce"
  param {
    lr_mult: 1
    decay_mult: 1
  }
  param {
    lr_mult: 2
    decay_mult: 0
  }
  convolution_param {
    num_output: 16
    kernel_size: 1
    weight_filler {
      type: "xavier"
    }
    bias_filler {
      type: "constant"
      value: 0.2
    }
  }
}
layer {
  name: "inception_4a/relu_5x5_reduce"
  type: "ReLU"
  bottom: "inception_4a/5x5_reduce"
  top: "inception_4a/5x5_reduce"
}
layer {
  name: "inception_4a/5x5"
  type: "Convolution"
  bottom: "inception_4a/5x5_reduce"
  top: "inception_4a/5x5"
  param {
    lr_mult: 1
    decay_mult: 1
  }
  param {
    lr_mult: 2
    decay_mult: 0
  }
  convolution_param {
    num_output: 48
    pad: 2
    kernel_size: 5
    weight_filler {
      type: "xavier"
    }
    bias_filler {
      type: "constant"
      value: 0.2
    }
  }
}
layer {
  name: "inception_4a/relu_5x5"
  type: "ReLU"
  bottom: "inception_4a/5x5"
  top: "inception_4a/5x5"
}
layer {
  name: "inception_4a/pool"
  type: "Pooling"
  bottom: "pool3/3x3_s2_pool3/3x3_s2_0_split_3"
  top: "inception_4a/pool"
  pooling_param {
    pool: MAX
    kernel_size: 3
    stride: 1
    pad: 1
  }
}
layer {
  name: "inception_4a/pool_proj"
  type: "Convolution"
  bottom: "inception_4a/pool"
  top: "inception_4a/pool_proj"
  param {
    lr_mult: 1
    decay_mult: 1
  }
  param {
    lr_mult: 2
    decay_mult: 0
  }
  convolution_param {
    num_output: 64
    kernel_size: 1
    weight_filler {
      type: "xavier"
    }
    bias_filler {
      type: "constant"
      value: 0.2
    }
  }
}
layer {
  name: "inception_4a/relu_pool_proj"
  type: "ReLU"
  bottom: "inception_4a/pool_proj"
  top: "inception_4a/pool_proj"
}
layer {
  name: "inception_4a/output"
  type: "Concat"
  bottom: "inception_4a/1x1"
  bottom: "inception_4a/3x3"
  bottom: "inception_4a/5x5"
  bottom: "inception_4a/pool_proj"
  top: "inception_4a/output"
}
layer {
  name: "inception_4a/output_inception_4a/output_0_split"
  type: "Split"
  bottom: "inception_4a/output"
  top: "inception_4a/output_inception_4a/output_0_split_0"
  top: "inception_4a/output_inception_4a/output_0_split_1"
  top: "inception_4a/output_inception_4a/output_0_split_2"
  top: "inception_4a/output_inception_4a/output_0_split_3"
  top: "inception_4a/output_inception_4a/output_0_split_4"
}
layer {
  name: "loss1/ave_pool"
  type: "Pooling"
  bottom: "inception_4a/output_inception_4a/output_0_split_0"
  top: "loss1/ave_pool"
  pooling_param {
    pool: AVE
    kernel_size: 5
    stride: 3
  }
}
layer {
  name: "loss1/conv"
  type: "Convolution"
  bottom: "loss1/ave_pool"
  top: "loss1/conv"
  param {
    lr_mult: 1
    decay_mult: 1
  }
  param {
    lr_mult: 2
    decay_mult: 0
  }
  convolution_param {
    num_output: 128
    kernel_size: 1
    weight_filler {
      type: "xavier"
    }
    bias_filler {
      type: "constant"
      value: 0.2
    }
  }
}
layer {
  name: "loss1/relu_conv"
  type: "ReLU"
  bottom: "loss1/conv"
  top: "loss1/conv"
}
layer {
  name: "loss1/fc"
  type: "InnerProduct"
  bottom: "loss1/conv"
  top: "loss1/fc"
  param {
    lr_mult: 1
    decay_mult: 1
  }
  param {
    lr_mult: 2
    decay_mult: 0
  }
  inner_product_param {
    num_output: 1024
    weight_filler {
      type: "xavier"
    }
    bias_filler {
      type: "constant"
      value: 0.2
    }
  }
}
layer {
  name: "loss1/relu_fc"
  type: "ReLU"
  bottom: "loss1/fc"
  top: "loss1/fc"
}
layer {
  name: "loss1/drop_fc"
  type: "Dropout"
  bottom: "loss1/fc"
  top: "loss1/fc"
  dropout_param {
    dropout_ratio: 0.7
  }
}
layer {
  name: "loss1/classifier"
  type: "InnerProduct"
  bottom: "loss1/fc"
  top: "loss1/classifier"
  param {
    lr_mult: 1
    decay_mult: 1
  }
  param {
    lr_mult: 2
    decay_mult: 0
  }
  inner_product_param {
    num_output: 1000
    weight_filler {
      type: "xavier"
    }
    bias_filler {
      type: "constant"
      value: 0
    }
  }
}
layer {
  name: "loss1/loss"
  type: "SoftmaxWithLoss"
  bottom: "loss1/classifier"
  bottom: "label_data_1_split_0"
  top: "loss1/loss1"
  loss_weight: 0.3
}
layer {
  name: "inception_4b/1x1"
  type: "Convolution"
  bottom: "inception_4a/output_inception_4a/output_0_split_1"
  top: "inception_4b/1x1"
  param {
    lr_mult: 1
    decay_mult: 1
  }
  param {
    lr_mult: 2
    decay_mult: 0
  }
  convolution_param {
    num_output: 160
    kernel_size: 1
    weight_filler {
      type: "xavier"
    }
    bias_filler {
      type: "constant"
      value: 0.2
    }
  }
}
layer {
  name: "inception_4b/relu_1x1"
  type: "ReLU"
  bottom: "inception_4b/1x1"
  top: "inception_4b/1x1"
}
layer {
  name: "inception_4b/3x3_reduce"
  type: "Convolution"
  bottom: "inception_4a/output_inception_4a/output_0_split_2"
  top: "inception_4b/3x3_reduce"
  param {
    lr_mult: 1
    decay_mult: 1
  }
  param {
    lr_mult: 2
    decay_mult: 0
  }
  convolution_param {
    num_output: 112
    kernel_size: 1
    weight_filler {
      type: "xavier"
    }
    bias_filler {
      type: "constant"
      value: 0.2
    }
  }
}
layer {
  name: "inception_4b/relu_3x3_reduce"
  type: "ReLU"
  bottom: "inception_4b/3x3_reduce"
  top: "inception_4b/3x3_reduce"
}
layer {
  name: "inception_4b/3x3"
  type: "Convolution"
  bottom: "inception_4b/3x3_reduce"
  top: "inception_4b/3x3"
  param {
    lr_mult: 1
    decay_mult: 1
  }
  param {
    lr_mult: 2
    decay_mult: 0
  }
  convolution_param {
    num_output: 224
    pad: 1
    kernel_size: 3
    weight_filler {
      type: "xavier"
    }
    bias_filler {
      type: "constant"
      value: 0.2
    }
  }
}
layer {
  name: "inception_4b/relu_3x3"
  type: "ReLU"
  bottom: "inception_4b/3x3"
  top: "inception_4b/3x3"
}
layer {
  name: "inception_4b/5x5_reduce"
  type: "Convolution"
  bottom: "inception_4a/output_inception_4a/output_0_split_3"
  top: "inception_4b/5x5_reduce"
  param {
    lr_mult: 1
    decay_mult: 1
  }
  param {
    lr_mult: 2
    decay_mult: 0
  }
  convolution_param {
    num_output: 24
    kernel_size: 1
    weight_filler {
      type: "xavier"
    }
    bias_filler {
      type: "constant"
      value: 0.2
    }
  }
}
layer {
  name: "inception_4b/relu_5x5_reduce"
  type: "ReLU"
  bottom: "inception_4b/5x5_reduce"
  top: "inception_4b/5x5_reduce"
}
layer {
  name: "inception_4b/5x5"
  type: "Convolution"
  bottom: "inception_4b/5x5_reduce"
  top: "inception_4b/5x5"
  param {
    lr_mult: 1
    decay_mult: 1
  }
  param {
    lr_mult: 2
    decay_mult: 0
  }
  convolution_param {
    num_output: 64
    pad: 2
    kernel_size: 5
    weight_filler {
      type: "xavier"
    }
    bias_filler {
      type: "constant"
      value: 0.2
    }
  }
}
layer {
  name: "inception_4b/relu_5x5"
  type: "ReLU"
  bottom: "inception_4b/5x5"
  top: "inception_4b/5x5"
}
layer {
  name: "inception_4b/pool"
  type: "Pooling"
  bottom: "inception_4a/output_inception_4a/output_0_split_4"
  top: "inception_4b/pool"
  pooling_param {
    pool: MAX
    kernel_size: 3
    stride: 1
    pad: 1
  }
}
layer {
  name: "inception_4b/pool_proj"
  type: "Convolution"
  bottom: "inception_4b/pool"
  top: "inception_4b/pool_proj"
  param {
    lr_mult: 1
    decay_mult: 1
  }
  param {
    lr_mult: 2
    decay_mult: 0
  }
  convolution_param {
    num_output: 64
    kernel_size: 1
    weight_filler {
      type: "xavier"
    }
    bias_filler {
      type: "constant"
      value: 0.2
    }
  }
}
layer {
  name: "inception_4b/relu_pool_proj"
  type: "ReLU"
  bottom: "inception_4b/pool_proj"
  top: "inception_4b/pool_proj"
}
layer {
  name: "inception_4b/output"
  type: "Concat"
  bottom: "inception_4b/1x1"
  bottom: "inception_4b/3x3"
  bottom: "inception_4b/5x5"
  bottom: "inception_4b/pool_proj"
  top: "inception_4b/output"
}
layer {
  name: "inception_4b/output_inception_4b/output_0_split"
  type: "Split"
  bottom: "inception_4b/output"
  top: "inception_4b/output_inception_4b/output_0_split_0"
  top: "inception_4b/output_inception_4b/output_0_split_1"
  top: "inception_4b/output_inception_4b/output_0_split_2"
  top: "inception_4b/output_inception_4b/output_0_split_3"
}
layer {
  name: "inception_4c/1x1"
  type: "Convolution"
  bottom: "inception_4b/output_inception_4b/output_0_split_0"
  top: "inception_4c/1x1"
  param {
    lr_mult: 1
    decay_mult: 1
  }
  param {
    lr_mult: 2
    decay_mult: 0
  }
  convolution_param {
    num_output: 128
    kernel_size: 1
    weight_filler {
      type: "xavier"
    }
    bias_filler {
      type: "constant"
      value: 0.2
    }
  }
}
layer {
  name: "inception_4c/relu_1x1"
  type: "ReLU"
  bottom: "inception_4c/1x1"
  top: "inception_4c/1x1"
}
layer {
  name: "inception_4c/3x3_reduce"
  type: "Convolution"
  bottom: "inception_4b/output_inception_4b/output_0_split_1"
  top: "inception_4c/3x3_reduce"
  param {
    lr_mult: 1
    decay_mult: 1
  }
  param {
    lr_mult: 2
    decay_mult: 0
  }
  convolution_param {
    num_output: 128
    kernel_size: 1
    weight_filler {
      type: "xavier"
    }
    bias_filler {
      type: "constant"
      value: 0.2
    }
  }
}
layer {
  name: "inception_4c/relu_3x3_reduce"
  type: "ReLU"
  bottom: "inception_4c/3x3_reduce"
  top: "inception_4c/3x3_reduce"
}
layer {
  name: "inception_4c/3x3"
  type: "Convolution"
  bottom: "inception_4c/3x3_reduce"
  top: "inception_4c/3x3"
  param {
    lr_mult: 1
    decay_mult: 1
  }
  param {
    lr_mult: 2
    decay_mult: 0
  }
  convolution_param {
    num_output: 256
    pad: 1
    kernel_size: 3
    weight_filler {
      type: "xavier"
    }
    bias_filler {
      type: "constant"
      value: 0.2
    }
  }
}
layer {
  name: "inception_4c/relu_3x3"
  type: "ReLU"
  bottom: "inception_4c/3x3"
  top: "inception_4c/3x3"
}
layer {
  name: "inception_4c/5x5_reduce"
  type: "Convolution"
  bottom: "inception_4b/output_inception_4b/output_0_split_2"
  top: "inception_4c/5x5_reduce"
  param {
    lr_mult: 1
    decay_mult: 1
  }
  param {
    lr_mult: 2
    decay_mult: 0
  }
  convolution_param {
    num_output: 24
    kernel_size: 1
    weight_filler {
      type: "xavier"
    }
    bias_filler {
      type: "constant"
      value: 0.2
    }
  }
}
layer {
  name: "inception_4c/relu_5x5_reduce"
  type: "ReLU"
  bottom: "inception_4c/5x5_reduce"
  top: "inception_4c/5x5_reduce"
}
layer {
  name: "inception_4c/5x5"
  type: "Convolution"
  bottom: "inception_4c/5x5_reduce"
  top: "inception_4c/5x5"
  param {
    lr_mult: 1
    decay_mult: 1
  }
  param {
    lr_mult: 2
    decay_mult: 0
  }
  convolution_param {
    num_output: 64
    pad: 2
    kernel_size: 5
    weight_filler {
      type: "xavier"
    }
    bias_filler {
      type: "constant"
      value: 0.2
    }
  }
}
layer {
  name: "inception_4c/relu_5x5"
  type: "ReLU"
  bottom: "inception_4c/5x5"
  top: "inception_4c/5x5"
}
layer {
  name: "inception_4c/pool"
  type: "Pooling"
  bottom: "inception_4b/output_inception_4b/output_0_split_3"
  top: "inception_4c/pool"
  pooling_param {
    pool: MAX
    kernel_size: 3
    stride: 1
    pad: 1
  }
}
layer {
  name: "inception_4c/pool_proj"
  type: "Convolution"
  bottom: "inception_4c/pool"
  top: "inception_4c/pool_proj"
  param {
    lr_mult: 1
    decay_mult: 1
  }
  param {
    lr_mult: 2
    decay_mult: 0
  }
  convolution_param {
    num_output: 64
    kernel_size: 1
    weight_filler {
      type: "xavier"
    }
    bias_filler {
      type: "constant"
      value: 0.2
    }
  }
}
layer {
  name: "inception_4c/relu_pool_proj"
  type: "ReLU"
  bottom: "inception_4c/pool_proj"
  top: "inception_4c/pool_proj"
}
layer {
  name: "inception_4c/output"
  type: "Concat"
  bottom: "inception_4c/1x1"
  bottom: "inception_4c/3x3"
  bottom: "inception_4c/5x5"
  bottom: "inception_4c/pool_proj"
  top: "inception_4c/output"
}
layer {
  name: "inception_4c/output_inception_4c/output_0_split"
  type: "Split"
  bottom: "inception_4c/output"
  top: "inception_4c/output_inception_4c/output_0_split_0"
  top: "inception_4c/output_inception_4c/output_0_split_1"
  top: "inception_4c/output_inception_4c/output_0_split_2"
  top: "inception_4c/output_inception_4c/output_0_split_3"
}
layer {
  name: "inception_4d/1x1"
  type: "Convolution"
  bottom: "inception_4c/output_inception_4c/output_0_split_0"
  top: "inception_4d/1x1"
  param {
    lr_mult: 1
    decay_mult: 1
  }
  param {
    lr_mult: 2
    decay_mult: 0
  }
  convolution_param {
    num_output: 112
    kernel_size: 1
    weight_filler {
      type: "xavier"
    }
    bias_filler {
      type: "constant"
      value: 0.2
    }
  }
}
layer {
  name: "inception_4d/relu_1x1"
  type: "ReLU"
  bottom: "inception_4d/1x1"
  top: "inception_4d/1x1"
}
layer {
  name: "inception_4d/3x3_reduce"
  type: "Convolution"
  bottom: "inception_4c/output_inception_4c/output_0_split_1"
  top: "inception_4d/3x3_reduce"
  param {
    lr_mult: 1
    decay_mult: 1
  }
  param {
    lr_mult: 2
    decay_mult: 0
  }
  convolution_param {
    num_output: 144
    kernel_size: 1
    weight_filler {
      type: "xavier"
    }
    bias_filler {
      type: "constant"
      value: 0.2
    }
  }
}
layer {
  name: "inception_4d/relu_3x3_reduce"
  type: "ReLU"
  bottom: "inception_4d/3x3_reduce"
  top: "inception_4d/3x3_reduce"
}
layer {
  name: "inception_4d/3x3"
  type: "Convolution"
  bottom: "inception_4d/3x3_reduce"
  top: "inception_4d/3x3"
  param {
    lr_mult: 1
    decay_mult: 1
  }
  param {
    lr_mult: 2
    decay_mult: 0
  }
  convolution_param {
    num_output: 288
    pad: 1
    kernel_size: 3
    weight_filler {
      type: "xavier"
    }
    bias_filler {
      type: "constant"
      value: 0.2
    }
  }
}
layer {
  name: "inception_4d/relu_3x3"
  type: "ReLU"
  bottom: "inception_4d/3x3"
  top: "inception_4d/3x3"
}
layer {
  name: "inception_4d/5x5_reduce"
  type: "Convolution"
  bottom: "inception_4c/output_inception_4c/output_0_split_2"
  top: "inception_4d/5x5_reduce"
  param {
    lr_mult: 1
    decay_mult: 1
  }
  param {
    lr_mult: 2
    decay_mult: 0
  }
  convolution_param {
    num_output: 32
    kernel_size: 1
    weight_filler {
      type: "xavier"
    }
    bias_filler {
      type: "constant"
      value: 0.2
    }
  }
}
layer {
  name: "inception_4d/relu_5x5_reduce"
  type: "ReLU"
  bottom: "inception_4d/5x5_reduce"
  top: "inception_4d/5x5_reduce"
}
layer {
  name: "inception_4d/5x5"
  type: "Convolution"
  bottom: "inception_4d/5x5_reduce"
  top: "inception_4d/5x5"
  param {
    lr_mult: 1
    decay_mult: 1
  }
  param {
    lr_mult: 2
    decay_mult: 0
  }
  convolution_param {
    num_output: 64
    pad: 2
    kernel_size: 5
    weight_filler {
      type: "xavier"
    }
    bias_filler {
      type: "constant"
      value: 0.2
    }
  }
}
layer {
  name: "inception_4d/relu_5x5"
  type: "ReLU"
  bottom: "inception_4d/5x5"
  top: "inception_4d/5x5"
}
layer {
  name: "inception_4d/pool"
  type: "Pooling"
  bottom: "inception_4c/output_inception_4c/output_0_split_3"
  top: "inception_4d/pool"
  pooling_param {
    pool: MAX
    kernel_size: 3
    stride: 1
    pad: 1
  }
}
layer {
  name: "inception_4d/pool_proj"
  type: "Convolution"
  bottom: "inception_4d/pool"
  top: "inception_4d/pool_proj"
  param {
    lr_mult: 1
    decay_mult: 1
  }
  param {
    lr_mult: 2
    decay_mult: 0
  }
  convolution_param {
    num_output: 64
    kernel_size: 1
    weight_filler {
      type: "xavier"
    }
    bias_filler {
      type: "constant"
      value: 0.2
    }
  }
}
layer {
  name: "inception_4d/relu_pool_proj"
  type: "ReLU"
  bottom: "inception_4d/pool_proj"
  top: "inception_4d/pool_proj"
}
layer {
  name: "inception_4d/output"
  type: "Concat"
  bottom: "inception_4d/1x1"
  bottom: "inception_4d/3x3"
  bottom: "inception_4d/5x5"
  bottom: "inception_4d/pool_proj"
  top: "inception_4d/output"
}
layer {
  name: "inception_4d/output_inception_4d/output_0_split"
  type: "Split"
  bottom: "inception_4d/output"
  top: "inception_4d/output_inception_4d/output_0_split_0"
  top: "inception_4d/output_inception_4d/output_0_split_1"
  top: "inception_4d/output_inception_4d/output_0_split_2"
  top: "inception_4d/output_inception_4d/output_0_split_3"
  top: "inception_4d/output_inception_4d/output_0_split_4"
}
layer {
  name: "loss2/ave_pool"
  type: "Pooling"
  bottom: "inception_4d/output_inception_4d/output_0_split_0"
  top: "loss2/ave_pool"
  pooling_param {
    pool: AVE
    kernel_size: 5
    stride: 3
  }
}
layer {
  name: "loss2/conv"
  type: "Convolution"
  bottom: "loss2/ave_pool"
  top: "loss2/conv"
  param {
    lr_mult: 1
    decay_mult: 1
  }
  param {
    lr_mult: 2
    decay_mult: 0
  }
  convolution_param {
    num_output: 128
    kernel_size: 1
    weight_filler {
      type: "xavier"
    }
    bias_filler {
      type: "constant"
      value: 0.2
    }
  }
}
layer {
  name: "loss2/relu_conv"
  type: "ReLU"
  bottom: "loss2/conv"
  top: "loss2/conv"
}
layer {
  name: "loss2/fc"
  type: "InnerProduct"
  bottom: "loss2/conv"
  top: "loss2/fc"
  param {
    lr_mult: 1
    decay_mult: 1
  }
  param {
    lr_mult: 2
    decay_mult: 0
  }
  inner_product_param {
    num_output: 1024
    weight_filler {
      type: "xavier"
    }
    bias_filler {
      type: "constant"
      value: 0.2
    }
  }
}
layer {
  name: "loss2/relu_fc"
  type: "ReLU"
  bottom: "loss2/fc"
  top: "loss2/fc"
}
layer {
  name: "loss2/drop_fc"
  type: "Dropout"
  bottom: "loss2/fc"
  top: "loss2/fc"
  dropout_param {
    dropout_ratio: 0.7
  }
}
layer {
  name: "loss2/classifier"
  type: "InnerProduct"
  bottom: "loss2/fc"
  top: "loss2/classifier"
  param {
    lr_mult: 1
    decay_mult: 1
  }
  param {
    lr_mult: 2
    decay_mult: 0
  }
  inner_product_param {
    num_output: 1000
    weight_filler {
      type: "xavier"
    }
    bias_filler {
      type: "constant"
      value: 0
    }
  }
}
layer {
  name: "loss2/loss"
  type: "SoftmaxWithLoss"
  bottom: "loss2/classifier"
  bottom: "label_data_1_split_1"
  top: "loss2/loss1"
  loss_weight: 0.3
}
layer {
  name: "inception_4e/1x1"
  type: "Convolution"
  bottom: "inception_4d/output_inception_4d/output_0_split_1"
  top: "inception_4e/1x1"
  param {
    lr_mult: 1
    decay_mult: 1
  }
  param {
    lr_mult: 2
    decay_mult: 0
  }
  convolution_param {
    num_output: 256
    kernel_size: 1
    weight_filler {
      type: "xavier"
    }
    bias_filler {
      type: "constant"
      value: 0.2
    }
  }
}
layer {
  name: "inception_4e/relu_1x1"
  type: "ReLU"
  bottom: "inception_4e/1x1"
  top: "inception_4e/1x1"
}
layer {
  name: "inception_4e/3x3_reduce"
  type: "Convolution"
  bottom: "inception_4d/output_inception_4d/output_0_split_2"
  top: "inception_4e/3x3_reduce"
  param {
    lr_mult: 1
    decay_mult: 1
  }
  param {
    lr_mult: 2
    decay_mult: 0
  }
  convolution_param {
    num_output: 160
    kernel_size: 1
    weight_filler {
      type: "xavier"
    }
    bias_filler {
      type: "constant"
      value: 0.2
    }
  }
}
layer {
  name: "inception_4e/relu_3x3_reduce"
  type: "ReLU"
  bottom: "inception_4e/3x3_reduce"
  top: "inception_4e/3x3_reduce"
}
layer {
  name: "inception_4e/3x3"
  type: "Convolution"
  bottom: "inception_4e/3x3_reduce"
  top: "inception_4e/3x3"
  param {
    lr_mult: 1
    decay_mult: 1
  }
  param {
    lr_mult: 2
    decay_mult: 0
  }
  convolution_param {
    num_output: 320
    pad: 1
    kernel_size: 3
    weight_filler {
      type: "xavier"
    }
    bias_filler {
      type: "constant"
      value: 0.2
    }
  }
}
layer {
  name: "inception_4e/relu_3x3"
  type: "ReLU"
  bottom: "inception_4e/3x3"
  top: "inception_4e/3x3"
}
layer {
  name: "inception_4e/5x5_reduce"
  type: "Convolution"
  bottom: "inception_4d/output_inception_4d/output_0_split_3"
  top: "inception_4e/5x5_reduce"
  param {
    lr_mult: 1
    decay_mult: 1
  }
  param {
    lr_mult: 2
    decay_mult: 0
  }
  convolution_param {
    num_output: 32
    kernel_size: 1
    weight_filler {
      type: "xavier"
    }
    bias_filler {
      type: "constant"
      value: 0.2
    }
  }
}
layer {
  name: "inception_4e/relu_5x5_reduce"
  type: "ReLU"
  bottom: "inception_4e/5x5_reduce"
  top: "inception_4e/5x5_reduce"
}
layer {
  name: "inception_4e/5x5"
  type: "Convolution"
  bottom: "inception_4e/5x5_reduce"
  top: "inception_4e/5x5"
  param {
    lr_mult: 1
    decay_mult: 1
  }
  param {
    lr_mult: 2
    decay_mult: 0
  }
  convolution_param {
    num_output: 128
    pad: 2
    kernel_size: 5
    weight_filler {
      type: "xavier"
    }
    bias_filler {
      type: "constant"
      value: 0.2
    }
  }
}
layer {
  name: "inception_4e/relu_5x5"
  type: "ReLU"
  bottom: "inception_4e/5x5"
  top: "inception_4e/5x5"
}
layer {
  name: "inception_4e/pool"
  type: "Pooling"
  bottom: "inception_4d/output_inception_4d/output_0_split_4"
  top: "inception_4e/pool"
  pooling_param {
    pool: MAX
    kernel_size: 3
    stride: 1
    pad: 1
  }
}
layer {
  name: "inception_4e/pool_proj"
  type: "Convolution"
  bottom: "inception_4e/pool"
  top: "inception_4e/pool_proj"
  param {
    lr_mult: 1
    decay_mult: 1
  }
  param {
    lr_mult: 2
    decay_mult: 0
  }
  convolution_param {
    num_output: 128
    kernel_size: 1
    weight_filler {
      type: "xavier"
    }
    bias_filler {
      type: "constant"
      value: 0.2
    }
  }
}
layer {
  name: "inception_4e/relu_pool_proj"
  type: "ReLU"
  bottom: "inception_4e/pool_proj"
  top: "inception_4e/pool_proj"
}
layer {
  name: "inception_4e/output"
  type: "Concat"
  bottom: "inception_4e/1x1"
  bottom: "inception_4e/3x3"
  bottom: "inception_4e/5x5"
  bottom: "inception_4e/pool_proj"
  top: "inception_4e/output"
}
layer {
  name: "pool4/3x3_s2"
  type: "Pooling"
  bottom: "inception_4e/output"
  top: "pool4/3x3_s2"
  pooling_param {
    pool: MAX
    kernel_size: 3
    stride: 2
  }
}
layer {
  name: "pool4/3x3_s2_pool4/3x3_s2_0_split"
  type: "Split"
  bottom: "pool4/3x3_s2"
  top: "pool4/3x3_s2_pool4/3x3_s2_0_split_0"
  top: "pool4/3x3_s2_pool4/3x3_s2_0_split_1"
  top: "pool4/3x3_s2_pool4/3x3_s2_0_split_2"
  top: "pool4/3x3_s2_pool4/3x3_s2_0_split_3"
}
layer {
  name: "inception_5a/1x1"
  type: "Convolution"
  bottom: "pool4/3x3_s2_pool4/3x3_s2_0_split_0"
  top: "inception_5a/1x1"
  param {
    lr_mult: 1
    decay_mult: 1
  }
  param {
    lr_mult: 2
    decay_mult: 0
  }
  convolution_param {
    num_output: 256
    kernel_size: 1
    weight_filler {
      type: "xavier"
    }
    bias_filler {
      type: "constant"
      value: 0.2
    }
  }
}
layer {
  name: "inception_5a/relu_1x1"
  type: "ReLU"
  bottom: "inception_5a/1x1"
  top: "inception_5a/1x1"
}
layer {
  name: "inception_5a/3x3_reduce"
  type: "Convolution"
  bottom: "pool4/3x3_s2_pool4/3x3_s2_0_split_1"
  top: "inception_5a/3x3_reduce"
  param {
    lr_mult: 1
    decay_mult: 1
  }
  param {
    lr_mult: 2
    decay_mult: 0
  }
  convolution_param {
    num_output: 160
    kernel_size: 1
    weight_filler {
      type: "xavier"
    }
    bias_filler {
      type: "constant"
      value: 0.2
    }
  }
}
layer {
  name: "inception_5a/relu_3x3_reduce"
  type: "ReLU"
  bottom: "inception_5a/3x3_reduce"
  top: "inception_5a/3x3_reduce"
}
layer {
  name: "inception_5a/3x3"
  type: "Convolution"
  bottom: "inception_5a/3x3_reduce"
  top: "inception_5a/3x3"
  param {
    lr_mult: 1
    decay_mult: 1
  }
  param {
    lr_mult: 2
    decay_mult: 0
  }
  convolution_param {
    num_output: 320
    pad: 1
    kernel_size: 3
    weight_filler {
      type: "xavier"
    }
    bias_filler {
      type: "constant"
      value: 0.2
    }
  }
}
layer {
  name: "inception_5a/relu_3x3"
  type: "ReLU"
  bottom: "inception_5a/3x3"
  top: "inception_5a/3x3"
}
layer {
  name: "inception_5a/5x5_reduce"
  type: "Convolution"
  bottom: "pool4/3x3_s2_pool4/3x3_s2_0_split_2"
  top: "inception_5a/5x5_reduce"
  param {
    lr_mult: 1
    decay_mult: 1
  }
  param {
    lr_mult: 2
    decay_mult: 0
  }
  convolution_param {
    num_output: 32
    kernel_size: 1
    weight_filler {
      type: "xavier"
    }
    bias_filler {
      type: "constant"
      value: 0.2
    }
  }
}
layer {
  name: "inception_5a/relu_5x5_reduce"
  type: "ReLU"
  bottom: "inception_5a/5x5_reduce"
  top: "inception_5a/5x5_reduce"
}
layer {
  name: "inception_5a/5x5"
  type: "Convolution"
  bottom: "inception_5a/5x5_reduce"
  top: "inception_5a/5x5"
  param {
    lr_mult: 1
    decay_mult: 1
  }
  param {
    lr_mult: 2
    decay_mult: 0
  }
  convolution_param {
    num_output: 128
    pad: 2
    kernel_size: 5
    weight_filler {
      type: "xavier"
    }
    bias_filler {
      type: "constant"
      value: 0.2
    }
  }
}
layer {
  name: "inception_5a/relu_5x5"
  type: "ReLU"
  bottom: "inception_5a/5x5"
  top: "inception_5a/5x5"
}
layer {
  name: "inception_5a/pool"
  type: "Pooling"
  bottom: "pool4/3x3_s2_pool4/3x3_s2_0_split_3"
  top: "inception_5a/pool"
  pooling_param {
    pool: MAX
    kernel_size: 3
    stride: 1
    pad: 1
  }
}
layer {
  name: "inception_5a/pool_proj"
  type: "Convolution"
  bottom: "inception_5a/pool"
  top: "inception_5a/pool_proj"
  param {
    lr_mult: 1
    decay_mult: 1
  }
  param {
    lr_mult: 2
    decay_mult: 0
  }
  convolution_param {
    num_output: 128
    kernel_size: 1
    weight_filler {
      type: "xavier"
    }
    bias_filler {
      type: "constant"
      value: 0.2
    }
  }
}
layer {
  name: "inception_5a/relu_pool_proj"
  type: "ReLU"
  bottom: "inception_5a/pool_proj"
  top: "inception_5a/pool_proj"
}
layer {
  name: "inception_5a/output"
  type: "Concat"
  bottom: "inception_5a/1x1"
  bottom: "inception_5a/3x3"
  bottom: "inception_5a/5x5"
  bottom: "inception_5a/pool_proj"
  top: "inception_5a/output"
}
layer {
  name: "inception_5a/output_inception_5a/output_0_split"
  type: "Split"
  bottom: "inception_5a/output"
  top: "inception_5a/output_inception_5a/output_0_split_0"
  top: "inception_5a/output_inception_5a/output_0_split_1"
  top: "inception_5a/output_inception_5a/output_0_split_2"
  top: "inception_5a/output_inception_5a/output_0_split_3"
}
layer {
  name: "inception_5b/1x1"
  type: "Convolution"
  bottom: "inception_5a/output_inception_5a/output_0_split_0"
  top: "inception_5b/1x1"
  param {
    lr_mult: 1
    decay_mult: 1
  }
  param {
    lr_mult: 2
    decay_mult: 0
  }
  convolution_param {
    num_output: 384
    kernel_size: 1
    weight_filler {
      type: "xavier"
    }
    bias_filler {
      type: "constant"
      value: 0.2
    }
  }
}
layer {
  name: "inception_5b/relu_1x1"
  type: "ReLU"
  bottom: "inception_5b/1x1"
  top: "inception_5b/1x1"
}
layer {
  name: "inception_5b/3x3_reduce"
  type: "Convolution"
  bottom: "inception_5a/output_inception_5a/output_0_split_1"
  top: "inception_5b/3x3_reduce"
  param {
    lr_mult: 1
    decay_mult: 1
  }
  param {
    lr_mult: 2
    decay_mult: 0
  }
  convolution_param {
    num_output: 192
    kernel_size: 1
    weight_filler {
      type: "xavier"
    }
    bias_filler {
      type: "constant"
      value: 0.2
    }
  }
}
layer {
  name: "inception_5b/relu_3x3_reduce"
  type: "ReLU"
  bottom: "inception_5b/3x3_reduce"
  top: "inception_5b/3x3_reduce"
}
layer {
  name: "inception_5b/3x3"
  type: "Convolution"
  bottom: "inception_5b/3x3_reduce"
  top: "inception_5b/3x3"
  param {
    lr_mult: 1
    decay_mult: 1
  }
  param {
    lr_mult: 2
    decay_mult: 0
  }
  convolution_param {
    num_output: 384
    pad: 1
    kernel_size: 3
    weight_filler {
      type: "xavier"
    }
    bias_filler {
      type: "constant"
      value: 0.2
    }
  }
}
layer {
  name: "inception_5b/relu_3x3"
  type: "ReLU"
  bottom: "inception_5b/3x3"
  top: "inception_5b/3x3"
}
layer {
  name: "inception_5b/5x5_reduce"
  type: "Convolution"
  bottom: "inception_5a/output_inception_5a/output_0_split_2"
  top: "inception_5b/5x5_reduce"
  param {
    lr_mult: 1
    decay_mult: 1
  }
  param {
    lr_mult: 2
    decay_mult: 0
  }
  convolution_param {
    num_output: 48
    kernel_size: 1
    weight_filler {
      type: "xavier"
    }
    bias_filler {
      type: "constant"
      value: 0.2
    }
  }
}
layer {
  name: "inception_5b/relu_5x5_reduce"
  type: "ReLU"
  bottom: "inception_5b/5x5_reduce"
  top: "inception_5b/5x5_reduce"
}
layer {
  name: "inception_5b/5x5"
  type: "Convolution"
  bottom: "inception_5b/5x5_reduce"
  top: "inception_5b/5x5"
  param {
    lr_mult: 1
    decay_mult: 1
  }
  param {
    lr_mult: 2
    decay_mult: 0
  }
  convolution_param {
    num_output: 128
    pad: 2
    kernel_size: 5
    weight_filler {
      type: "xavier"
    }
    bias_filler {
      type: "constant"
      value: 0.2
    }
  }
}
layer {
  name: "inception_5b/relu_5x5"
  type: "ReLU"
  bottom: "inception_5b/5x5"
  top: "inception_5b/5x5"
}
layer {
  name: "inception_5b/pool"
  type: "Pooling"
  bottom: "inception_5a/output_inception_5a/output_0_split_3"
  top: "inception_5b/pool"
  pooling_param {
    pool: MAX
    kernel_size: 3
    stride: 1
    pad: 1
  }
}
layer {
  name: "inception_5b/pool_proj"
  type: "Convolution"
  bottom: "inception_5b/pool"
  top: "inception_5b/pool_proj"
  param {
    lr_mult: 1
    decay_mult: 1
  }
  param {
    lr_mult: 2
    decay_mult: 0
  }
  convolution_param {
    num_output: 128
    kernel_size: 1
    weight_filler {
      type: "xavier"
    }
    bias_filler {
      type: "constant"
      value: 0.2
    }
  }
}
layer {
  name: "inception_5b/relu_pool_proj"
  type: "ReLU"
  bottom: "inception_5b/pool_proj"
  top: "inception_5b/pool_proj"
}
layer {
  name: "inception_5b/output"
  type: "Concat"
  bottom: "inception_5b/1x1"
  bottom: "inception_5b/3x3"
  bottom: "inception_5b/5x5"
  bottom: "inception_5b/pool_proj"
  top: "inception_5b/output"
}
layer {
  name: "pool5/7x7_s1"
  type: "Pooling"
  bottom: "inception_5b/output"
  top: "pool5/7x7_s1"
  pooling_param {
    pool: AVE
    kernel_size: 7
    stride: 1
  }
}
layer {
  name: "pool5/drop_7x7_s1"
  type: "Dropout"
  bottom: "pool5/7x7_s1"
  top: "pool5/7x7_s1"
  dropout_param {
    dropout_ratio: 0.4
  }
}
layer {
  name: "loss3/classifier"
  type: "InnerProduct"
  bottom: "pool5/7x7_s1"
  top: "loss3/classifier"
  param {
    lr_mult: 1
    decay_mult: 1
  }
  param {
    lr_mult: 2
    decay_mult: 0
  }
  inner_product_param {
    num_output: 1000
    weight_filler {
      type: "xavier"
    }
    bias_filler {
      type: "constant"
      value: 0
    }
  }
}
layer {
  name: "loss3/loss3"
  type: "SoftmaxWithLoss"
  bottom: "loss3/classifier"
  bottom: "label_data_1_split_2"
  top: "loss3/loss3"
  loss_weight: 1
}
I0619 10:28:21.534791 198800 layer_factory.hpp:114] Creating layer data
I0619 10:28:21.536772 198800 net.cpp:183] Creating Layer data
I0619 10:28:21.536876 198800 net.cpp:838] data -> data
I0619 10:28:21.537024 198800 net.cpp:838] data -> label
I0619 10:28:21.541868 198802 db_lmdb.cpp:72] Opened lmdb /home/wenxizhu/wenxi/internal-intel-caffe/examples/imagenet/ilsvrc12_train_lmdb
I0619 10:28:21.546280 198800 data_layer.cpp:80] output data size: 96,3,224,224
I0619 10:28:21.633935 198800 net.cpp:267] Setting up data
I0619 10:28:21.634153 198800 net.cpp:274] Top shape: 96 3 224 224 (14450688)
I0619 10:28:21.634202 198800 net.cpp:274] Top shape: 96 (96)
I0619 10:28:21.634233 198800 net.cpp:282] Memory required for data: 57803136
I0619 10:28:21.634277 198800 layer_factory.hpp:114] Creating layer label_data_1_split
I0619 10:28:21.634408 198800 net.cpp:183] Creating Layer label_data_1_split
I0619 10:28:21.634443 198800 net.cpp:864] label_data_1_split <- label
I0619 10:28:21.634486 198800 net.cpp:838] label_data_1_split -> label_data_1_split_0
I0619 10:28:21.634541 198800 net.cpp:838] label_data_1_split -> label_data_1_split_1
I0619 10:28:21.634585 198800 net.cpp:838] label_data_1_split -> label_data_1_split_2
I0619 10:28:21.634733 198800 net.cpp:267] Setting up label_data_1_split
I0619 10:28:21.634783 198800 net.cpp:274] Top shape: 96 (96)
I0619 10:28:21.634819 198800 net.cpp:274] Top shape: 96 (96)
I0619 10:28:21.634852 198800 net.cpp:274] Top shape: 96 (96)
I0619 10:28:21.634879 198800 net.cpp:282] Memory required for data: 57804288
I0619 10:28:21.634912 198800 layer_factory.hpp:114] Creating layer conv1/7x7_s2
I0619 10:28:21.635044 198800 net.cpp:183] Creating Layer conv1/7x7_s2
I0619 10:28:21.635140 198800 net.cpp:864] conv1/7x7_s2 <- data
I0619 10:28:21.635218 198800 net.cpp:838] conv1/7x7_s2 -> conv1/7x7_s2
I0619 10:28:21.842871 198800 net.cpp:267] Setting up conv1/7x7_s2
I0619 10:28:21.843010 198800 net.cpp:274] Top shape: 96 64 112 112 (77070336)
I0619 10:28:21.843046 198800 net.cpp:282] Memory required for data: 366085632
I0619 10:28:21.843212 198800 layer_factory.hpp:114] Creating layer conv1/relu_7x7
I0619 10:28:21.843358 198800 net.cpp:183] Creating Layer conv1/relu_7x7
I0619 10:28:21.843437 198800 net.cpp:864] conv1/relu_7x7 <- conv1/7x7_s2
I0619 10:28:21.843535 198800 net.cpp:825] conv1/relu_7x7 -> conv1/7x7_s2 (in-place)
I0619 10:28:21.843691 198800 net.cpp:267] Setting up conv1/relu_7x7
I0619 10:28:21.843775 198800 net.cpp:274] Top shape: 96 64 112 112 (77070336)
I0619 10:28:21.843812 198800 net.cpp:282] Memory required for data: 674366976
I0619 10:28:21.843863 198800 layer_factory.hpp:114] Creating layer pool1/3x3_s2
I0619 10:28:21.843976 198800 net.cpp:183] Creating Layer pool1/3x3_s2
I0619 10:28:21.844040 198800 net.cpp:864] pool1/3x3_s2 <- conv1/7x7_s2
I0619 10:28:21.844156 198800 net.cpp:838] pool1/3x3_s2 -> pool1/3x3_s2
I0619 10:28:21.844323 198800 net.cpp:267] Setting up pool1/3x3_s2
I0619 10:28:21.844414 198800 net.cpp:274] Top shape: 96 64 56 56 (19267584)
I0619 10:28:21.844466 198800 net.cpp:282] Memory required for data: 751437312
I0619 10:28:21.844529 198800 layer_factory.hpp:114] Creating layer pool1/norm1
I0619 10:28:21.844641 198800 net.cpp:183] Creating Layer pool1/norm1
I0619 10:28:21.844697 198800 net.cpp:864] pool1/norm1 <- pool1/3x3_s2
I0619 10:28:21.844872 198800 net.cpp:838] pool1/norm1 -> pool1/norm1
I0619 10:28:21.845132 198800 net.cpp:267] Setting up pool1/norm1
I0619 10:28:21.845222 198800 net.cpp:274] Top shape: 96 64 56 56 (19267584)
I0619 10:28:21.845268 198800 net.cpp:282] Memory required for data: 828507648
I0619 10:28:21.845314 198800 layer_factory.hpp:114] Creating layer conv2/3x3_reduce
I0619 10:28:21.845504 198800 net.cpp:183] Creating Layer conv2/3x3_reduce
I0619 10:28:21.845557 198800 net.cpp:864] conv2/3x3_reduce <- pool1/norm1
I0619 10:28:21.845641 198800 net.cpp:838] conv2/3x3_reduce -> conv2/3x3_reduce
I0619 10:28:21.859648 198800 net.cpp:267] Setting up conv2/3x3_reduce
I0619 10:28:21.859802 198800 net.cpp:274] Top shape: 96 64 56 56 (19267584)
I0619 10:28:21.859861 198800 net.cpp:282] Memory required for data: 905577984
I0619 10:28:21.860131 198800 layer_factory.hpp:114] Creating layer conv2/relu_3x3_reduce
I0619 10:28:21.860278 198800 net.cpp:183] Creating Layer conv2/relu_3x3_reduce
I0619 10:28:21.860344 198800 net.cpp:864] conv2/relu_3x3_reduce <- conv2/3x3_reduce
I0619 10:28:21.860430 198800 net.cpp:825] conv2/relu_3x3_reduce -> conv2/3x3_reduce (in-place)
I0619 10:28:21.860548 198800 net.cpp:267] Setting up conv2/relu_3x3_reduce
I0619 10:28:21.860622 198800 net.cpp:274] Top shape: 96 64 56 56 (19267584)
I0619 10:28:21.860710 198800 net.cpp:282] Memory required for data: 982648320
I0619 10:28:21.860770 198800 layer_factory.hpp:114] Creating layer conv2/3x3
I0619 10:28:21.860949 198800 net.cpp:183] Creating Layer conv2/3x3
I0619 10:28:21.861009 198800 net.cpp:864] conv2/3x3 <- conv2/3x3_reduce
I0619 10:28:21.861157 198800 net.cpp:838] conv2/3x3 -> conv2/3x3
I0619 10:28:21.886888 198800 net.cpp:267] Setting up conv2/3x3
I0619 10:28:21.887050 198800 net.cpp:274] Top shape: 96 192 56 56 (57802752)
I0619 10:28:21.887202 198800 net.cpp:282] Memory required for data: 1213859328
I0619 10:28:21.887329 198800 layer_factory.hpp:114] Creating layer conv2/relu_3x3
I0619 10:28:21.887508 198800 net.cpp:183] Creating Layer conv2/relu_3x3
I0619 10:28:21.887599 198800 net.cpp:864] conv2/relu_3x3 <- conv2/3x3
I0619 10:28:21.887677 198800 net.cpp:825] conv2/relu_3x3 -> conv2/3x3 (in-place)
I0619 10:28:21.887838 198800 net.cpp:267] Setting up conv2/relu_3x3
I0619 10:28:21.887938 198800 net.cpp:274] Top shape: 96 192 56 56 (57802752)
I0619 10:28:21.888037 198800 net.cpp:282] Memory required for data: 1445070336
I0619 10:28:21.888183 198800 layer_factory.hpp:114] Creating layer conv2/norm2
I0619 10:28:21.888321 198800 net.cpp:183] Creating Layer conv2/norm2
I0619 10:28:21.888408 198800 net.cpp:864] conv2/norm2 <- conv2/3x3
I0619 10:28:21.888504 198800 net.cpp:838] conv2/norm2 -> conv2/norm2
I0619 10:28:21.888659 198800 net.cpp:267] Setting up conv2/norm2
I0619 10:28:21.888749 198800 net.cpp:274] Top shape: 96 192 56 56 (57802752)
I0619 10:28:21.888806 198800 net.cpp:282] Memory required for data: 1676281344
I0619 10:28:21.888869 198800 layer_factory.hpp:114] Creating layer pool2/3x3_s2
I0619 10:28:21.888993 198800 net.cpp:183] Creating Layer pool2/3x3_s2
I0619 10:28:21.889056 198800 net.cpp:864] pool2/3x3_s2 <- conv2/norm2
I0619 10:28:21.889169 198800 net.cpp:838] pool2/3x3_s2 -> pool2/3x3_s2
I0619 10:28:21.889338 198800 net.cpp:267] Setting up pool2/3x3_s2
I0619 10:28:21.889420 198800 net.cpp:274] Top shape: 96 192 28 28 (14450688)
I0619 10:28:21.889470 198800 net.cpp:282] Memory required for data: 1734084096
I0619 10:28:21.889525 198800 layer_factory.hpp:114] Creating layer pool2/3x3_s2_pool2/3x3_s2_0_split
I0619 10:28:21.889648 198800 net.cpp:183] Creating Layer pool2/3x3_s2_pool2/3x3_s2_0_split
I0619 10:28:21.889747 198800 net.cpp:864] pool2/3x3_s2_pool2/3x3_s2_0_split <- pool2/3x3_s2
I0619 10:28:21.889853 198800 net.cpp:838] pool2/3x3_s2_pool2/3x3_s2_0_split -> pool2/3x3_s2_pool2/3x3_s2_0_split_0
I0619 10:28:21.889971 198800 net.cpp:838] pool2/3x3_s2_pool2/3x3_s2_0_split -> pool2/3x3_s2_pool2/3x3_s2_0_split_1
I0619 10:28:21.890056 198800 net.cpp:838] pool2/3x3_s2_pool2/3x3_s2_0_split -> pool2/3x3_s2_pool2/3x3_s2_0_split_2
I0619 10:28:21.890475 198800 net.cpp:838] pool2/3x3_s2_pool2/3x3_s2_0_split -> pool2/3x3_s2_pool2/3x3_s2_0_split_3
I0619 10:28:21.890878 198800 net.cpp:267] Setting up pool2/3x3_s2_pool2/3x3_s2_0_split
I0619 10:28:21.891034 198800 net.cpp:274] Top shape: 96 192 28 28 (14450688)
I0619 10:28:21.891181 198800 net.cpp:274] Top shape: 96 192 28 28 (14450688)
I0619 10:28:21.891238 198800 net.cpp:274] Top shape: 96 192 28 28 (14450688)
I0619 10:28:21.891286 198800 net.cpp:274] Top shape: 96 192 28 28 (14450688)
I0619 10:28:21.891324 198800 net.cpp:282] Memory required for data: 1965295104
I0619 10:28:21.891374 198800 layer_factory.hpp:114] Creating layer inception_3a/1x1
I0619 10:28:21.891599 198800 net.cpp:183] Creating Layer inception_3a/1x1
I0619 10:28:21.891824 198800 net.cpp:864] inception_3a/1x1 <- pool2/3x3_s2_pool2/3x3_s2_0_split_0
I0619 10:28:21.892230 198800 net.cpp:838] inception_3a/1x1 -> inception_3a/1x1
I0619 10:28:21.906869 198800 net.cpp:267] Setting up inception_3a/1x1
I0619 10:28:21.907021 198800 net.cpp:274] Top shape: 96 64 28 28 (4816896)
I0619 10:28:21.907110 198800 net.cpp:282] Memory required for data: 1984562688
I0619 10:28:21.907218 198800 layer_factory.hpp:114] Creating layer inception_3a/relu_1x1
I0619 10:28:21.907351 198800 net.cpp:183] Creating Layer inception_3a/relu_1x1
I0619 10:28:21.907431 198800 net.cpp:864] inception_3a/relu_1x1 <- inception_3a/1x1
I0619 10:28:21.907516 198800 net.cpp:825] inception_3a/relu_1x1 -> inception_3a/1x1 (in-place)
I0619 10:28:21.907650 198800 net.cpp:267] Setting up inception_3a/relu_1x1
I0619 10:28:21.907734 198800 net.cpp:274] Top shape: 96 64 28 28 (4816896)
I0619 10:28:21.907773 198800 net.cpp:282] Memory required for data: 2003830272
I0619 10:28:21.907827 198800 layer_factory.hpp:114] Creating layer inception_3a/3x3_reduce
I0619 10:28:21.908036 198800 net.cpp:183] Creating Layer inception_3a/3x3_reduce
I0619 10:28:21.908175 198800 net.cpp:864] inception_3a/3x3_reduce <- pool2/3x3_s2_pool2/3x3_s2_0_split_1
I0619 10:28:21.908303 198800 net.cpp:838] inception_3a/3x3_reduce -> inception_3a/3x3_reduce
I0619 10:28:21.923976 198800 net.cpp:267] Setting up inception_3a/3x3_reduce
I0619 10:28:21.924170 198800 net.cpp:274] Top shape: 96 96 28 28 (7225344)
I0619 10:28:21.924240 198800 net.cpp:282] Memory required for data: 2032731648
I0619 10:28:21.924340 198800 layer_factory.hpp:114] Creating layer inception_3a/relu_3x3_reduce
I0619 10:28:21.924490 198800 net.cpp:183] Creating Layer inception_3a/relu_3x3_reduce
I0619 10:28:21.924569 198800 net.cpp:864] inception_3a/relu_3x3_reduce <- inception_3a/3x3_reduce
I0619 10:28:21.924643 198800 net.cpp:825] inception_3a/relu_3x3_reduce -> inception_3a/3x3_reduce (in-place)
I0619 10:28:21.924857 198800 net.cpp:267] Setting up inception_3a/relu_3x3_reduce
I0619 10:28:21.925052 198800 net.cpp:274] Top shape: 96 96 28 28 (7225344)
I0619 10:28:21.925201 198800 net.cpp:282] Memory required for data: 2061633024
I0619 10:28:21.925285 198800 layer_factory.hpp:114] Creating layer inception_3a/3x3
I0619 10:28:21.925457 198800 net.cpp:183] Creating Layer inception_3a/3x3
I0619 10:28:21.925537 198800 net.cpp:864] inception_3a/3x3 <- inception_3a/3x3_reduce
I0619 10:28:21.925642 198800 net.cpp:838] inception_3a/3x3 -> inception_3a/3x3
I0619 10:28:21.948670 198800 net.cpp:267] Setting up inception_3a/3x3
I0619 10:28:21.948827 198800 net.cpp:274] Top shape: 96 128 28 28 (9633792)
I0619 10:28:21.948890 198800 net.cpp:282] Memory required for data: 2100168192
I0619 10:28:21.948983 198800 layer_factory.hpp:114] Creating layer inception_3a/relu_3x3
I0619 10:28:21.949192 198800 net.cpp:183] Creating Layer inception_3a/relu_3x3
I0619 10:28:21.949307 198800 net.cpp:864] inception_3a/relu_3x3 <- inception_3a/3x3
I0619 10:28:21.949399 198800 net.cpp:825] inception_3a/relu_3x3 -> inception_3a/3x3 (in-place)
I0619 10:28:21.949569 198800 net.cpp:267] Setting up inception_3a/relu_3x3
I0619 10:28:21.949753 198800 net.cpp:274] Top shape: 96 128 28 28 (9633792)
I0619 10:28:21.949882 198800 net.cpp:282] Memory required for data: 2138703360
I0619 10:28:21.949959 198800 layer_factory.hpp:114] Creating layer inception_3a/5x5_reduce
I0619 10:28:21.950160 198800 net.cpp:183] Creating Layer inception_3a/5x5_reduce
I0619 10:28:21.950278 198800 net.cpp:864] inception_3a/5x5_reduce <- pool2/3x3_s2_pool2/3x3_s2_0_split_2
I0619 10:28:21.950386 198800 net.cpp:838] inception_3a/5x5_reduce -> inception_3a/5x5_reduce
I0619 10:28:21.964197 198800 net.cpp:267] Setting up inception_3a/5x5_reduce
I0619 10:28:21.964350 198800 net.cpp:274] Top shape: 96 16 28 28 (1204224)
I0619 10:28:21.964407 198800 net.cpp:282] Memory required for data: 2143520256
I0619 10:28:21.964498 198800 layer_factory.hpp:114] Creating layer inception_3a/relu_5x5_reduce
I0619 10:28:21.964661 198800 net.cpp:183] Creating Layer inception_3a/relu_5x5_reduce
I0619 10:28:21.964778 198800 net.cpp:864] inception_3a/relu_5x5_reduce <- inception_3a/5x5_reduce
I0619 10:28:21.965004 198800 net.cpp:825] inception_3a/relu_5x5_reduce -> inception_3a/5x5_reduce (in-place)
I0619 10:28:21.965237 198800 net.cpp:267] Setting up inception_3a/relu_5x5_reduce
I0619 10:28:21.965324 198800 net.cpp:274] Top shape: 96 16 28 28 (1204224)
I0619 10:28:21.965360 198800 net.cpp:282] Memory required for data: 2148337152
I0619 10:28:21.965401 198800 layer_factory.hpp:114] Creating layer inception_3a/5x5
I0619 10:28:21.965564 198800 net.cpp:183] Creating Layer inception_3a/5x5
I0619 10:28:21.965642 198800 net.cpp:864] inception_3a/5x5 <- inception_3a/5x5_reduce
I0619 10:28:21.965744 198800 net.cpp:838] inception_3a/5x5 -> inception_3a/5x5
I0619 10:28:21.987568 198800 net.cpp:267] Setting up inception_3a/5x5
I0619 10:28:21.987757 198800 net.cpp:274] Top shape: 96 32 28 28 (2408448)
I0619 10:28:21.987859 198800 net.cpp:282] Memory required for data: 2157970944
I0619 10:28:21.987977 198800 layer_factory.hpp:114] Creating layer inception_3a/relu_5x5
I0619 10:28:21.988181 198800 net.cpp:183] Creating Layer inception_3a/relu_5x5
I0619 10:28:21.988296 198800 net.cpp:864] inception_3a/relu_5x5 <- inception_3a/5x5
I0619 10:28:21.988458 198800 net.cpp:825] inception_3a/relu_5x5 -> inception_3a/5x5 (in-place)
I0619 10:28:21.988649 198800 net.cpp:267] Setting up inception_3a/relu_5x5
I0619 10:28:21.988765 198800 net.cpp:274] Top shape: 96 32 28 28 (2408448)
I0619 10:28:21.988855 198800 net.cpp:282] Memory required for data: 2167604736
I0619 10:28:21.988934 198800 layer_factory.hpp:114] Creating layer inception_3a/pool
I0619 10:28:21.989038 198800 net.cpp:183] Creating Layer inception_3a/pool
I0619 10:28:21.989135 198800 net.cpp:864] inception_3a/pool <- pool2/3x3_s2_pool2/3x3_s2_0_split_3
I0619 10:28:21.989238 198800 net.cpp:838] inception_3a/pool -> inception_3a/pool
I0619 10:28:21.989441 198800 net.cpp:267] Setting up inception_3a/pool
I0619 10:28:21.989605 198800 net.cpp:274] Top shape: 96 192 28 28 (14450688)
I0619 10:28:21.989671 198800 net.cpp:282] Memory required for data: 2225407488
I0619 10:28:21.989723 198800 layer_factory.hpp:114] Creating layer inception_3a/pool_proj
I0619 10:28:21.989907 198800 net.cpp:183] Creating Layer inception_3a/pool_proj
I0619 10:28:21.990010 198800 net.cpp:864] inception_3a/pool_proj <- inception_3a/pool
I0619 10:28:21.990218 198800 net.cpp:838] inception_3a/pool_proj -> inception_3a/pool_proj
I0619 10:28:22.004712 198800 net.cpp:267] Setting up inception_3a/pool_proj
I0619 10:28:22.004868 198800 net.cpp:274] Top shape: 96 32 28 28 (2408448)
I0619 10:28:22.004935 198800 net.cpp:282] Memory required for data: 2235041280
I0619 10:28:22.005048 198800 layer_factory.hpp:114] Creating layer inception_3a/relu_pool_proj
I0619 10:28:22.005280 198800 net.cpp:183] Creating Layer inception_3a/relu_pool_proj
I0619 10:28:22.005383 198800 net.cpp:864] inception_3a/relu_pool_proj <- inception_3a/pool_proj
I0619 10:28:22.005514 198800 net.cpp:825] inception_3a/relu_pool_proj -> inception_3a/pool_proj (in-place)
I0619 10:28:22.005681 198800 net.cpp:267] Setting up inception_3a/relu_pool_proj
I0619 10:28:22.005807 198800 net.cpp:274] Top shape: 96 32 28 28 (2408448)
I0619 10:28:22.005921 198800 net.cpp:282] Memory required for data: 2244675072
I0619 10:28:22.006047 198800 layer_factory.hpp:114] Creating layer inception_3a/output
I0619 10:28:22.006253 198800 net.cpp:183] Creating Layer inception_3a/output
I0619 10:28:22.006357 198800 net.cpp:864] inception_3a/output <- inception_3a/1x1
I0619 10:28:22.006434 198800 net.cpp:864] inception_3a/output <- inception_3a/3x3
I0619 10:28:22.006490 198800 net.cpp:864] inception_3a/output <- inception_3a/5x5
I0619 10:28:22.006537 198800 net.cpp:864] inception_3a/output <- inception_3a/pool_proj
I0619 10:28:22.006629 198800 net.cpp:838] inception_3a/output -> inception_3a/output
I0619 10:28:22.006942 198800 net.cpp:267] Setting up inception_3a/output
I0619 10:28:22.007093 198800 net.cpp:274] Top shape: 96 256 28 28 (19267584)
I0619 10:28:22.007179 198800 net.cpp:282] Memory required for data: 2321745408
I0619 10:28:22.007398 198800 layer_factory.hpp:114] Creating layer inception_3a/output_inception_3a/output_0_split
I0619 10:28:22.007581 198800 net.cpp:183] Creating Layer inception_3a/output_inception_3a/output_0_split
I0619 10:28:22.007665 198800 net.cpp:864] inception_3a/output_inception_3a/output_0_split <- inception_3a/output
I0619 10:28:22.007786 198800 net.cpp:838] inception_3a/output_inception_3a/output_0_split -> inception_3a/output_inception_3a/output_0_split_0
I0619 10:28:22.007901 198800 net.cpp:838] inception_3a/output_inception_3a/output_0_split -> inception_3a/output_inception_3a/output_0_split_1
I0619 10:28:22.008020 198800 net.cpp:838] inception_3a/output_inception_3a/output_0_split -> inception_3a/output_inception_3a/output_0_split_2
I0619 10:28:22.008317 198800 net.cpp:838] inception_3a/output_inception_3a/output_0_split -> inception_3a/output_inception_3a/output_0_split_3
I0619 10:28:22.008762 198800 net.cpp:267] Setting up inception_3a/output_inception_3a/output_0_split
I0619 10:28:22.008872 198800 net.cpp:274] Top shape: 96 256 28 28 (19267584)
I0619 10:28:22.008922 198800 net.cpp:274] Top shape: 96 256 28 28 (19267584)
I0619 10:28:22.008972 198800 net.cpp:274] Top shape: 96 256 28 28 (19267584)
I0619 10:28:22.009022 198800 net.cpp:274] Top shape: 96 256 28 28 (19267584)
I0619 10:28:22.009114 198800 net.cpp:282] Memory required for data: 2630026752
I0619 10:28:22.009174 198800 layer_factory.hpp:114] Creating layer inception_3b/1x1
I0619 10:28:22.009366 198800 net.cpp:183] Creating Layer inception_3b/1x1
I0619 10:28:22.009567 198800 net.cpp:864] inception_3b/1x1 <- inception_3a/output_inception_3a/output_0_split_0
I0619 10:28:22.009697 198800 net.cpp:838] inception_3b/1x1 -> inception_3b/1x1
I0619 10:28:22.027468 198800 net.cpp:267] Setting up inception_3b/1x1
I0619 10:28:22.027622 198800 net.cpp:274] Top shape: 96 128 28 28 (9633792)
I0619 10:28:22.027688 198800 net.cpp:282] Memory required for data: 2668561920
I0619 10:28:22.027783 198800 layer_factory.hpp:114] Creating layer inception_3b/relu_1x1
I0619 10:28:22.027909 198800 net.cpp:183] Creating Layer inception_3b/relu_1x1
I0619 10:28:22.027990 198800 net.cpp:864] inception_3b/relu_1x1 <- inception_3b/1x1
I0619 10:28:22.028061 198800 net.cpp:825] inception_3b/relu_1x1 -> inception_3b/1x1 (in-place)
I0619 10:28:22.028244 198800 net.cpp:267] Setting up inception_3b/relu_1x1
I0619 10:28:22.028347 198800 net.cpp:274] Top shape: 96 128 28 28 (9633792)
I0619 10:28:22.028411 198800 net.cpp:282] Memory required for data: 2707097088
I0619 10:28:22.028542 198800 layer_factory.hpp:114] Creating layer inception_3b/3x3_reduce
I0619 10:28:22.028782 198800 net.cpp:183] Creating Layer inception_3b/3x3_reduce
I0619 10:28:22.028870 198800 net.cpp:864] inception_3b/3x3_reduce <- inception_3a/output_inception_3a/output_0_split_1
I0619 10:28:22.028995 198800 net.cpp:838] inception_3b/3x3_reduce -> inception_3b/3x3_reduce
I0619 10:28:22.045718 198800 net.cpp:267] Setting up inception_3b/3x3_reduce
I0619 10:28:22.045874 198800 net.cpp:274] Top shape: 96 128 28 28 (9633792)
I0619 10:28:22.045938 198800 net.cpp:282] Memory required for data: 2745632256
I0619 10:28:22.046027 198800 layer_factory.hpp:114] Creating layer inception_3b/relu_3x3_reduce
I0619 10:28:22.046221 198800 net.cpp:183] Creating Layer inception_3b/relu_3x3_reduce
I0619 10:28:22.046344 198800 net.cpp:864] inception_3b/relu_3x3_reduce <- inception_3b/3x3_reduce
I0619 10:28:22.046433 198800 net.cpp:825] inception_3b/relu_3x3_reduce -> inception_3b/3x3_reduce (in-place)
I0619 10:28:22.046582 198800 net.cpp:267] Setting up inception_3b/relu_3x3_reduce
I0619 10:28:22.046732 198800 net.cpp:274] Top shape: 96 128 28 28 (9633792)
I0619 10:28:22.046886 198800 net.cpp:282] Memory required for data: 2784167424
I0619 10:28:22.046969 198800 layer_factory.hpp:114] Creating layer inception_3b/3x3
I0619 10:28:22.047309 198800 net.cpp:183] Creating Layer inception_3b/3x3
I0619 10:28:22.047410 198800 net.cpp:864] inception_3b/3x3 <- inception_3b/3x3_reduce
I0619 10:28:22.047566 198800 net.cpp:838] inception_3b/3x3 -> inception_3b/3x3
I0619 10:28:22.073436 198800 net.cpp:267] Setting up inception_3b/3x3
I0619 10:28:22.073592 198800 net.cpp:274] Top shape: 96 192 28 28 (14450688)
I0619 10:28:22.073662 198800 net.cpp:282] Memory required for data: 2841970176
I0619 10:28:22.073758 198800 layer_factory.hpp:114] Creating layer inception_3b/relu_3x3
I0619 10:28:22.073927 198800 net.cpp:183] Creating Layer inception_3b/relu_3x3
I0619 10:28:22.074054 198800 net.cpp:864] inception_3b/relu_3x3 <- inception_3b/3x3
I0619 10:28:22.074221 198800 net.cpp:825] inception_3b/relu_3x3 -> inception_3b/3x3 (in-place)
I0619 10:28:22.074435 198800 net.cpp:267] Setting up inception_3b/relu_3x3
I0619 10:28:22.074538 198800 net.cpp:274] Top shape: 96 192 28 28 (14450688)
I0619 10:28:22.074586 198800 net.cpp:282] Memory required for data: 2899772928
I0619 10:28:22.074653 198800 layer_factory.hpp:114] Creating layer inception_3b/5x5_reduce
I0619 10:28:22.074954 198800 net.cpp:183] Creating Layer inception_3b/5x5_reduce
I0619 10:28:22.075094 198800 net.cpp:864] inception_3b/5x5_reduce <- inception_3a/output_inception_3a/output_0_split_2
I0619 10:28:22.075258 198800 net.cpp:838] inception_3b/5x5_reduce -> inception_3b/5x5_reduce
I0619 10:28:22.090265 198800 net.cpp:267] Setting up inception_3b/5x5_reduce
I0619 10:28:22.090412 198800 net.cpp:274] Top shape: 96 32 28 28 (2408448)
I0619 10:28:22.090471 198800 net.cpp:282] Memory required for data: 2909406720
I0619 10:28:22.090603 198800 layer_factory.hpp:114] Creating layer inception_3b/relu_5x5_reduce
I0619 10:28:22.090782 198800 net.cpp:183] Creating Layer inception_3b/relu_5x5_reduce
I0619 10:28:22.091119 198800 net.cpp:864] inception_3b/relu_5x5_reduce <- inception_3b/5x5_reduce
I0619 10:28:22.091248 198800 net.cpp:825] inception_3b/relu_5x5_reduce -> inception_3b/5x5_reduce (in-place)
I0619 10:28:22.091452 198800 net.cpp:267] Setting up inception_3b/relu_5x5_reduce
I0619 10:28:22.091557 198800 net.cpp:274] Top shape: 96 32 28 28 (2408448)
I0619 10:28:22.091634 198800 net.cpp:282] Memory required for data: 2919040512
I0619 10:28:22.091711 198800 layer_factory.hpp:114] Creating layer inception_3b/5x5
I0619 10:28:22.091979 198800 net.cpp:183] Creating Layer inception_3b/5x5
I0619 10:28:22.092169 198800 net.cpp:864] inception_3b/5x5 <- inception_3b/5x5_reduce
I0619 10:28:22.092290 198800 net.cpp:838] inception_3b/5x5 -> inception_3b/5x5
I0619 10:28:22.115823 198800 net.cpp:267] Setting up inception_3b/5x5
I0619 10:28:22.115983 198800 net.cpp:274] Top shape: 96 96 28 28 (7225344)
I0619 10:28:22.116053 198800 net.cpp:282] Memory required for data: 2947941888
I0619 10:28:22.116217 198800 layer_factory.hpp:114] Creating layer inception_3b/relu_5x5
I0619 10:28:22.116441 198800 net.cpp:183] Creating Layer inception_3b/relu_5x5
I0619 10:28:22.116751 198800 net.cpp:864] inception_3b/relu_5x5 <- inception_3b/5x5
I0619 10:28:22.116896 198800 net.cpp:825] inception_3b/relu_5x5 -> inception_3b/5x5 (in-place)
I0619 10:28:22.117059 198800 net.cpp:267] Setting up inception_3b/relu_5x5
I0619 10:28:22.117200 198800 net.cpp:274] Top shape: 96 96 28 28 (7225344)
I0619 10:28:22.117271 198800 net.cpp:282] Memory required for data: 2976843264
I0619 10:28:22.117328 198800 layer_factory.hpp:114] Creating layer inception_3b/pool
I0619 10:28:22.117450 198800 net.cpp:183] Creating Layer inception_3b/pool
I0619 10:28:22.117529 198800 net.cpp:864] inception_3b/pool <- inception_3a/output_inception_3a/output_0_split_3
I0619 10:28:22.117669 198800 net.cpp:838] inception_3b/pool -> inception_3b/pool
I0619 10:28:22.117915 198800 net.cpp:267] Setting up inception_3b/pool
I0619 10:28:22.118029 198800 net.cpp:274] Top shape: 96 256 28 28 (19267584)
I0619 10:28:22.118129 198800 net.cpp:282] Memory required for data: 3053913600
I0619 10:28:22.118186 198800 layer_factory.hpp:114] Creating layer inception_3b/pool_proj
I0619 10:28:22.118405 198800 net.cpp:183] Creating Layer inception_3b/pool_proj
I0619 10:28:22.118537 198800 net.cpp:864] inception_3b/pool_proj <- inception_3b/pool
I0619 10:28:22.118669 198800 net.cpp:838] inception_3b/pool_proj -> inception_3b/pool_proj
I0619 10:28:22.135260 198800 net.cpp:267] Setting up inception_3b/pool_proj
I0619 10:28:22.135413 198800 net.cpp:274] Top shape: 96 64 28 28 (4816896)
I0619 10:28:22.135485 198800 net.cpp:282] Memory required for data: 3073181184
I0619 10:28:22.135581 198800 layer_factory.hpp:114] Creating layer inception_3b/relu_pool_proj
I0619 10:28:22.135710 198800 net.cpp:183] Creating Layer inception_3b/relu_pool_proj
I0619 10:28:22.135802 198800 net.cpp:864] inception_3b/relu_pool_proj <- inception_3b/pool_proj
I0619 10:28:22.135900 198800 net.cpp:825] inception_3b/relu_pool_proj -> inception_3b/pool_proj (in-place)
I0619 10:28:22.136065 198800 net.cpp:267] Setting up inception_3b/relu_pool_proj
I0619 10:28:22.136255 198800 net.cpp:274] Top shape: 96 64 28 28 (4816896)
I0619 10:28:22.136333 198800 net.cpp:282] Memory required for data: 3092448768
I0619 10:28:22.136421 198800 layer_factory.hpp:114] Creating layer inception_3b/output
I0619 10:28:22.136543 198800 net.cpp:183] Creating Layer inception_3b/output
I0619 10:28:22.136616 198800 net.cpp:864] inception_3b/output <- inception_3b/1x1
I0619 10:28:22.136750 198800 net.cpp:864] inception_3b/output <- inception_3b/3x3
I0619 10:28:22.136842 198800 net.cpp:864] inception_3b/output <- inception_3b/5x5
I0619 10:28:22.136939 198800 net.cpp:864] inception_3b/output <- inception_3b/pool_proj
I0619 10:28:22.137049 198800 net.cpp:838] inception_3b/output -> inception_3b/output
I0619 10:28:22.137363 198800 net.cpp:267] Setting up inception_3b/output
I0619 10:28:22.137468 198800 net.cpp:274] Top shape: 96 480 28 28 (36126720)
I0619 10:28:22.137569 198800 net.cpp:282] Memory required for data: 3236955648
I0619 10:28:22.137691 198800 layer_factory.hpp:114] Creating layer pool3/3x3_s2
I0619 10:28:22.137846 198800 net.cpp:183] Creating Layer pool3/3x3_s2
I0619 10:28:22.137953 198800 net.cpp:864] pool3/3x3_s2 <- inception_3b/output
I0619 10:28:22.138021 198800 net.cpp:838] pool3/3x3_s2 -> pool3/3x3_s2
I0619 10:28:22.138229 198800 net.cpp:267] Setting up pool3/3x3_s2
I0619 10:28:22.138352 198800 net.cpp:274] Top shape: 96 480 14 14 (9031680)
I0619 10:28:22.138399 198800 net.cpp:282] Memory required for data: 3273082368
I0619 10:28:22.138445 198800 layer_factory.hpp:114] Creating layer pool3/3x3_s2_pool3/3x3_s2_0_split
I0619 10:28:22.138527 198800 net.cpp:183] Creating Layer pool3/3x3_s2_pool3/3x3_s2_0_split
I0619 10:28:22.138607 198800 net.cpp:864] pool3/3x3_s2_pool3/3x3_s2_0_split <- pool3/3x3_s2
I0619 10:28:22.138669 198800 net.cpp:838] pool3/3x3_s2_pool3/3x3_s2_0_split -> pool3/3x3_s2_pool3/3x3_s2_0_split_0
I0619 10:28:22.138809 198800 net.cpp:838] pool3/3x3_s2_pool3/3x3_s2_0_split -> pool3/3x3_s2_pool3/3x3_s2_0_split_1
I0619 10:28:22.139176 198800 net.cpp:838] pool3/3x3_s2_pool3/3x3_s2_0_split -> pool3/3x3_s2_pool3/3x3_s2_0_split_2
I0619 10:28:22.139492 198800 net.cpp:838] pool3/3x3_s2_pool3/3x3_s2_0_split -> pool3/3x3_s2_pool3/3x3_s2_0_split_3
I0619 10:28:22.139843 198800 net.cpp:267] Setting up pool3/3x3_s2_pool3/3x3_s2_0_split
I0619 10:28:22.140018 198800 net.cpp:274] Top shape: 96 480 14 14 (9031680)
I0619 10:28:22.140154 198800 net.cpp:274] Top shape: 96 480 14 14 (9031680)
I0619 10:28:22.140204 198800 net.cpp:274] Top shape: 96 480 14 14 (9031680)
I0619 10:28:22.140251 198800 net.cpp:274] Top shape: 96 480 14 14 (9031680)
I0619 10:28:22.140285 198800 net.cpp:282] Memory required for data: 3417589248
I0619 10:28:22.140332 198800 layer_factory.hpp:114] Creating layer inception_4a/1x1
I0619 10:28:22.140548 198800 net.cpp:183] Creating Layer inception_4a/1x1
I0619 10:28:22.140792 198800 net.cpp:864] inception_4a/1x1 <- pool3/3x3_s2_pool3/3x3_s2_0_split_0
I0619 10:28:22.140923 198800 net.cpp:838] inception_4a/1x1 -> inception_4a/1x1
I0619 10:28:22.160580 198800 net.cpp:267] Setting up inception_4a/1x1
I0619 10:28:22.160742 198800 net.cpp:274] Top shape: 96 192 14 14 (3612672)
I0619 10:28:22.160811 198800 net.cpp:282] Memory required for data: 3432039936
I0619 10:28:22.160902 198800 layer_factory.hpp:114] Creating layer inception_4a/relu_1x1
I0619 10:28:22.161028 198800 net.cpp:183] Creating Layer inception_4a/relu_1x1
I0619 10:28:22.161317 198800 net.cpp:864] inception_4a/relu_1x1 <- inception_4a/1x1
I0619 10:28:22.161413 198800 net.cpp:825] inception_4a/relu_1x1 -> inception_4a/1x1 (in-place)
I0619 10:28:22.161615 198800 net.cpp:267] Setting up inception_4a/relu_1x1
I0619 10:28:22.161741 198800 net.cpp:274] Top shape: 96 192 14 14 (3612672)
I0619 10:28:22.161792 198800 net.cpp:282] Memory required for data: 3446490624
I0619 10:28:22.161875 198800 layer_factory.hpp:114] Creating layer inception_4a/3x3_reduce
I0619 10:28:22.162158 198800 net.cpp:183] Creating Layer inception_4a/3x3_reduce
I0619 10:28:22.162247 198800 net.cpp:864] inception_4a/3x3_reduce <- pool3/3x3_s2_pool3/3x3_s2_0_split_1
I0619 10:28:22.162331 198800 net.cpp:838] inception_4a/3x3_reduce -> inception_4a/3x3_reduce
I0619 10:28:22.178889 198800 net.cpp:267] Setting up inception_4a/3x3_reduce
I0619 10:28:22.179047 198800 net.cpp:274] Top shape: 96 96 14 14 (1806336)
I0619 10:28:22.179178 198800 net.cpp:282] Memory required for data: 3453715968
I0619 10:28:22.179369 198800 layer_factory.hpp:114] Creating layer inception_4a/relu_3x3_reduce
I0619 10:28:22.179499 198800 net.cpp:183] Creating Layer inception_4a/relu_3x3_reduce
I0619 10:28:22.179571 198800 net.cpp:864] inception_4a/relu_3x3_reduce <- inception_4a/3x3_reduce
I0619 10:28:22.179674 198800 net.cpp:825] inception_4a/relu_3x3_reduce -> inception_4a/3x3_reduce (in-place)
I0619 10:28:22.179939 198800 net.cpp:267] Setting up inception_4a/relu_3x3_reduce
I0619 10:28:22.180145 198800 net.cpp:274] Top shape: 96 96 14 14 (1806336)
I0619 10:28:22.180228 198800 net.cpp:282] Memory required for data: 3460941312
I0619 10:28:22.180287 198800 layer_factory.hpp:114] Creating layer inception_4a/3x3
I0619 10:28:22.180455 198800 net.cpp:183] Creating Layer inception_4a/3x3
I0619 10:28:22.180558 198800 net.cpp:864] inception_4a/3x3 <- inception_4a/3x3_reduce
I0619 10:28:22.180696 198800 net.cpp:838] inception_4a/3x3 -> inception_4a/3x3
I0619 10:28:22.204711 198800 net.cpp:267] Setting up inception_4a/3x3
I0619 10:28:22.204861 198800 net.cpp:274] Top shape: 96 208 14 14 (3913728)
I0619 10:28:22.204926 198800 net.cpp:282] Memory required for data: 3476596224
I0619 10:28:22.205013 198800 layer_factory.hpp:114] Creating layer inception_4a/relu_3x3
I0619 10:28:22.205180 198800 net.cpp:183] Creating Layer inception_4a/relu_3x3
I0619 10:28:22.205274 198800 net.cpp:864] inception_4a/relu_3x3 <- inception_4a/3x3
I0619 10:28:22.205425 198800 net.cpp:825] inception_4a/relu_3x3 -> inception_4a/3x3 (in-place)
I0619 10:28:22.205612 198800 net.cpp:267] Setting up inception_4a/relu_3x3
I0619 10:28:22.205693 198800 net.cpp:274] Top shape: 96 208 14 14 (3913728)
I0619 10:28:22.205736 198800 net.cpp:282] Memory required for data: 3492251136
I0619 10:28:22.205785 198800 layer_factory.hpp:114] Creating layer inception_4a/5x5_reduce
I0619 10:28:22.205960 198800 net.cpp:183] Creating Layer inception_4a/5x5_reduce
I0619 10:28:22.206058 198800 net.cpp:864] inception_4a/5x5_reduce <- pool3/3x3_s2_pool3/3x3_s2_0_split_2
I0619 10:28:22.206205 198800 net.cpp:838] inception_4a/5x5_reduce -> inception_4a/5x5_reduce
I0619 10:28:22.219050 198800 net.cpp:267] Setting up inception_4a/5x5_reduce
I0619 10:28:22.219243 198800 net.cpp:274] Top shape: 96 16 14 14 (301056)
I0619 10:28:22.219310 198800 net.cpp:282] Memory required for data: 3493455360
I0619 10:28:22.219391 198800 layer_factory.hpp:114] Creating layer inception_4a/relu_5x5_reduce
I0619 10:28:22.219477 198800 net.cpp:183] Creating Layer inception_4a/relu_5x5_reduce
I0619 10:28:22.219534 198800 net.cpp:864] inception_4a/relu_5x5_reduce <- inception_4a/5x5_reduce
I0619 10:28:22.219635 198800 net.cpp:825] inception_4a/relu_5x5_reduce -> inception_4a/5x5_reduce (in-place)
I0619 10:28:22.219789 198800 net.cpp:267] Setting up inception_4a/relu_5x5_reduce
I0619 10:28:22.219861 198800 net.cpp:274] Top shape: 96 16 14 14 (301056)
I0619 10:28:22.219904 198800 net.cpp:282] Memory required for data: 3494659584
I0619 10:28:22.219944 198800 layer_factory.hpp:114] Creating layer inception_4a/5x5
I0619 10:28:22.220255 198800 net.cpp:183] Creating Layer inception_4a/5x5
I0619 10:28:22.220347 198800 net.cpp:864] inception_4a/5x5 <- inception_4a/5x5_reduce
I0619 10:28:22.220432 198800 net.cpp:838] inception_4a/5x5 -> inception_4a/5x5
I0619 10:28:22.240696 198800 net.cpp:267] Setting up inception_4a/5x5
I0619 10:28:22.240845 198800 net.cpp:274] Top shape: 96 48 14 14 (903168)
I0619 10:28:22.240912 198800 net.cpp:282] Memory required for data: 3498272256
I0619 10:28:22.241006 198800 layer_factory.hpp:114] Creating layer inception_4a/relu_5x5
I0619 10:28:22.241197 198800 net.cpp:183] Creating Layer inception_4a/relu_5x5
I0619 10:28:22.241294 198800 net.cpp:864] inception_4a/relu_5x5 <- inception_4a/5x5
I0619 10:28:22.241390 198800 net.cpp:825] inception_4a/relu_5x5 -> inception_4a/5x5 (in-place)
I0619 10:28:22.241578 198800 net.cpp:267] Setting up inception_4a/relu_5x5
I0619 10:28:22.241658 198800 net.cpp:274] Top shape: 96 48 14 14 (903168)
I0619 10:28:22.241698 198800 net.cpp:282] Memory required for data: 3501884928
I0619 10:28:22.241755 198800 layer_factory.hpp:114] Creating layer inception_4a/pool
I0619 10:28:22.241853 198800 net.cpp:183] Creating Layer inception_4a/pool
I0619 10:28:22.241910 198800 net.cpp:864] inception_4a/pool <- pool3/3x3_s2_pool3/3x3_s2_0_split_3
I0619 10:28:22.242022 198800 net.cpp:838] inception_4a/pool -> inception_4a/pool
I0619 10:28:22.242269 198800 net.cpp:267] Setting up inception_4a/pool
I0619 10:28:22.242421 198800 net.cpp:274] Top shape: 96 480 14 14 (9031680)
I0619 10:28:22.242483 198800 net.cpp:282] Memory required for data: 3538011648
I0619 10:28:22.242543 198800 layer_factory.hpp:114] Creating layer inception_4a/pool_proj
I0619 10:28:22.242738 198800 net.cpp:183] Creating Layer inception_4a/pool_proj
I0619 10:28:22.242822 198800 net.cpp:864] inception_4a/pool_proj <- inception_4a/pool
I0619 10:28:22.242959 198800 net.cpp:838] inception_4a/pool_proj -> inception_4a/pool_proj
I0619 10:28:22.257524 198800 net.cpp:267] Setting up inception_4a/pool_proj
I0619 10:28:22.257683 198800 net.cpp:274] Top shape: 96 64 14 14 (1204224)
I0619 10:28:22.257755 198800 net.cpp:282] Memory required for data: 3542828544
I0619 10:28:22.257855 198800 layer_factory.hpp:114] Creating layer inception_4a/relu_pool_proj
I0619 10:28:22.257999 198800 net.cpp:183] Creating Layer inception_4a/relu_pool_proj
I0619 10:28:22.258162 198800 net.cpp:864] inception_4a/relu_pool_proj <- inception_4a/pool_proj
I0619 10:28:22.258270 198800 net.cpp:825] inception_4a/relu_pool_proj -> inception_4a/pool_proj (in-place)
I0619 10:28:22.258507 198800 net.cpp:267] Setting up inception_4a/relu_pool_proj
I0619 10:28:22.258875 198800 net.cpp:274] Top shape: 96 64 14 14 (1204224)
I0619 10:28:22.258950 198800 net.cpp:282] Memory required for data: 3547645440
I0619 10:28:22.259007 198800 layer_factory.hpp:114] Creating layer inception_4a/output
I0619 10:28:22.259142 198800 net.cpp:183] Creating Layer inception_4a/output
I0619 10:28:22.259229 198800 net.cpp:864] inception_4a/output <- inception_4a/1x1
I0619 10:28:22.259289 198800 net.cpp:864] inception_4a/output <- inception_4a/3x3
I0619 10:28:22.259340 198800 net.cpp:864] inception_4a/output <- inception_4a/5x5
I0619 10:28:22.259402 198800 net.cpp:864] inception_4a/output <- inception_4a/pool_proj
I0619 10:28:22.259479 198800 net.cpp:838] inception_4a/output -> inception_4a/output
I0619 10:28:22.259778 198800 net.cpp:267] Setting up inception_4a/output
I0619 10:28:22.259909 198800 net.cpp:274] Top shape: 96 512 14 14 (9633792)
I0619 10:28:22.259973 198800 net.cpp:282] Memory required for data: 3586180608
I0619 10:28:22.260042 198800 layer_factory.hpp:114] Creating layer inception_4a/output_inception_4a/output_0_split
I0619 10:28:22.260180 198800 net.cpp:183] Creating Layer inception_4a/output_inception_4a/output_0_split
I0619 10:28:22.260289 198800 net.cpp:864] inception_4a/output_inception_4a/output_0_split <- inception_4a/output
I0619 10:28:22.260406 198800 net.cpp:838] inception_4a/output_inception_4a/output_0_split -> inception_4a/output_inception_4a/output_0_split_0
I0619 10:28:22.260715 198800 net.cpp:838] inception_4a/output_inception_4a/output_0_split -> inception_4a/output_inception_4a/output_0_split_1
I0619 10:28:22.260917 198800 net.cpp:838] inception_4a/output_inception_4a/output_0_split -> inception_4a/output_inception_4a/output_0_split_2
I0619 10:28:22.261066 198800 net.cpp:838] inception_4a/output_inception_4a/output_0_split -> inception_4a/output_inception_4a/output_0_split_3
I0619 10:28:22.261163 198800 net.cpp:838] inception_4a/output_inception_4a/output_0_split -> inception_4a/output_inception_4a/output_0_split_4
I0619 10:28:22.261319 198800 net.cpp:267] Setting up inception_4a/output_inception_4a/output_0_split
I0619 10:28:22.261390 198800 net.cpp:274] Top shape: 96 512 14 14 (9633792)
I0619 10:28:22.261464 198800 net.cpp:274] Top shape: 96 512 14 14 (9633792)
I0619 10:28:22.261502 198800 net.cpp:274] Top shape: 96 512 14 14 (9633792)
I0619 10:28:22.261543 198800 net.cpp:274] Top shape: 96 512 14 14 (9633792)
I0619 10:28:22.261581 198800 net.cpp:274] Top shape: 96 512 14 14 (9633792)
I0619 10:28:22.261611 198800 net.cpp:282] Memory required for data: 3778856448
I0619 10:28:22.261654 198800 layer_factory.hpp:114] Creating layer loss1/ave_pool
I0619 10:28:22.261780 198800 net.cpp:183] Creating Layer loss1/ave_pool
I0619 10:28:22.261857 198800 net.cpp:864] loss1/ave_pool <- inception_4a/output_inception_4a/output_0_split_0
I0619 10:28:22.261937 198800 net.cpp:838] loss1/ave_pool -> loss1/ave_pool
I0619 10:28:22.262148 198800 net.cpp:267] Setting up loss1/ave_pool
I0619 10:28:22.262218 198800 net.cpp:274] Top shape: 96 512 4 4 (786432)
I0619 10:28:22.262253 198800 net.cpp:282] Memory required for data: 3782002176
I0619 10:28:22.262290 198800 layer_factory.hpp:114] Creating layer loss1/conv
I0619 10:28:22.262468 198800 net.cpp:183] Creating Layer loss1/conv
I0619 10:28:22.262522 198800 net.cpp:864] loss1/conv <- loss1/ave_pool
I0619 10:28:22.262606 198800 net.cpp:838] loss1/conv -> loss1/conv
I0619 10:28:22.279561 198800 net.cpp:267] Setting up loss1/conv
I0619 10:28:22.279707 198800 net.cpp:274] Top shape: 96 128 4 4 (196608)
I0619 10:28:22.279764 198800 net.cpp:282] Memory required for data: 3782788608
I0619 10:28:22.279844 198800 layer_factory.hpp:114] Creating layer loss1/relu_conv
I0619 10:28:22.279954 198800 net.cpp:183] Creating Layer loss1/relu_conv
I0619 10:28:22.280012 198800 net.cpp:864] loss1/relu_conv <- loss1/conv
I0619 10:28:22.280144 198800 net.cpp:825] loss1/relu_conv -> loss1/conv (in-place)
I0619 10:28:22.280298 198800 net.cpp:267] Setting up loss1/relu_conv
I0619 10:28:22.280426 198800 net.cpp:274] Top shape: 96 128 4 4 (196608)
I0619 10:28:22.280508 198800 net.cpp:282] Memory required for data: 3783575040
I0619 10:28:22.280575 198800 layer_factory.hpp:114] Creating layer loss1/fc
I0619 10:28:22.280715 198800 net.cpp:183] Creating Layer loss1/fc
I0619 10:28:22.280796 198800 net.cpp:864] loss1/fc <- loss1/conv
I0619 10:28:22.280889 198800 net.cpp:838] loss1/fc -> loss1/fc
I0619 10:28:22.327476 198800 net.cpp:267] Setting up loss1/fc
I0619 10:28:22.327644 198800 net.cpp:274] Top shape: 96 1024 (98304)
I0619 10:28:22.327704 198800 net.cpp:282] Memory required for data: 3783968256
I0619 10:28:22.327803 198800 layer_factory.hpp:114] Creating layer loss1/relu_fc
I0619 10:28:22.327934 198800 net.cpp:183] Creating Layer loss1/relu_fc
I0619 10:28:22.328019 198800 net.cpp:864] loss1/relu_fc <- loss1/fc
I0619 10:28:22.328162 198800 net.cpp:825] loss1/relu_fc -> loss1/fc (in-place)
I0619 10:28:22.328383 198800 net.cpp:267] Setting up loss1/relu_fc
I0619 10:28:22.328538 198800 net.cpp:274] Top shape: 96 1024 (98304)
I0619 10:28:22.328652 198800 net.cpp:282] Memory required for data: 3784361472
I0619 10:28:22.328723 198800 layer_factory.hpp:114] Creating layer loss1/drop_fc
I0619 10:28:22.328878 198800 net.cpp:183] Creating Layer loss1/drop_fc
I0619 10:28:22.328979 198800 net.cpp:864] loss1/drop_fc <- loss1/fc
I0619 10:28:22.329097 198800 net.cpp:825] loss1/drop_fc -> loss1/fc (in-place)
I0619 10:28:22.329252 198800 net.cpp:267] Setting up loss1/drop_fc
I0619 10:28:22.329360 198800 net.cpp:274] Top shape: 96 1024 (98304)
I0619 10:28:22.329546 198800 net.cpp:282] Memory required for data: 3784754688
I0619 10:28:22.329653 198800 layer_factory.hpp:114] Creating layer loss1/classifier
I0619 10:28:22.329798 198800 net.cpp:183] Creating Layer loss1/classifier
I0619 10:28:22.329891 198800 net.cpp:864] loss1/classifier <- loss1/fc
I0619 10:28:22.329996 198800 net.cpp:838] loss1/classifier -> loss1/classifier
I0619 10:28:22.353577 198800 net.cpp:267] Setting up loss1/classifier
I0619 10:28:22.353723 198800 net.cpp:274] Top shape: 96 1000 (96000)
I0619 10:28:22.353772 198800 net.cpp:282] Memory required for data: 3785138688
I0619 10:28:22.353853 198800 layer_factory.hpp:114] Creating layer loss1/loss
I0619 10:28:22.353974 198800 net.cpp:183] Creating Layer loss1/loss
I0619 10:28:22.354092 198800 net.cpp:864] loss1/loss <- loss1/classifier
I0619 10:28:22.354188 198800 net.cpp:864] loss1/loss <- label_data_1_split_0
I0619 10:28:22.354296 198800 net.cpp:838] loss1/loss -> loss1/loss1
I0619 10:28:22.354444 198800 layer_factory.hpp:114] Creating layer loss1/loss
I0619 10:28:22.393718 198800 net.cpp:267] Setting up loss1/loss
I0619 10:28:22.393858 198800 net.cpp:274] Top shape: (1)
I0619 10:28:22.393925 198800 net.cpp:277]     with loss weight 0.3
I0619 10:28:22.394106 198800 net.cpp:282] Memory required for data: 3785138692
I0619 10:28:22.394201 198800 layer_factory.hpp:114] Creating layer inception_4b/1x1
I0619 10:28:22.394385 198800 net.cpp:183] Creating Layer inception_4b/1x1
I0619 10:28:22.394489 198800 net.cpp:864] inception_4b/1x1 <- inception_4a/output_inception_4a/output_0_split_1
I0619 10:28:22.394611 198800 net.cpp:838] inception_4b/1x1 -> inception_4b/1x1
I0619 10:28:22.413739 198800 net.cpp:267] Setting up inception_4b/1x1
I0619 10:28:22.413902 198800 net.cpp:274] Top shape: 96 160 14 14 (3010560)
I0619 10:28:22.413974 198800 net.cpp:282] Memory required for data: 3797180932
I0619 10:28:22.414160 198800 layer_factory.hpp:114] Creating layer inception_4b/relu_1x1
I0619 10:28:22.414379 198800 net.cpp:183] Creating Layer inception_4b/relu_1x1
I0619 10:28:22.414499 198800 net.cpp:864] inception_4b/relu_1x1 <- inception_4b/1x1
I0619 10:28:22.414618 198800 net.cpp:825] inception_4b/relu_1x1 -> inception_4b/1x1 (in-place)
I0619 10:28:22.414784 198800 net.cpp:267] Setting up inception_4b/relu_1x1
I0619 10:28:22.414890 198800 net.cpp:274] Top shape: 96 160 14 14 (3010560)
I0619 10:28:22.414960 198800 net.cpp:282] Memory required for data: 3809223172
I0619 10:28:22.415050 198800 layer_factory.hpp:114] Creating layer inception_4b/3x3_reduce
I0619 10:28:22.415292 198800 net.cpp:183] Creating Layer inception_4b/3x3_reduce
I0619 10:28:22.415400 198800 net.cpp:864] inception_4b/3x3_reduce <- inception_4a/output_inception_4a/output_0_split_2
I0619 10:28:22.415505 198800 net.cpp:838] inception_4b/3x3_reduce -> inception_4b/3x3_reduce
I0619 10:28:22.432785 198800 net.cpp:267] Setting up inception_4b/3x3_reduce
I0619 10:28:22.432961 198800 net.cpp:274] Top shape: 96 112 14 14 (2107392)
I0619 10:28:22.433037 198800 net.cpp:282] Memory required for data: 3817652740
I0619 10:28:22.433210 198800 layer_factory.hpp:114] Creating layer inception_4b/relu_3x3_reduce
I0619 10:28:22.433359 198800 net.cpp:183] Creating Layer inception_4b/relu_3x3_reduce
I0619 10:28:22.433460 198800 net.cpp:864] inception_4b/relu_3x3_reduce <- inception_4b/3x3_reduce
I0619 10:28:22.433560 198800 net.cpp:825] inception_4b/relu_3x3_reduce -> inception_4b/3x3_reduce (in-place)
I0619 10:28:22.433712 198800 net.cpp:267] Setting up inception_4b/relu_3x3_reduce
I0619 10:28:22.433804 198800 net.cpp:274] Top shape: 96 112 14 14 (2107392)
I0619 10:28:22.433847 198800 net.cpp:282] Memory required for data: 3826082308
I0619 10:28:22.433890 198800 layer_factory.hpp:114] Creating layer inception_4b/3x3
I0619 10:28:22.434012 198800 net.cpp:183] Creating Layer inception_4b/3x3
I0619 10:28:22.434094 198800 net.cpp:864] inception_4b/3x3 <- inception_4b/3x3_reduce
I0619 10:28:22.434206 198800 net.cpp:838] inception_4b/3x3 -> inception_4b/3x3
I0619 10:28:22.460842 198800 net.cpp:267] Setting up inception_4b/3x3
I0619 10:28:22.460994 198800 net.cpp:274] Top shape: 96 224 14 14 (4214784)
I0619 10:28:22.461060 198800 net.cpp:282] Memory required for data: 3842941444
I0619 10:28:22.461191 198800 layer_factory.hpp:114] Creating layer inception_4b/relu_3x3
I0619 10:28:22.461309 198800 net.cpp:183] Creating Layer inception_4b/relu_3x3
I0619 10:28:22.461383 198800 net.cpp:864] inception_4b/relu_3x3 <- inception_4b/3x3
I0619 10:28:22.461524 198800 net.cpp:825] inception_4b/relu_3x3 -> inception_4b/3x3 (in-place)
I0619 10:28:22.461722 198800 net.cpp:267] Setting up inception_4b/relu_3x3
I0619 10:28:22.461838 198800 net.cpp:274] Top shape: 96 224 14 14 (4214784)
I0619 10:28:22.461901 198800 net.cpp:282] Memory required for data: 3859800580
I0619 10:28:22.461964 198800 layer_factory.hpp:114] Creating layer inception_4b/5x5_reduce
I0619 10:28:22.462200 198800 net.cpp:183] Creating Layer inception_4b/5x5_reduce
I0619 10:28:22.462312 198800 net.cpp:864] inception_4b/5x5_reduce <- inception_4a/output_inception_4a/output_0_split_3
I0619 10:28:22.462448 198800 net.cpp:838] inception_4b/5x5_reduce -> inception_4b/5x5_reduce
I0619 10:28:22.466600 198800 net.cpp:267] Setting up inception_4b/5x5_reduce
I0619 10:28:22.466735 198800 net.cpp:274] Top shape: 96 24 14 14 (451584)
I0619 10:28:22.466784 198800 net.cpp:282] Memory required for data: 3861606916
I0619 10:28:22.466858 198800 layer_factory.hpp:114] Creating layer inception_4b/relu_5x5_reduce
I0619 10:28:22.466986 198800 net.cpp:183] Creating Layer inception_4b/relu_5x5_reduce
I0619 10:28:22.467048 198800 net.cpp:864] inception_4b/relu_5x5_reduce <- inception_4b/5x5_reduce
I0619 10:28:22.467164 198800 net.cpp:825] inception_4b/relu_5x5_reduce -> inception_4b/5x5_reduce (in-place)
I0619 10:28:22.467350 198800 net.cpp:267] Setting up inception_4b/relu_5x5_reduce
I0619 10:28:22.467420 198800 net.cpp:274] Top shape: 96 24 14 14 (451584)
I0619 10:28:22.467455 198800 net.cpp:282] Memory required for data: 3863413252
I0619 10:28:22.467497 198800 layer_factory.hpp:114] Creating layer inception_4b/5x5
I0619 10:28:22.467629 198800 net.cpp:183] Creating Layer inception_4b/5x5
I0619 10:28:22.467700 198800 net.cpp:864] inception_4b/5x5 <- inception_4b/5x5_reduce
I0619 10:28:22.467794 198800 net.cpp:838] inception_4b/5x5 -> inception_4b/5x5
I0619 10:28:22.508491 198800 net.cpp:267] Setting up inception_4b/5x5
I0619 10:28:22.508644 198800 net.cpp:274] Top shape: 96 64 14 14 (1204224)
I0619 10:28:22.508714 198800 net.cpp:282] Memory required for data: 3868230148
I0619 10:28:22.508806 198800 layer_factory.hpp:114] Creating layer inception_4b/relu_5x5
I0619 10:28:22.508929 198800 net.cpp:183] Creating Layer inception_4b/relu_5x5
I0619 10:28:22.508997 198800 net.cpp:864] inception_4b/relu_5x5 <- inception_4b/5x5
I0619 10:28:22.509104 198800 net.cpp:825] inception_4b/relu_5x5 -> inception_4b/5x5 (in-place)
I0619 10:28:22.509310 198800 net.cpp:267] Setting up inception_4b/relu_5x5
I0619 10:28:22.509454 198800 net.cpp:274] Top shape: 96 64 14 14 (1204224)
I0619 10:28:22.509539 198800 net.cpp:282] Memory required for data: 3873047044
I0619 10:28:22.509605 198800 layer_factory.hpp:114] Creating layer inception_4b/pool
I0619 10:28:22.509717 198800 net.cpp:183] Creating Layer inception_4b/pool
I0619 10:28:22.509809 198800 net.cpp:864] inception_4b/pool <- inception_4a/output_inception_4a/output_0_split_4
I0619 10:28:22.509933 198800 net.cpp:838] inception_4b/pool -> inception_4b/pool
I0619 10:28:22.510195 198800 net.cpp:267] Setting up inception_4b/pool
I0619 10:28:22.510340 198800 net.cpp:274] Top shape: 96 512 14 14 (9633792)
I0619 10:28:22.510433 198800 net.cpp:282] Memory required for data: 3911582212
I0619 10:28:22.510535 198800 layer_factory.hpp:114] Creating layer inception_4b/pool_proj
I0619 10:28:22.510725 198800 net.cpp:183] Creating Layer inception_4b/pool_proj
I0619 10:28:22.510824 198800 net.cpp:864] inception_4b/pool_proj <- inception_4b/pool
I0619 10:28:22.510913 198800 net.cpp:838] inception_4b/pool_proj -> inception_4b/pool_proj
I0619 10:28:22.525565 198800 net.cpp:267] Setting up inception_4b/pool_proj
I0619 10:28:22.525830 198800 net.cpp:274] Top shape: 96 64 14 14 (1204224)
I0619 10:28:22.525905 198800 net.cpp:282] Memory required for data: 3916399108
I0619 10:28:22.525996 198800 layer_factory.hpp:114] Creating layer inception_4b/relu_pool_proj
I0619 10:28:22.526119 198800 net.cpp:183] Creating Layer inception_4b/relu_pool_proj
I0619 10:28:22.526207 198800 net.cpp:864] inception_4b/relu_pool_proj <- inception_4b/pool_proj
I0619 10:28:22.526304 198800 net.cpp:825] inception_4b/relu_pool_proj -> inception_4b/pool_proj (in-place)
I0619 10:28:22.526460 198800 net.cpp:267] Setting up inception_4b/relu_pool_proj
I0619 10:28:22.526583 198800 net.cpp:274] Top shape: 96 64 14 14 (1204224)
I0619 10:28:22.526679 198800 net.cpp:282] Memory required for data: 3921216004
I0619 10:28:22.526772 198800 layer_factory.hpp:114] Creating layer inception_4b/output
I0619 10:28:22.526878 198800 net.cpp:183] Creating Layer inception_4b/output
I0619 10:28:22.526949 198800 net.cpp:864] inception_4b/output <- inception_4b/1x1
I0619 10:28:22.527003 198800 net.cpp:864] inception_4b/output <- inception_4b/3x3
I0619 10:28:22.527046 198800 net.cpp:864] inception_4b/output <- inception_4b/5x5
I0619 10:28:22.527735 198800 net.cpp:864] inception_4b/output <- inception_4b/pool_proj
I0619 10:28:22.527889 198800 net.cpp:838] inception_4b/output -> inception_4b/output
I0619 10:28:22.528165 198800 net.cpp:267] Setting up inception_4b/output
I0619 10:28:22.528303 198800 net.cpp:274] Top shape: 96 512 14 14 (9633792)
I0619 10:28:22.528393 198800 net.cpp:282] Memory required for data: 3959751172
I0619 10:28:22.528470 198800 layer_factory.hpp:114] Creating layer inception_4b/output_inception_4b/output_0_split
I0619 10:28:22.528605 198800 net.cpp:183] Creating Layer inception_4b/output_inception_4b/output_0_split
I0619 10:28:22.528695 198800 net.cpp:864] inception_4b/output_inception_4b/output_0_split <- inception_4b/output
I0619 10:28:22.528792 198800 net.cpp:838] inception_4b/output_inception_4b/output_0_split -> inception_4b/output_inception_4b/output_0_split_0
I0619 10:28:22.528913 198800 net.cpp:838] inception_4b/output_inception_4b/output_0_split -> inception_4b/output_inception_4b/output_0_split_1
I0619 10:28:22.529031 198800 net.cpp:838] inception_4b/output_inception_4b/output_0_split -> inception_4b/output_inception_4b/output_0_split_2
I0619 10:28:22.529188 198800 net.cpp:838] inception_4b/output_inception_4b/output_0_split -> inception_4b/output_inception_4b/output_0_split_3
I0619 10:28:22.529357 198800 net.cpp:267] Setting up inception_4b/output_inception_4b/output_0_split
I0619 10:28:22.529477 198800 net.cpp:274] Top shape: 96 512 14 14 (9633792)
I0619 10:28:22.529577 198800 net.cpp:274] Top shape: 96 512 14 14 (9633792)
I0619 10:28:22.529665 198800 net.cpp:274] Top shape: 96 512 14 14 (9633792)
I0619 10:28:22.529742 198800 net.cpp:274] Top shape: 96 512 14 14 (9633792)
I0619 10:28:22.529791 198800 net.cpp:282] Memory required for data: 4113891844
I0619 10:28:22.529850 198800 layer_factory.hpp:114] Creating layer inception_4c/1x1
I0619 10:28:22.529976 198800 net.cpp:183] Creating Layer inception_4c/1x1
I0619 10:28:22.530202 198800 net.cpp:864] inception_4c/1x1 <- inception_4b/output_inception_4b/output_0_split_0
I0619 10:28:22.530300 198800 net.cpp:838] inception_4c/1x1 -> inception_4c/1x1
I0619 10:28:22.548384 198800 net.cpp:267] Setting up inception_4c/1x1
I0619 10:28:22.548543 198800 net.cpp:274] Top shape: 96 128 14 14 (2408448)
I0619 10:28:22.548619 198800 net.cpp:282] Memory required for data: 4123525636
I0619 10:28:22.548717 198800 layer_factory.hpp:114] Creating layer inception_4c/relu_1x1
I0619 10:28:22.548844 198800 net.cpp:183] Creating Layer inception_4c/relu_1x1
I0619 10:28:22.548935 198800 net.cpp:864] inception_4c/relu_1x1 <- inception_4c/1x1
I0619 10:28:22.549048 198800 net.cpp:825] inception_4c/relu_1x1 -> inception_4c/1x1 (in-place)
I0619 10:28:22.549288 198800 net.cpp:267] Setting up inception_4c/relu_1x1
I0619 10:28:22.549428 198800 net.cpp:274] Top shape: 96 128 14 14 (2408448)
I0619 10:28:22.549650 198800 net.cpp:282] Memory required for data: 4133159428
I0619 10:28:22.549759 198800 layer_factory.hpp:114] Creating layer inception_4c/3x3_reduce
I0619 10:28:22.549957 198800 net.cpp:183] Creating Layer inception_4c/3x3_reduce
I0619 10:28:22.550045 198800 net.cpp:864] inception_4c/3x3_reduce <- inception_4b/output_inception_4b/output_0_split_1
I0619 10:28:22.550204 198800 net.cpp:838] inception_4c/3x3_reduce -> inception_4c/3x3_reduce
I0619 10:28:22.568411 198800 net.cpp:267] Setting up inception_4c/3x3_reduce
I0619 10:28:22.568573 198800 net.cpp:274] Top shape: 96 128 14 14 (2408448)
I0619 10:28:22.568635 198800 net.cpp:282] Memory required for data: 4142793220
I0619 10:28:22.568729 198800 layer_factory.hpp:114] Creating layer inception_4c/relu_3x3_reduce
I0619 10:28:22.568923 198800 net.cpp:183] Creating Layer inception_4c/relu_3x3_reduce
I0619 10:28:22.569046 198800 net.cpp:864] inception_4c/relu_3x3_reduce <- inception_4c/3x3_reduce
I0619 10:28:22.569195 198800 net.cpp:825] inception_4c/relu_3x3_reduce -> inception_4c/3x3_reduce (in-place)
I0619 10:28:22.569437 198800 net.cpp:267] Setting up inception_4c/relu_3x3_reduce
I0619 10:28:22.569572 198800 net.cpp:274] Top shape: 96 128 14 14 (2408448)
I0619 10:28:22.569641 198800 net.cpp:282] Memory required for data: 4152427012
I0619 10:28:22.569700 198800 layer_factory.hpp:114] Creating layer inception_4c/3x3
I0619 10:28:22.569893 198800 net.cpp:183] Creating Layer inception_4c/3x3
I0619 10:28:22.570005 198800 net.cpp:864] inception_4c/3x3 <- inception_4c/3x3_reduce
I0619 10:28:22.570145 198800 net.cpp:838] inception_4c/3x3 -> inception_4c/3x3
I0619 10:28:22.589943 198800 net.cpp:267] Setting up inception_4c/3x3
I0619 10:28:22.590133 198800 net.cpp:274] Top shape: 96 256 14 14 (4816896)
I0619 10:28:22.590215 198800 net.cpp:282] Memory required for data: 4171694596
I0619 10:28:22.590381 198800 layer_factory.hpp:114] Creating layer inception_4c/relu_3x3
I0619 10:28:22.590533 198800 net.cpp:183] Creating Layer inception_4c/relu_3x3
I0619 10:28:22.590642 198800 net.cpp:864] inception_4c/relu_3x3 <- inception_4c/3x3
I0619 10:28:22.590746 198800 net.cpp:825] inception_4c/relu_3x3 -> inception_4c/3x3 (in-place)
I0619 10:28:22.590975 198800 net.cpp:267] Setting up inception_4c/relu_3x3
I0619 10:28:22.591243 198800 net.cpp:274] Top shape: 96 256 14 14 (4816896)
I0619 10:28:22.591308 198800 net.cpp:282] Memory required for data: 4190962180
I0619 10:28:22.591363 198800 layer_factory.hpp:114] Creating layer inception_4c/5x5_reduce
I0619 10:28:22.591543 198800 net.cpp:183] Creating Layer inception_4c/5x5_reduce
I0619 10:28:22.591637 198800 net.cpp:864] inception_4c/5x5_reduce <- inception_4b/output_inception_4b/output_0_split_2
I0619 10:28:22.591784 198800 net.cpp:838] inception_4c/5x5_reduce -> inception_4c/5x5_reduce
I0619 10:28:22.592670 198800 net.cpp:267] Setting up inception_4c/5x5_reduce
I0619 10:28:22.592802 198800 net.cpp:274] Top shape: 96 24 14 14 (451584)
I0619 10:28:22.592849 198800 net.cpp:282] Memory required for data: 4192768516
I0619 10:28:22.592931 198800 layer_factory.hpp:114] Creating layer inception_4c/relu_5x5_reduce
I0619 10:28:22.593118 198800 net.cpp:183] Creating Layer inception_4c/relu_5x5_reduce
I0619 10:28:22.593219 198800 net.cpp:864] inception_4c/relu_5x5_reduce <- inception_4c/5x5_reduce
I0619 10:28:22.593302 198800 net.cpp:825] inception_4c/relu_5x5_reduce -> inception_4c/5x5_reduce (in-place)
I0619 10:28:22.593457 198800 net.cpp:267] Setting up inception_4c/relu_5x5_reduce
I0619 10:28:22.593605 198800 net.cpp:274] Top shape: 96 24 14 14 (451584)
I0619 10:28:22.593679 198800 net.cpp:282] Memory required for data: 4194574852
I0619 10:28:22.593753 198800 layer_factory.hpp:114] Creating layer inception_4c/5x5
I0619 10:28:22.593878 198800 net.cpp:183] Creating Layer inception_4c/5x5
I0619 10:28:22.593971 198800 net.cpp:864] inception_4c/5x5 <- inception_4c/5x5_reduce
I0619 10:28:22.594054 198800 net.cpp:838] inception_4c/5x5 -> inception_4c/5x5
I0619 10:28:22.634032 198800 net.cpp:267] Setting up inception_4c/5x5
I0619 10:28:22.634327 198800 net.cpp:274] Top shape: 96 64 14 14 (1204224)
I0619 10:28:22.634397 198800 net.cpp:282] Memory required for data: 4199391748
I0619 10:28:22.634481 198800 layer_factory.hpp:114] Creating layer inception_4c/relu_5x5
I0619 10:28:22.634591 198800 net.cpp:183] Creating Layer inception_4c/relu_5x5
I0619 10:28:22.634680 198800 net.cpp:864] inception_4c/relu_5x5 <- inception_4c/5x5
I0619 10:28:22.634760 198800 net.cpp:825] inception_4c/relu_5x5 -> inception_4c/5x5 (in-place)
I0619 10:28:22.634937 198800 net.cpp:267] Setting up inception_4c/relu_5x5
I0619 10:28:22.635119 198800 net.cpp:274] Top shape: 96 64 14 14 (1204224)
I0619 10:28:22.635184 198800 net.cpp:282] Memory required for data: 4204208644
I0619 10:28:22.635227 198800 layer_factory.hpp:114] Creating layer inception_4c/pool
I0619 10:28:22.635329 198800 net.cpp:183] Creating Layer inception_4c/pool
I0619 10:28:22.635382 198800 net.cpp:864] inception_4c/pool <- inception_4b/output_inception_4b/output_0_split_3
I0619 10:28:22.635458 198800 net.cpp:838] inception_4c/pool -> inception_4c/pool
I0619 10:28:22.635619 198800 net.cpp:267] Setting up inception_4c/pool
I0619 10:28:22.635722 198800 net.cpp:274] Top shape: 96 512 14 14 (9633792)
I0619 10:28:22.635777 198800 net.cpp:282] Memory required for data: 4242743812
I0619 10:28:22.635823 198800 layer_factory.hpp:114] Creating layer inception_4c/pool_proj
I0619 10:28:22.635957 198800 net.cpp:183] Creating Layer inception_4c/pool_proj
I0619 10:28:22.636028 198800 net.cpp:864] inception_4c/pool_proj <- inception_4c/pool
I0619 10:28:22.636178 198800 net.cpp:838] inception_4c/pool_proj -> inception_4c/pool_proj
I0619 10:28:22.650359 198800 net.cpp:267] Setting up inception_4c/pool_proj
I0619 10:28:22.650507 198800 net.cpp:274] Top shape: 96 64 14 14 (1204224)
I0619 10:28:22.650564 198800 net.cpp:282] Memory required for data: 4247560708
I0619 10:28:22.650642 198800 layer_factory.hpp:114] Creating layer inception_4c/relu_pool_proj
I0619 10:28:22.650727 198800 net.cpp:183] Creating Layer inception_4c/relu_pool_proj
I0619 10:28:22.650777 198800 net.cpp:864] inception_4c/relu_pool_proj <- inception_4c/pool_proj
I0619 10:28:22.650827 198800 net.cpp:825] inception_4c/relu_pool_proj -> inception_4c/pool_proj (in-place)
I0619 10:28:22.650933 198800 net.cpp:267] Setting up inception_4c/relu_pool_proj
I0619 10:28:22.651005 198800 net.cpp:274] Top shape: 96 64 14 14 (1204224)
I0619 10:28:22.651115 198800 net.cpp:282] Memory required for data: 4252377604
I0619 10:28:22.651176 198800 layer_factory.hpp:114] Creating layer inception_4c/output
I0619 10:28:22.651266 198800 net.cpp:183] Creating Layer inception_4c/output
I0619 10:28:22.651329 198800 net.cpp:864] inception_4c/output <- inception_4c/1x1
I0619 10:28:22.651386 198800 net.cpp:864] inception_4c/output <- inception_4c/3x3
I0619 10:28:22.651439 198800 net.cpp:864] inception_4c/output <- inception_4c/5x5
I0619 10:28:22.651479 198800 net.cpp:864] inception_4c/output <- inception_4c/pool_proj
I0619 10:28:22.651525 198800 net.cpp:838] inception_4c/output -> inception_4c/output
I0619 10:28:22.651655 198800 net.cpp:267] Setting up inception_4c/output
I0619 10:28:22.651734 198800 net.cpp:274] Top shape: 96 512 14 14 (9633792)
I0619 10:28:22.651775 198800 net.cpp:282] Memory required for data: 4290912772
I0619 10:28:22.651816 198800 layer_factory.hpp:114] Creating layer inception_4c/output_inception_4c/output_0_split
I0619 10:28:22.651881 198800 net.cpp:183] Creating Layer inception_4c/output_inception_4c/output_0_split
I0619 10:28:22.651916 198800 net.cpp:864] inception_4c/output_inception_4c/output_0_split <- inception_4c/output
I0619 10:28:22.651969 198800 net.cpp:838] inception_4c/output_inception_4c/output_0_split -> inception_4c/output_inception_4c/output_0_split_0
I0619 10:28:22.652041 198800 net.cpp:838] inception_4c/output_inception_4c/output_0_split -> inception_4c/output_inception_4c/output_0_split_1
I0619 10:28:22.652148 198800 net.cpp:838] inception_4c/output_inception_4c/output_0_split -> inception_4c/output_inception_4c/output_0_split_2
I0619 10:28:22.652204 198800 net.cpp:838] inception_4c/output_inception_4c/output_0_split -> inception_4c/output_inception_4c/output_0_split_3
I0619 10:28:22.652410 198800 net.cpp:267] Setting up inception_4c/output_inception_4c/output_0_split
I0619 10:28:22.652493 198800 net.cpp:274] Top shape: 96 512 14 14 (9633792)
I0619 10:28:22.652536 198800 net.cpp:274] Top shape: 96 512 14 14 (9633792)
I0619 10:28:22.652573 198800 net.cpp:274] Top shape: 96 512 14 14 (9633792)
I0619 10:28:22.652636 198800 net.cpp:274] Top shape: 96 512 14 14 (9633792)
I0619 10:28:22.652662 198800 net.cpp:282] Memory required for data: 4445053444
I0619 10:28:22.652698 198800 layer_factory.hpp:114] Creating layer inception_4d/1x1
I0619 10:28:22.652796 198800 net.cpp:183] Creating Layer inception_4d/1x1
I0619 10:28:22.652881 198800 net.cpp:864] inception_4d/1x1 <- inception_4c/output_inception_4c/output_0_split_0
I0619 10:28:22.652938 198800 net.cpp:838] inception_4d/1x1 -> inception_4d/1x1
I0619 10:28:22.671030 198800 net.cpp:267] Setting up inception_4d/1x1
I0619 10:28:22.671221 198800 net.cpp:274] Top shape: 96 112 14 14 (2107392)
I0619 10:28:22.671288 198800 net.cpp:282] Memory required for data: 4453483012
I0619 10:28:22.671370 198800 layer_factory.hpp:114] Creating layer inception_4d/relu_1x1
I0619 10:28:22.671485 198800 net.cpp:183] Creating Layer inception_4d/relu_1x1
I0619 10:28:22.671573 198800 net.cpp:864] inception_4d/relu_1x1 <- inception_4d/1x1
I0619 10:28:22.671656 198800 net.cpp:825] inception_4d/relu_1x1 -> inception_4d/1x1 (in-place)
I0619 10:28:22.671790 198800 net.cpp:267] Setting up inception_4d/relu_1x1
I0619 10:28:22.671859 198800 net.cpp:274] Top shape: 96 112 14 14 (2107392)
I0619 10:28:22.671902 198800 net.cpp:282] Memory required for data: 4461912580
I0619 10:28:22.671980 198800 layer_factory.hpp:114] Creating layer inception_4d/3x3_reduce
I0619 10:28:22.672194 198800 net.cpp:183] Creating Layer inception_4d/3x3_reduce
I0619 10:28:22.672310 198800 net.cpp:864] inception_4d/3x3_reduce <- inception_4c/output_inception_4c/output_0_split_1
I0619 10:28:22.672406 198800 net.cpp:838] inception_4d/3x3_reduce -> inception_4d/3x3_reduce
I0619 10:28:22.690039 198800 net.cpp:267] Setting up inception_4d/3x3_reduce
I0619 10:28:22.690310 198800 net.cpp:274] Top shape: 96 144 14 14 (2709504)
I0619 10:28:22.690383 198800 net.cpp:282] Memory required for data: 4472750596
I0619 10:28:22.690467 198800 layer_factory.hpp:114] Creating layer inception_4d/relu_3x3_reduce
I0619 10:28:22.690552 198800 net.cpp:183] Creating Layer inception_4d/relu_3x3_reduce
I0619 10:28:22.690613 198800 net.cpp:864] inception_4d/relu_3x3_reduce <- inception_4d/3x3_reduce
I0619 10:28:22.690718 198800 net.cpp:825] inception_4d/relu_3x3_reduce -> inception_4d/3x3_reduce (in-place)
I0619 10:28:22.690922 198800 net.cpp:267] Setting up inception_4d/relu_3x3_reduce
I0619 10:28:22.691040 198800 net.cpp:274] Top shape: 96 144 14 14 (2709504)
I0619 10:28:22.691169 198800 net.cpp:282] Memory required for data: 4483588612
I0619 10:28:22.691234 198800 layer_factory.hpp:114] Creating layer inception_4d/3x3
I0619 10:28:22.691390 198800 net.cpp:183] Creating Layer inception_4d/3x3
I0619 10:28:22.691454 198800 net.cpp:864] inception_4d/3x3 <- inception_4d/3x3_reduce
I0619 10:28:22.691555 198800 net.cpp:838] inception_4d/3x3 -> inception_4d/3x3
I0619 10:28:22.712380 198800 net.cpp:267] Setting up inception_4d/3x3
I0619 10:28:22.712555 198800 net.cpp:274] Top shape: 96 288 14 14 (5419008)
I0619 10:28:22.712623 198800 net.cpp:282] Memory required for data: 4505264644
I0619 10:28:22.712698 198800 layer_factory.hpp:114] Creating layer inception_4d/relu_3x3
I0619 10:28:22.712782 198800 net.cpp:183] Creating Layer inception_4d/relu_3x3
I0619 10:28:22.712833 198800 net.cpp:864] inception_4d/relu_3x3 <- inception_4d/3x3
I0619 10:28:22.712926 198800 net.cpp:825] inception_4d/relu_3x3 -> inception_4d/3x3 (in-place)
I0619 10:28:22.713142 198800 net.cpp:267] Setting up inception_4d/relu_3x3
I0619 10:28:22.713237 198800 net.cpp:274] Top shape: 96 288 14 14 (5419008)
I0619 10:28:22.713294 198800 net.cpp:282] Memory required for data: 4526940676
I0619 10:28:22.713464 198800 layer_factory.hpp:114] Creating layer inception_4d/5x5_reduce
I0619 10:28:22.713614 198800 net.cpp:183] Creating Layer inception_4d/5x5_reduce
I0619 10:28:22.713693 198800 net.cpp:864] inception_4d/5x5_reduce <- inception_4c/output_inception_4c/output_0_split_2
I0619 10:28:22.713795 198800 net.cpp:838] inception_4d/5x5_reduce -> inception_4d/5x5_reduce
I0619 10:28:22.728006 198800 net.cpp:267] Setting up inception_4d/5x5_reduce
I0619 10:28:22.728200 198800 net.cpp:274] Top shape: 96 32 14 14 (602112)
I0619 10:28:22.728268 198800 net.cpp:282] Memory required for data: 4529349124
I0619 10:28:22.728353 198800 layer_factory.hpp:114] Creating layer inception_4d/relu_5x5_reduce
I0619 10:28:22.728466 198800 net.cpp:183] Creating Layer inception_4d/relu_5x5_reduce
I0619 10:28:22.728541 198800 net.cpp:864] inception_4d/relu_5x5_reduce <- inception_4d/5x5_reduce
I0619 10:28:22.728628 198800 net.cpp:825] inception_4d/relu_5x5_reduce -> inception_4d/5x5_reduce (in-place)
I0619 10:28:22.728761 198800 net.cpp:267] Setting up inception_4d/relu_5x5_reduce
I0619 10:28:22.728837 198800 net.cpp:274] Top shape: 96 32 14 14 (602112)
I0619 10:28:22.728878 198800 net.cpp:282] Memory required for data: 4531757572
I0619 10:28:22.728914 198800 layer_factory.hpp:114] Creating layer inception_4d/5x5
I0619 10:28:22.729037 198800 net.cpp:183] Creating Layer inception_4d/5x5
I0619 10:28:22.729174 198800 net.cpp:864] inception_4d/5x5 <- inception_4d/5x5_reduce
I0619 10:28:22.729293 198800 net.cpp:838] inception_4d/5x5 -> inception_4d/5x5
I0619 10:28:22.750634 198800 net.cpp:267] Setting up inception_4d/5x5
I0619 10:28:22.750783 198800 net.cpp:274] Top shape: 96 64 14 14 (1204224)
I0619 10:28:22.750850 198800 net.cpp:282] Memory required for data: 4536574468
I0619 10:28:22.750941 198800 layer_factory.hpp:114] Creating layer inception_4d/relu_5x5
I0619 10:28:22.751060 198800 net.cpp:183] Creating Layer inception_4d/relu_5x5
I0619 10:28:22.751183 198800 net.cpp:864] inception_4d/relu_5x5 <- inception_4d/5x5
I0619 10:28:22.751273 198800 net.cpp:825] inception_4d/relu_5x5 -> inception_4d/5x5 (in-place)
I0619 10:28:22.751402 198800 net.cpp:267] Setting up inception_4d/relu_5x5
I0619 10:28:22.751482 198800 net.cpp:274] Top shape: 96 64 14 14 (1204224)
I0619 10:28:22.751538 198800 net.cpp:282] Memory required for data: 4541391364
I0619 10:28:22.751595 198800 layer_factory.hpp:114] Creating layer inception_4d/pool
I0619 10:28:22.751749 198800 net.cpp:183] Creating Layer inception_4d/pool
I0619 10:28:22.751845 198800 net.cpp:864] inception_4d/pool <- inception_4c/output_inception_4c/output_0_split_3
I0619 10:28:22.751904 198800 net.cpp:838] inception_4d/pool -> inception_4d/pool
I0619 10:28:22.752037 198800 net.cpp:267] Setting up inception_4d/pool
I0619 10:28:22.752180 198800 net.cpp:274] Top shape: 96 512 14 14 (9633792)
I0619 10:28:22.752233 198800 net.cpp:282] Memory required for data: 4579926532
I0619 10:28:22.752277 198800 layer_factory.hpp:114] Creating layer inception_4d/pool_proj
I0619 10:28:22.752404 198800 net.cpp:183] Creating Layer inception_4d/pool_proj
I0619 10:28:22.752472 198800 net.cpp:864] inception_4d/pool_proj <- inception_4d/pool
I0619 10:28:22.752573 198800 net.cpp:838] inception_4d/pool_proj -> inception_4d/pool_proj
I0619 10:28:22.767678 198800 net.cpp:267] Setting up inception_4d/pool_proj
I0619 10:28:22.767827 198800 net.cpp:274] Top shape: 96 64 14 14 (1204224)
I0619 10:28:22.767890 198800 net.cpp:282] Memory required for data: 4584743428
I0619 10:28:22.767976 198800 layer_factory.hpp:114] Creating layer inception_4d/relu_pool_proj
I0619 10:28:22.768127 198800 net.cpp:183] Creating Layer inception_4d/relu_pool_proj
I0619 10:28:22.768215 198800 net.cpp:864] inception_4d/relu_pool_proj <- inception_4d/pool_proj
I0619 10:28:22.768303 198800 net.cpp:825] inception_4d/relu_pool_proj -> inception_4d/pool_proj (in-place)
I0619 10:28:22.768438 198800 net.cpp:267] Setting up inception_4d/relu_pool_proj
I0619 10:28:22.768519 198800 net.cpp:274] Top shape: 96 64 14 14 (1204224)
I0619 10:28:22.768573 198800 net.cpp:282] Memory required for data: 4589560324
I0619 10:28:22.768784 198800 layer_factory.hpp:114] Creating layer inception_4d/output
I0619 10:28:22.768959 198800 net.cpp:183] Creating Layer inception_4d/output
I0619 10:28:22.769019 198800 net.cpp:864] inception_4d/output <- inception_4d/1x1
I0619 10:28:22.769103 198800 net.cpp:864] inception_4d/output <- inception_4d/3x3
I0619 10:28:22.769170 198800 net.cpp:864] inception_4d/output <- inception_4d/5x5
I0619 10:28:22.769217 198800 net.cpp:864] inception_4d/output <- inception_4d/pool_proj
I0619 10:28:22.769269 198800 net.cpp:838] inception_4d/output -> inception_4d/output
I0619 10:28:22.769453 198800 net.cpp:267] Setting up inception_4d/output
I0619 10:28:22.769537 198800 net.cpp:274] Top shape: 96 528 14 14 (9934848)
I0619 10:28:22.769583 198800 net.cpp:282] Memory required for data: 4629299716
I0619 10:28:22.769629 198800 layer_factory.hpp:114] Creating layer inception_4d/output_inception_4d/output_0_split
I0619 10:28:22.769717 198800 net.cpp:183] Creating Layer inception_4d/output_inception_4d/output_0_split
I0619 10:28:22.769763 198800 net.cpp:864] inception_4d/output_inception_4d/output_0_split <- inception_4d/output
I0619 10:28:22.769816 198800 net.cpp:838] inception_4d/output_inception_4d/output_0_split -> inception_4d/output_inception_4d/output_0_split_0
I0619 10:28:22.769884 198800 net.cpp:838] inception_4d/output_inception_4d/output_0_split -> inception_4d/output_inception_4d/output_0_split_1
I0619 10:28:22.769946 198800 net.cpp:838] inception_4d/output_inception_4d/output_0_split -> inception_4d/output_inception_4d/output_0_split_2
I0619 10:28:22.769994 198800 net.cpp:838] inception_4d/output_inception_4d/output_0_split -> inception_4d/output_inception_4d/output_0_split_3
I0619 10:28:22.770040 198800 net.cpp:838] inception_4d/output_inception_4d/output_0_split -> inception_4d/output_inception_4d/output_0_split_4
I0619 10:28:22.770211 198800 net.cpp:267] Setting up inception_4d/output_inception_4d/output_0_split
I0619 10:28:22.770300 198800 net.cpp:274] Top shape: 96 528 14 14 (9934848)
I0619 10:28:22.770354 198800 net.cpp:274] Top shape: 96 528 14 14 (9934848)
I0619 10:28:22.770392 198800 net.cpp:274] Top shape: 96 528 14 14 (9934848)
I0619 10:28:22.770431 198800 net.cpp:274] Top shape: 96 528 14 14 (9934848)
I0619 10:28:22.770469 198800 net.cpp:274] Top shape: 96 528 14 14 (9934848)
I0619 10:28:22.770499 198800 net.cpp:282] Memory required for data: 4827996676
I0619 10:28:22.770541 198800 layer_factory.hpp:114] Creating layer loss2/ave_pool
I0619 10:28:22.770644 198800 net.cpp:183] Creating Layer loss2/ave_pool
I0619 10:28:22.770704 198800 net.cpp:864] loss2/ave_pool <- inception_4d/output_inception_4d/output_0_split_0
I0619 10:28:22.770776 198800 net.cpp:838] loss2/ave_pool -> loss2/ave_pool
I0619 10:28:22.770885 198800 net.cpp:267] Setting up loss2/ave_pool
I0619 10:28:22.770941 198800 net.cpp:274] Top shape: 96 528 4 4 (811008)
I0619 10:28:22.770977 198800 net.cpp:282] Memory required for data: 4831240708
I0619 10:28:22.771018 198800 layer_factory.hpp:114] Creating layer loss2/conv
I0619 10:28:22.771206 198800 net.cpp:183] Creating Layer loss2/conv
I0619 10:28:22.771275 198800 net.cpp:864] loss2/conv <- loss2/ave_pool
I0619 10:28:22.771384 198800 net.cpp:838] loss2/conv -> loss2/conv
I0619 10:28:22.787622 198800 net.cpp:267] Setting up loss2/conv
I0619 10:28:22.787770 198800 net.cpp:274] Top shape: 96 128 4 4 (196608)
I0619 10:28:22.787827 198800 net.cpp:282] Memory required for data: 4832027140
I0619 10:28:22.787912 198800 layer_factory.hpp:114] Creating layer loss2/relu_conv
I0619 10:28:22.788002 198800 net.cpp:183] Creating Layer loss2/relu_conv
I0619 10:28:22.788054 198800 net.cpp:864] loss2/relu_conv <- loss2/conv
I0619 10:28:22.788194 198800 net.cpp:825] loss2/relu_conv -> loss2/conv (in-place)
I0619 10:28:22.788317 198800 net.cpp:267] Setting up loss2/relu_conv
I0619 10:28:22.788383 198800 net.cpp:274] Top shape: 96 128 4 4 (196608)
I0619 10:28:22.788414 198800 net.cpp:282] Memory required for data: 4832813572
I0619 10:28:22.788451 198800 layer_factory.hpp:114] Creating layer loss2/fc
I0619 10:28:22.788679 198800 net.cpp:183] Creating Layer loss2/fc
I0619 10:28:22.788756 198800 net.cpp:864] loss2/fc <- loss2/conv
I0619 10:28:22.788836 198800 net.cpp:838] loss2/fc -> loss2/fc
I0619 10:28:22.835180 198800 net.cpp:267] Setting up loss2/fc
I0619 10:28:22.835312 198800 net.cpp:274] Top shape: 96 1024 (98304)
I0619 10:28:22.835350 198800 net.cpp:282] Memory required for data: 4833206788
I0619 10:28:22.835412 198800 layer_factory.hpp:114] Creating layer loss2/relu_fc
I0619 10:28:22.835510 198800 net.cpp:183] Creating Layer loss2/relu_fc
I0619 10:28:22.835561 198800 net.cpp:864] loss2/relu_fc <- loss2/fc
I0619 10:28:22.835605 198800 net.cpp:825] loss2/relu_fc -> loss2/fc (in-place)
I0619 10:28:22.835736 198800 net.cpp:267] Setting up loss2/relu_fc
I0619 10:28:22.835839 198800 net.cpp:274] Top shape: 96 1024 (98304)
I0619 10:28:22.835878 198800 net.cpp:282] Memory required for data: 4833600004
I0619 10:28:22.835919 198800 layer_factory.hpp:114] Creating layer loss2/drop_fc
I0619 10:28:22.836019 198800 net.cpp:183] Creating Layer loss2/drop_fc
I0619 10:28:22.836060 198800 net.cpp:864] loss2/drop_fc <- loss2/fc
I0619 10:28:22.836175 198800 net.cpp:825] loss2/drop_fc -> loss2/fc (in-place)
I0619 10:28:22.836259 198800 net.cpp:267] Setting up loss2/drop_fc
I0619 10:28:22.836323 198800 net.cpp:274] Top shape: 96 1024 (98304)
I0619 10:28:22.836355 198800 net.cpp:282] Memory required for data: 4833993220
I0619 10:28:22.836397 198800 layer_factory.hpp:114] Creating layer loss2/classifier
I0619 10:28:22.836474 198800 net.cpp:183] Creating Layer loss2/classifier
I0619 10:28:22.836539 198800 net.cpp:864] loss2/classifier <- loss2/fc
I0619 10:28:22.836653 198800 net.cpp:838] loss2/classifier -> loss2/classifier
I0619 10:28:22.860350 198800 net.cpp:267] Setting up loss2/classifier
I0619 10:28:22.860499 198800 net.cpp:274] Top shape: 96 1000 (96000)
I0619 10:28:22.860553 198800 net.cpp:282] Memory required for data: 4834377220
I0619 10:28:22.860635 198800 layer_factory.hpp:114] Creating layer loss2/loss
I0619 10:28:22.860731 198800 net.cpp:183] Creating Layer loss2/loss
I0619 10:28:22.860806 198800 net.cpp:864] loss2/loss <- loss2/classifier
I0619 10:28:22.860865 198800 net.cpp:864] loss2/loss <- label_data_1_split_1
I0619 10:28:22.860936 198800 net.cpp:838] loss2/loss -> loss2/loss1
I0619 10:28:22.861104 198800 layer_factory.hpp:114] Creating layer loss2/loss
I0619 10:28:22.862282 198800 net.cpp:267] Setting up loss2/loss
I0619 10:28:22.862424 198800 net.cpp:274] Top shape: (1)
I0619 10:28:22.862474 198800 net.cpp:277]     with loss weight 0.3
I0619 10:28:22.862560 198800 net.cpp:282] Memory required for data: 4834377224
I0619 10:28:22.862632 198800 layer_factory.hpp:114] Creating layer inception_4e/1x1
I0619 10:28:22.862838 198800 net.cpp:183] Creating Layer inception_4e/1x1
I0619 10:28:22.862932 198800 net.cpp:864] inception_4e/1x1 <- inception_4d/output_inception_4d/output_0_split_1
I0619 10:28:22.863056 198800 net.cpp:838] inception_4e/1x1 -> inception_4e/1x1
I0619 10:28:22.884284 198800 net.cpp:267] Setting up inception_4e/1x1
I0619 10:28:22.884449 198800 net.cpp:274] Top shape: 96 256 14 14 (4816896)
I0619 10:28:22.884524 198800 net.cpp:282] Memory required for data: 4853644808
I0619 10:28:22.884671 198800 layer_factory.hpp:114] Creating layer inception_4e/relu_1x1
I0619 10:28:22.884840 198800 net.cpp:183] Creating Layer inception_4e/relu_1x1
I0619 10:28:22.884941 198800 net.cpp:864] inception_4e/relu_1x1 <- inception_4e/1x1
I0619 10:28:22.885126 198800 net.cpp:825] inception_4e/relu_1x1 -> inception_4e/1x1 (in-place)
I0619 10:28:22.885363 198800 net.cpp:267] Setting up inception_4e/relu_1x1
I0619 10:28:22.885488 198800 net.cpp:274] Top shape: 96 256 14 14 (4816896)
I0619 10:28:22.885584 198800 net.cpp:282] Memory required for data: 4872912392
I0619 10:28:22.885673 198800 layer_factory.hpp:114] Creating layer inception_4e/3x3_reduce
I0619 10:28:22.885931 198800 net.cpp:183] Creating Layer inception_4e/3x3_reduce
I0619 10:28:22.886045 198800 net.cpp:864] inception_4e/3x3_reduce <- inception_4d/output_inception_4d/output_0_split_2
I0619 10:28:22.886390 198800 net.cpp:838] inception_4e/3x3_reduce -> inception_4e/3x3_reduce
I0619 10:28:22.905781 198800 net.cpp:267] Setting up inception_4e/3x3_reduce
I0619 10:28:22.905949 198800 net.cpp:274] Top shape: 96 160 14 14 (3010560)
I0619 10:28:22.906028 198800 net.cpp:282] Memory required for data: 4884954632
I0619 10:28:22.906186 198800 layer_factory.hpp:114] Creating layer inception_4e/relu_3x3_reduce
I0619 10:28:22.906400 198800 net.cpp:183] Creating Layer inception_4e/relu_3x3_reduce
I0619 10:28:22.906544 198800 net.cpp:864] inception_4e/relu_3x3_reduce <- inception_4e/3x3_reduce
I0619 10:28:22.906682 198800 net.cpp:825] inception_4e/relu_3x3_reduce -> inception_4e/3x3_reduce (in-place)
I0619 10:28:22.906955 198800 net.cpp:267] Setting up inception_4e/relu_3x3_reduce
I0619 10:28:22.907136 198800 net.cpp:274] Top shape: 96 160 14 14 (3010560)
I0619 10:28:22.907403 198800 net.cpp:282] Memory required for data: 4896996872
I0619 10:28:22.907495 198800 layer_factory.hpp:114] Creating layer inception_4e/3x3
I0619 10:28:22.907668 198800 net.cpp:183] Creating Layer inception_4e/3x3
I0619 10:28:22.907744 198800 net.cpp:864] inception_4e/3x3 <- inception_4e/3x3_reduce
I0619 10:28:22.907863 198800 net.cpp:838] inception_4e/3x3 -> inception_4e/3x3
I0619 10:28:22.931831 198800 net.cpp:267] Setting up inception_4e/3x3
I0619 10:28:22.931987 198800 net.cpp:274] Top shape: 96 320 14 14 (6021120)
I0619 10:28:22.932049 198800 net.cpp:282] Memory required for data: 4921081352
I0619 10:28:22.932209 198800 layer_factory.hpp:114] Creating layer inception_4e/relu_3x3
I0619 10:28:22.932400 198800 net.cpp:183] Creating Layer inception_4e/relu_3x3
I0619 10:28:22.932512 198800 net.cpp:864] inception_4e/relu_3x3 <- inception_4e/3x3
I0619 10:28:22.932605 198800 net.cpp:825] inception_4e/relu_3x3 -> inception_4e/3x3 (in-place)
I0619 10:28:22.932755 198800 net.cpp:267] Setting up inception_4e/relu_3x3
I0619 10:28:22.932868 198800 net.cpp:274] Top shape: 96 320 14 14 (6021120)
I0619 10:28:22.932940 198800 net.cpp:282] Memory required for data: 4945165832
I0619 10:28:22.932999 198800 layer_factory.hpp:114] Creating layer inception_4e/5x5_reduce
I0619 10:28:22.933248 198800 net.cpp:183] Creating Layer inception_4e/5x5_reduce
I0619 10:28:22.933373 198800 net.cpp:864] inception_4e/5x5_reduce <- inception_4d/output_inception_4d/output_0_split_3
I0619 10:28:22.933523 198800 net.cpp:838] inception_4e/5x5_reduce -> inception_4e/5x5_reduce
I0619 10:28:22.947636 198800 net.cpp:267] Setting up inception_4e/5x5_reduce
I0619 10:28:22.947795 198800 net.cpp:274] Top shape: 96 32 14 14 (602112)
I0619 10:28:22.947866 198800 net.cpp:282] Memory required for data: 4947574280
I0619 10:28:22.948009 198800 layer_factory.hpp:114] Creating layer inception_4e/relu_5x5_reduce
I0619 10:28:22.948210 198800 net.cpp:183] Creating Layer inception_4e/relu_5x5_reduce
I0619 10:28:22.948321 198800 net.cpp:864] inception_4e/relu_5x5_reduce <- inception_4e/5x5_reduce
I0619 10:28:22.948446 198800 net.cpp:825] inception_4e/relu_5x5_reduce -> inception_4e/5x5_reduce (in-place)
I0619 10:28:22.948679 198800 net.cpp:267] Setting up inception_4e/relu_5x5_reduce
I0619 10:28:22.948824 198800 net.cpp:274] Top shape: 96 32 14 14 (602112)
I0619 10:28:22.948917 198800 net.cpp:282] Memory required for data: 4949982728
I0619 10:28:22.949007 198800 layer_factory.hpp:114] Creating layer inception_4e/5x5
I0619 10:28:22.949321 198800 net.cpp:183] Creating Layer inception_4e/5x5
I0619 10:28:22.949452 198800 net.cpp:864] inception_4e/5x5 <- inception_4e/5x5_reduce
I0619 10:28:22.949591 198800 net.cpp:838] inception_4e/5x5 -> inception_4e/5x5
I0619 10:28:22.972658 198800 net.cpp:267] Setting up inception_4e/5x5
I0619 10:28:22.972823 198800 net.cpp:274] Top shape: 96 128 14 14 (2408448)
I0619 10:28:22.972899 198800 net.cpp:282] Memory required for data: 4959616520
I0619 10:28:22.973059 198800 layer_factory.hpp:114] Creating layer inception_4e/relu_5x5
I0619 10:28:22.973312 198800 net.cpp:183] Creating Layer inception_4e/relu_5x5
I0619 10:28:22.973567 198800 net.cpp:864] inception_4e/relu_5x5 <- inception_4e/5x5
I0619 10:28:22.973708 198800 net.cpp:825] inception_4e/relu_5x5 -> inception_4e/5x5 (in-place)
I0619 10:28:22.973918 198800 net.cpp:267] Setting up inception_4e/relu_5x5
I0619 10:28:22.974113 198800 net.cpp:274] Top shape: 96 128 14 14 (2408448)
I0619 10:28:22.974246 198800 net.cpp:282] Memory required for data: 4969250312
I0619 10:28:22.974341 198800 layer_factory.hpp:114] Creating layer inception_4e/pool
I0619 10:28:22.974503 198800 net.cpp:183] Creating Layer inception_4e/pool
I0619 10:28:22.974627 198800 net.cpp:864] inception_4e/pool <- inception_4d/output_inception_4d/output_0_split_4
I0619 10:28:22.974808 198800 net.cpp:838] inception_4e/pool -> inception_4e/pool
I0619 10:28:22.975112 198800 net.cpp:267] Setting up inception_4e/pool
I0619 10:28:22.975258 198800 net.cpp:274] Top shape: 96 528 14 14 (9934848)
I0619 10:28:22.975342 198800 net.cpp:282] Memory required for data: 5008989704
I0619 10:28:22.975415 198800 layer_factory.hpp:114] Creating layer inception_4e/pool_proj
I0619 10:28:22.975612 198800 net.cpp:183] Creating Layer inception_4e/pool_proj
I0619 10:28:22.975713 198800 net.cpp:864] inception_4e/pool_proj <- inception_4e/pool
I0619 10:28:22.975829 198800 net.cpp:838] inception_4e/pool_proj -> inception_4e/pool_proj
I0619 10:28:22.992905 198800 net.cpp:267] Setting up inception_4e/pool_proj
I0619 10:28:22.993064 198800 net.cpp:274] Top shape: 96 128 14 14 (2408448)
I0619 10:28:22.993181 198800 net.cpp:282] Memory required for data: 5018623496
I0619 10:28:22.993335 198800 layer_factory.hpp:114] Creating layer inception_4e/relu_pool_proj
I0619 10:28:22.993523 198800 net.cpp:183] Creating Layer inception_4e/relu_pool_proj
I0619 10:28:22.993630 198800 net.cpp:864] inception_4e/relu_pool_proj <- inception_4e/pool_proj
I0619 10:28:22.993778 198800 net.cpp:825] inception_4e/relu_pool_proj -> inception_4e/pool_proj (in-place)
I0619 10:28:22.993963 198800 net.cpp:267] Setting up inception_4e/relu_pool_proj
I0619 10:28:22.994122 198800 net.cpp:274] Top shape: 96 128 14 14 (2408448)
I0619 10:28:22.994215 198800 net.cpp:282] Memory required for data: 5028257288
I0619 10:28:22.994329 198800 layer_factory.hpp:114] Creating layer inception_4e/output
I0619 10:28:22.994532 198800 net.cpp:183] Creating Layer inception_4e/output
I0619 10:28:22.994645 198800 net.cpp:864] inception_4e/output <- inception_4e/1x1
I0619 10:28:22.994753 198800 net.cpp:864] inception_4e/output <- inception_4e/3x3
I0619 10:28:22.994845 198800 net.cpp:864] inception_4e/output <- inception_4e/5x5
I0619 10:28:22.994938 198800 net.cpp:864] inception_4e/output <- inception_4e/pool_proj
I0619 10:28:22.995100 198800 net.cpp:838] inception_4e/output -> inception_4e/output
I0619 10:28:22.995416 198800 net.cpp:267] Setting up inception_4e/output
I0619 10:28:22.995545 198800 net.cpp:274] Top shape: 96 832 14 14 (15654912)
I0619 10:28:22.995618 198800 net.cpp:282] Memory required for data: 5090876936
I0619 10:28:22.995692 198800 layer_factory.hpp:114] Creating layer pool4/3x3_s2
I0619 10:28:22.995847 198800 net.cpp:183] Creating Layer pool4/3x3_s2
I0619 10:28:22.995929 198800 net.cpp:864] pool4/3x3_s2 <- inception_4e/output
I0619 10:28:22.996026 198800 net.cpp:838] pool4/3x3_s2 -> pool4/3x3_s2
I0619 10:28:22.996273 198800 net.cpp:267] Setting up pool4/3x3_s2
I0619 10:28:22.996378 198800 net.cpp:274] Top shape: 96 832 7 7 (3913728)
I0619 10:28:22.996441 198800 net.cpp:282] Memory required for data: 5106531848
I0619 10:28:22.996531 198800 layer_factory.hpp:114] Creating layer pool4/3x3_s2_pool4/3x3_s2_0_split
I0619 10:28:22.996639 198800 net.cpp:183] Creating Layer pool4/3x3_s2_pool4/3x3_s2_0_split
I0619 10:28:22.996712 198800 net.cpp:864] pool4/3x3_s2_pool4/3x3_s2_0_split <- pool4/3x3_s2
I0619 10:28:22.996785 198800 net.cpp:838] pool4/3x3_s2_pool4/3x3_s2_0_split -> pool4/3x3_s2_pool4/3x3_s2_0_split_0
I0619 10:28:22.997035 198800 net.cpp:838] pool4/3x3_s2_pool4/3x3_s2_0_split -> pool4/3x3_s2_pool4/3x3_s2_0_split_1
I0619 10:28:22.997310 198800 net.cpp:838] pool4/3x3_s2_pool4/3x3_s2_0_split -> pool4/3x3_s2_pool4/3x3_s2_0_split_2
I0619 10:28:22.997529 198800 net.cpp:838] pool4/3x3_s2_pool4/3x3_s2_0_split -> pool4/3x3_s2_pool4/3x3_s2_0_split_3
I0619 10:28:22.997695 198800 net.cpp:267] Setting up pool4/3x3_s2_pool4/3x3_s2_0_split
I0619 10:28:22.997781 198800 net.cpp:274] Top shape: 96 832 7 7 (3913728)
I0619 10:28:22.997836 198800 net.cpp:274] Top shape: 96 832 7 7 (3913728)
I0619 10:28:22.997891 198800 net.cpp:274] Top shape: 96 832 7 7 (3913728)
I0619 10:28:22.997943 198800 net.cpp:274] Top shape: 96 832 7 7 (3913728)
I0619 10:28:22.997982 198800 net.cpp:282] Memory required for data: 5169151496
I0619 10:28:22.998030 198800 layer_factory.hpp:114] Creating layer inception_5a/1x1
I0619 10:28:22.998201 198800 net.cpp:183] Creating Layer inception_5a/1x1
I0619 10:28:22.998271 198800 net.cpp:864] inception_5a/1x1 <- pool4/3x3_s2_pool4/3x3_s2_0_split_0
I0619 10:28:22.998347 198800 net.cpp:838] inception_5a/1x1 -> inception_5a/1x1
I0619 10:28:23.022146 198800 net.cpp:267] Setting up inception_5a/1x1
I0619 10:28:23.022305 198800 net.cpp:274] Top shape: 96 256 7 7 (1204224)
I0619 10:28:23.022370 198800 net.cpp:282] Memory required for data: 5173968392
I0619 10:28:23.022464 198800 layer_factory.hpp:114] Creating layer inception_5a/relu_1x1
I0619 10:28:23.022555 198800 net.cpp:183] Creating Layer inception_5a/relu_1x1
I0619 10:28:23.022625 198800 net.cpp:864] inception_5a/relu_1x1 <- inception_5a/1x1
I0619 10:28:23.022733 198800 net.cpp:825] inception_5a/relu_1x1 -> inception_5a/1x1 (in-place)
I0619 10:28:23.022898 198800 net.cpp:267] Setting up inception_5a/relu_1x1
I0619 10:28:23.022979 198800 net.cpp:274] Top shape: 96 256 7 7 (1204224)
I0619 10:28:23.023015 198800 net.cpp:282] Memory required for data: 5178785288
I0619 10:28:23.023097 198800 layer_factory.hpp:114] Creating layer inception_5a/3x3_reduce
I0619 10:28:23.023315 198800 net.cpp:183] Creating Layer inception_5a/3x3_reduce
I0619 10:28:23.023438 198800 net.cpp:864] inception_5a/3x3_reduce <- pool4/3x3_s2_pool4/3x3_s2_0_split_1
I0619 10:28:23.023596 198800 net.cpp:838] inception_5a/3x3_reduce -> inception_5a/3x3_reduce
I0619 10:28:23.044270 198800 net.cpp:267] Setting up inception_5a/3x3_reduce
I0619 10:28:23.044435 198800 net.cpp:274] Top shape: 96 160 7 7 (752640)
I0619 10:28:23.044517 198800 net.cpp:282] Memory required for data: 5181795848
I0619 10:28:23.044625 198800 layer_factory.hpp:114] Creating layer inception_5a/relu_3x3_reduce
I0619 10:28:23.044764 198800 net.cpp:183] Creating Layer inception_5a/relu_3x3_reduce
I0619 10:28:23.044863 198800 net.cpp:864] inception_5a/relu_3x3_reduce <- inception_5a/3x3_reduce
I0619 10:28:23.045008 198800 net.cpp:825] inception_5a/relu_3x3_reduce -> inception_5a/3x3_reduce (in-place)
I0619 10:28:23.045292 198800 net.cpp:267] Setting up inception_5a/relu_3x3_reduce
I0619 10:28:23.045428 198800 net.cpp:274] Top shape: 96 160 7 7 (752640)
I0619 10:28:23.045514 198800 net.cpp:282] Memory required for data: 5184806408
I0619 10:28:23.045600 198800 layer_factory.hpp:114] Creating layer inception_5a/3x3
I0619 10:28:23.045804 198800 net.cpp:183] Creating Layer inception_5a/3x3
I0619 10:28:23.045897 198800 net.cpp:864] inception_5a/3x3 <- inception_5a/3x3_reduce
I0619 10:28:23.046017 198800 net.cpp:838] inception_5a/3x3 -> inception_5a/3x3
I0619 10:28:23.069063 198800 net.cpp:267] Setting up inception_5a/3x3
I0619 10:28:23.069265 198800 net.cpp:274] Top shape: 96 320 7 7 (1505280)
I0619 10:28:23.069332 198800 net.cpp:282] Memory required for data: 5190827528
I0619 10:28:23.069444 198800 layer_factory.hpp:114] Creating layer inception_5a/relu_3x3
I0619 10:28:23.069591 198800 net.cpp:183] Creating Layer inception_5a/relu_3x3
I0619 10:28:23.069665 198800 net.cpp:864] inception_5a/relu_3x3 <- inception_5a/3x3
I0619 10:28:23.069736 198800 net.cpp:825] inception_5a/relu_3x3 -> inception_5a/3x3 (in-place)
I0619 10:28:23.069856 198800 net.cpp:267] Setting up inception_5a/relu_3x3
I0619 10:28:23.069962 198800 net.cpp:274] Top shape: 96 320 7 7 (1505280)
I0619 10:28:23.070003 198800 net.cpp:282] Memory required for data: 5196848648
I0619 10:28:23.070217 198800 layer_factory.hpp:114] Creating layer inception_5a/5x5_reduce
I0619 10:28:23.070384 198800 net.cpp:183] Creating Layer inception_5a/5x5_reduce
I0619 10:28:23.070456 198800 net.cpp:864] inception_5a/5x5_reduce <- pool4/3x3_s2_pool4/3x3_s2_0_split_2
I0619 10:28:23.070536 198800 net.cpp:838] inception_5a/5x5_reduce -> inception_5a/5x5_reduce
I0619 10:28:23.084972 198800 net.cpp:267] Setting up inception_5a/5x5_reduce
I0619 10:28:23.085183 198800 net.cpp:274] Top shape: 96 32 7 7 (150528)
I0619 10:28:23.085264 198800 net.cpp:282] Memory required for data: 5197450760
I0619 10:28:23.085341 198800 layer_factory.hpp:114] Creating layer inception_5a/relu_5x5_reduce
I0619 10:28:23.085424 198800 net.cpp:183] Creating Layer inception_5a/relu_5x5_reduce
I0619 10:28:23.085497 198800 net.cpp:864] inception_5a/relu_5x5_reduce <- inception_5a/5x5_reduce
I0619 10:28:23.085599 198800 net.cpp:825] inception_5a/relu_5x5_reduce -> inception_5a/5x5_reduce (in-place)
I0619 10:28:23.085786 198800 net.cpp:267] Setting up inception_5a/relu_5x5_reduce
I0619 10:28:23.085903 198800 net.cpp:274] Top shape: 96 32 7 7 (150528)
I0619 10:28:23.085979 198800 net.cpp:282] Memory required for data: 5198052872
I0619 10:28:23.086024 198800 layer_factory.hpp:114] Creating layer inception_5a/5x5
I0619 10:28:23.086257 198800 net.cpp:183] Creating Layer inception_5a/5x5
I0619 10:28:23.086344 198800 net.cpp:864] inception_5a/5x5 <- inception_5a/5x5_reduce
I0619 10:28:23.086436 198800 net.cpp:838] inception_5a/5x5 -> inception_5a/5x5
I0619 10:28:23.107463 198800 net.cpp:267] Setting up inception_5a/5x5
I0619 10:28:23.107611 198800 net.cpp:274] Top shape: 96 128 7 7 (602112)
I0619 10:28:23.107673 198800 net.cpp:282] Memory required for data: 5200461320
I0619 10:28:23.107760 198800 layer_factory.hpp:114] Creating layer inception_5a/relu_5x5
I0619 10:28:23.107874 198800 net.cpp:183] Creating Layer inception_5a/relu_5x5
I0619 10:28:23.107942 198800 net.cpp:864] inception_5a/relu_5x5 <- inception_5a/5x5
I0619 10:28:23.108019 198800 net.cpp:825] inception_5a/relu_5x5 -> inception_5a/5x5 (in-place)
I0619 10:28:23.108229 198800 net.cpp:267] Setting up inception_5a/relu_5x5
I0619 10:28:23.108320 198800 net.cpp:274] Top shape: 96 128 7 7 (602112)
I0619 10:28:23.108371 198800 net.cpp:282] Memory required for data: 5202869768
I0619 10:28:23.108413 198800 layer_factory.hpp:114] Creating layer inception_5a/pool
I0619 10:28:23.108489 198800 net.cpp:183] Creating Layer inception_5a/pool
I0619 10:28:23.108533 198800 net.cpp:864] inception_5a/pool <- pool4/3x3_s2_pool4/3x3_s2_0_split_3
I0619 10:28:23.108621 198800 net.cpp:838] inception_5a/pool -> inception_5a/pool
I0619 10:28:23.108793 198800 net.cpp:267] Setting up inception_5a/pool
I0619 10:28:23.108870 198800 net.cpp:274] Top shape: 96 832 7 7 (3913728)
I0619 10:28:23.108911 198800 net.cpp:282] Memory required for data: 5218524680
I0619 10:28:23.108964 198800 layer_factory.hpp:114] Creating layer inception_5a/pool_proj
I0619 10:28:23.109153 198800 net.cpp:183] Creating Layer inception_5a/pool_proj
I0619 10:28:23.109225 198800 net.cpp:864] inception_5a/pool_proj <- inception_5a/pool
I0619 10:28:23.109341 198800 net.cpp:838] inception_5a/pool_proj -> inception_5a/pool_proj
I0619 10:28:23.128173 198800 net.cpp:267] Setting up inception_5a/pool_proj
I0619 10:28:23.128320 198800 net.cpp:274] Top shape: 96 128 7 7 (602112)
I0619 10:28:23.128382 198800 net.cpp:282] Memory required for data: 5220933128
I0619 10:28:23.128465 198800 layer_factory.hpp:114] Creating layer inception_5a/relu_pool_proj
I0619 10:28:23.128582 198800 net.cpp:183] Creating Layer inception_5a/relu_pool_proj
I0619 10:28:23.128650 198800 net.cpp:864] inception_5a/relu_pool_proj <- inception_5a/pool_proj
I0619 10:28:23.128731 198800 net.cpp:825] inception_5a/relu_pool_proj -> inception_5a/pool_proj (in-place)
I0619 10:28:23.128901 198800 net.cpp:267] Setting up inception_5a/relu_pool_proj
I0619 10:28:23.128986 198800 net.cpp:274] Top shape: 96 128 7 7 (602112)
I0619 10:28:23.129065 198800 net.cpp:282] Memory required for data: 5223341576
I0619 10:28:23.129300 198800 layer_factory.hpp:114] Creating layer inception_5a/output
I0619 10:28:23.129423 198800 net.cpp:183] Creating Layer inception_5a/output
I0619 10:28:23.129485 198800 net.cpp:864] inception_5a/output <- inception_5a/1x1
I0619 10:28:23.129550 198800 net.cpp:864] inception_5a/output <- inception_5a/3x3
I0619 10:28:23.129611 198800 net.cpp:864] inception_5a/output <- inception_5a/5x5
I0619 10:28:23.129663 198800 net.cpp:864] inception_5a/output <- inception_5a/pool_proj
I0619 10:28:23.129717 198800 net.cpp:838] inception_5a/output -> inception_5a/output
I0619 10:28:23.129907 198800 net.cpp:267] Setting up inception_5a/output
I0619 10:28:23.129999 198800 net.cpp:274] Top shape: 96 832 7 7 (3913728)
I0619 10:28:23.130039 198800 net.cpp:282] Memory required for data: 5238996488
I0619 10:28:23.130115 198800 layer_factory.hpp:114] Creating layer inception_5a/output_inception_5a/output_0_split
I0619 10:28:23.130187 198800 net.cpp:183] Creating Layer inception_5a/output_inception_5a/output_0_split
I0619 10:28:23.130233 198800 net.cpp:864] inception_5a/output_inception_5a/output_0_split <- inception_5a/output
I0619 10:28:23.130302 198800 net.cpp:838] inception_5a/output_inception_5a/output_0_split -> inception_5a/output_inception_5a/output_0_split_0
I0619 10:28:23.130389 198800 net.cpp:838] inception_5a/output_inception_5a/output_0_split -> inception_5a/output_inception_5a/output_0_split_1
I0619 10:28:23.130465 198800 net.cpp:838] inception_5a/output_inception_5a/output_0_split -> inception_5a/output_inception_5a/output_0_split_2
I0619 10:28:23.130559 198800 net.cpp:838] inception_5a/output_inception_5a/output_0_split -> inception_5a/output_inception_5a/output_0_split_3
I0619 10:28:23.130740 198800 net.cpp:267] Setting up inception_5a/output_inception_5a/output_0_split
I0619 10:28:23.130811 198800 net.cpp:274] Top shape: 96 832 7 7 (3913728)
I0619 10:28:23.130854 198800 net.cpp:274] Top shape: 96 832 7 7 (3913728)
I0619 10:28:23.130890 198800 net.cpp:274] Top shape: 96 832 7 7 (3913728)
I0619 10:28:23.130955 198800 net.cpp:274] Top shape: 96 832 7 7 (3913728)
I0619 10:28:23.130985 198800 net.cpp:282] Memory required for data: 5301616136
I0619 10:28:23.131024 198800 layer_factory.hpp:114] Creating layer inception_5b/1x1
I0619 10:28:23.131225 198800 net.cpp:183] Creating Layer inception_5b/1x1
I0619 10:28:23.131283 198800 net.cpp:864] inception_5b/1x1 <- inception_5a/output_inception_5a/output_0_split_0
I0619 10:28:23.131337 198800 net.cpp:838] inception_5b/1x1 -> inception_5b/1x1
I0619 10:28:23.155951 198800 net.cpp:267] Setting up inception_5b/1x1
I0619 10:28:23.156131 198800 net.cpp:274] Top shape: 96 384 7 7 (1806336)
I0619 10:28:23.156203 198800 net.cpp:282] Memory required for data: 5308841480
I0619 10:28:23.156292 198800 layer_factory.hpp:114] Creating layer inception_5b/relu_1x1
I0619 10:28:23.156406 198800 net.cpp:183] Creating Layer inception_5b/relu_1x1
I0619 10:28:23.156477 198800 net.cpp:864] inception_5b/relu_1x1 <- inception_5b/1x1
I0619 10:28:23.156559 198800 net.cpp:825] inception_5b/relu_1x1 -> inception_5b/1x1 (in-place)
I0619 10:28:23.156692 198800 net.cpp:267] Setting up inception_5b/relu_1x1
I0619 10:28:23.156764 198800 net.cpp:274] Top shape: 96 384 7 7 (1806336)
I0619 10:28:23.156807 198800 net.cpp:282] Memory required for data: 5316066824
I0619 10:28:23.156846 198800 layer_factory.hpp:114] Creating layer inception_5b/3x3_reduce
I0619 10:28:23.156986 198800 net.cpp:183] Creating Layer inception_5b/3x3_reduce
I0619 10:28:23.157133 198800 net.cpp:864] inception_5b/3x3_reduce <- inception_5a/output_inception_5a/output_0_split_1
I0619 10:28:23.157282 198800 net.cpp:838] inception_5b/3x3_reduce -> inception_5b/3x3_reduce
I0619 10:28:23.178134 198800 net.cpp:267] Setting up inception_5b/3x3_reduce
I0619 10:28:23.178285 198800 net.cpp:274] Top shape: 96 192 7 7 (903168)
I0619 10:28:23.178354 198800 net.cpp:282] Memory required for data: 5319679496
I0619 10:28:23.178445 198800 layer_factory.hpp:114] Creating layer inception_5b/relu_3x3_reduce
I0619 10:28:23.178560 198800 net.cpp:183] Creating Layer inception_5b/relu_3x3_reduce
I0619 10:28:23.178740 198800 net.cpp:864] inception_5b/relu_3x3_reduce <- inception_5b/3x3_reduce
I0619 10:28:23.178894 198800 net.cpp:825] inception_5b/relu_3x3_reduce -> inception_5b/3x3_reduce (in-place)
I0619 10:28:23.179121 198800 net.cpp:267] Setting up inception_5b/relu_3x3_reduce
I0619 10:28:23.179225 198800 net.cpp:274] Top shape: 96 192 7 7 (903168)
I0619 10:28:23.179313 198800 net.cpp:282] Memory required for data: 5323292168
I0619 10:28:23.179378 198800 layer_factory.hpp:114] Creating layer inception_5b/3x3
I0619 10:28:23.179582 198800 net.cpp:183] Creating Layer inception_5b/3x3
I0619 10:28:23.179677 198800 net.cpp:864] inception_5b/3x3 <- inception_5b/3x3_reduce
I0619 10:28:23.179751 198800 net.cpp:838] inception_5b/3x3 -> inception_5b/3x3
I0619 10:28:23.213182 198800 net.cpp:267] Setting up inception_5b/3x3
I0619 10:28:23.213356 198800 net.cpp:274] Top shape: 96 384 7 7 (1806336)
I0619 10:28:23.213426 198800 net.cpp:282] Memory required for data: 5330517512
I0619 10:28:23.213511 198800 layer_factory.hpp:114] Creating layer inception_5b/relu_3x3
I0619 10:28:23.213594 198800 net.cpp:183] Creating Layer inception_5b/relu_3x3
I0619 10:28:23.213661 198800 net.cpp:864] inception_5b/relu_3x3 <- inception_5b/3x3
I0619 10:28:23.213765 198800 net.cpp:825] inception_5b/relu_3x3 -> inception_5b/3x3 (in-place)
I0619 10:28:23.213964 198800 net.cpp:267] Setting up inception_5b/relu_3x3
I0619 10:28:23.214175 198800 net.cpp:274] Top shape: 96 384 7 7 (1806336)
I0619 10:28:23.214305 198800 net.cpp:282] Memory required for data: 5337742856
I0619 10:28:23.214386 198800 layer_factory.hpp:114] Creating layer inception_5b/5x5_reduce
I0619 10:28:23.214597 198800 net.cpp:183] Creating Layer inception_5b/5x5_reduce
I0619 10:28:23.214715 198800 net.cpp:864] inception_5b/5x5_reduce <- inception_5a/output_inception_5a/output_0_split_2
I0619 10:28:23.214835 198800 net.cpp:838] inception_5b/5x5_reduce -> inception_5b/5x5_reduce
I0619 10:28:23.229727 198800 net.cpp:267] Setting up inception_5b/5x5_reduce
I0619 10:28:23.229882 198800 net.cpp:274] Top shape: 96 48 7 7 (225792)
I0619 10:28:23.229945 198800 net.cpp:282] Memory required for data: 5338646024
I0619 10:28:23.230038 198800 layer_factory.hpp:114] Creating layer inception_5b/relu_5x5_reduce
I0619 10:28:23.230216 198800 net.cpp:183] Creating Layer inception_5b/relu_5x5_reduce
I0619 10:28:23.230320 198800 net.cpp:864] inception_5b/relu_5x5_reduce <- inception_5b/5x5_reduce
I0619 10:28:23.230442 198800 net.cpp:825] inception_5b/relu_5x5_reduce -> inception_5b/5x5_reduce (in-place)
I0619 10:28:23.230666 198800 net.cpp:267] Setting up inception_5b/relu_5x5_reduce
I0619 10:28:23.230811 198800 net.cpp:274] Top shape: 96 48 7 7 (225792)
I0619 10:28:23.230860 198800 net.cpp:282] Memory required for data: 5339549192
I0619 10:28:23.230903 198800 layer_factory.hpp:114] Creating layer inception_5b/5x5
I0619 10:28:23.231027 198800 net.cpp:183] Creating Layer inception_5b/5x5
I0619 10:28:23.231142 198800 net.cpp:864] inception_5b/5x5 <- inception_5b/5x5_reduce
I0619 10:28:23.231257 198800 net.cpp:838] inception_5b/5x5 -> inception_5b/5x5
I0619 10:28:23.253521 198800 net.cpp:267] Setting up inception_5b/5x5
I0619 10:28:23.253669 198800 net.cpp:274] Top shape: 96 128 7 7 (602112)
I0619 10:28:23.253733 198800 net.cpp:282] Memory required for data: 5341957640
I0619 10:28:23.253820 198800 layer_factory.hpp:114] Creating layer inception_5b/relu_5x5
I0619 10:28:23.253937 198800 net.cpp:183] Creating Layer inception_5b/relu_5x5
I0619 10:28:23.254009 198800 net.cpp:864] inception_5b/relu_5x5 <- inception_5b/5x5
I0619 10:28:23.254175 198800 net.cpp:825] inception_5b/relu_5x5 -> inception_5b/5x5 (in-place)
I0619 10:28:23.254338 198800 net.cpp:267] Setting up inception_5b/relu_5x5
I0619 10:28:23.254420 198800 net.cpp:274] Top shape: 96 128 7 7 (602112)
I0619 10:28:23.254454 198800 net.cpp:282] Memory required for data: 5344366088
I0619 10:28:23.254495 198800 layer_factory.hpp:114] Creating layer inception_5b/pool
I0619 10:28:23.254586 198800 net.cpp:183] Creating Layer inception_5b/pool
I0619 10:28:23.254777 198800 net.cpp:864] inception_5b/pool <- inception_5a/output_inception_5a/output_0_split_3
I0619 10:28:23.254895 198800 net.cpp:838] inception_5b/pool -> inception_5b/pool
I0619 10:28:23.255048 198800 net.cpp:267] Setting up inception_5b/pool
I0619 10:28:23.255167 198800 net.cpp:274] Top shape: 96 832 7 7 (3913728)
I0619 10:28:23.255214 198800 net.cpp:282] Memory required for data: 5360021000
I0619 10:28:23.255259 198800 layer_factory.hpp:114] Creating layer inception_5b/pool_proj
I0619 10:28:23.255388 198800 net.cpp:183] Creating Layer inception_5b/pool_proj
I0619 10:28:23.255441 198800 net.cpp:864] inception_5b/pool_proj <- inception_5b/pool
I0619 10:28:23.255515 198800 net.cpp:838] inception_5b/pool_proj -> inception_5b/pool_proj
I0619 10:28:23.274175 198800 net.cpp:267] Setting up inception_5b/pool_proj
I0619 10:28:23.274322 198800 net.cpp:274] Top shape: 96 128 7 7 (602112)
I0619 10:28:23.274389 198800 net.cpp:282] Memory required for data: 5362429448
I0619 10:28:23.274474 198800 layer_factory.hpp:114] Creating layer inception_5b/relu_pool_proj
I0619 10:28:23.274585 198800 net.cpp:183] Creating Layer inception_5b/relu_pool_proj
I0619 10:28:23.274655 198800 net.cpp:864] inception_5b/relu_pool_proj <- inception_5b/pool_proj
I0619 10:28:23.274734 198800 net.cpp:825] inception_5b/relu_pool_proj -> inception_5b/pool_proj (in-place)
I0619 10:28:23.274868 198800 net.cpp:267] Setting up inception_5b/relu_pool_proj
I0619 10:28:23.274962 198800 net.cpp:274] Top shape: 96 128 7 7 (602112)
I0619 10:28:23.275045 198800 net.cpp:282] Memory required for data: 5364837896
I0619 10:28:23.275146 198800 layer_factory.hpp:114] Creating layer inception_5b/output
I0619 10:28:23.275250 198800 net.cpp:183] Creating Layer inception_5b/output
I0619 10:28:23.275316 198800 net.cpp:864] inception_5b/output <- inception_5b/1x1
I0619 10:28:23.275363 198800 net.cpp:864] inception_5b/output <- inception_5b/3x3
I0619 10:28:23.275403 198800 net.cpp:864] inception_5b/output <- inception_5b/5x5
I0619 10:28:23.275437 198800 net.cpp:864] inception_5b/output <- inception_5b/pool_proj
I0619 10:28:23.275481 198800 net.cpp:838] inception_5b/output -> inception_5b/output
I0619 10:28:23.275681 198800 net.cpp:267] Setting up inception_5b/output
I0619 10:28:23.275770 198800 net.cpp:274] Top shape: 96 1024 7 7 (4816896)
I0619 10:28:23.275804 198800 net.cpp:282] Memory required for data: 5384105480
I0619 10:28:23.275847 198800 layer_factory.hpp:114] Creating layer pool5/7x7_s1
I0619 10:28:23.275938 198800 net.cpp:183] Creating Layer pool5/7x7_s1
I0619 10:28:23.276000 198800 net.cpp:864] pool5/7x7_s1 <- inception_5b/output
I0619 10:28:23.276134 198800 net.cpp:838] pool5/7x7_s1 -> pool5/7x7_s1
I0619 10:28:23.276279 198800 net.cpp:267] Setting up pool5/7x7_s1
I0619 10:28:23.276355 198800 net.cpp:274] Top shape: 96 1024 1 1 (98304)
I0619 10:28:23.276401 198800 net.cpp:282] Memory required for data: 5384498696
I0619 10:28:23.276442 198800 layer_factory.hpp:114] Creating layer pool5/drop_7x7_s1
I0619 10:28:23.276491 198800 net.cpp:183] Creating Layer pool5/drop_7x7_s1
I0619 10:28:23.276528 198800 net.cpp:864] pool5/drop_7x7_s1 <- pool5/7x7_s1
I0619 10:28:23.276649 198800 net.cpp:825] pool5/drop_7x7_s1 -> pool5/7x7_s1 (in-place)
I0619 10:28:23.276772 198800 net.cpp:267] Setting up pool5/drop_7x7_s1
I0619 10:28:23.276835 198800 net.cpp:274] Top shape: 96 1024 1 1 (98304)
I0619 10:28:23.276867 198800 net.cpp:282] Memory required for data: 5384891912
I0619 10:28:23.276932 198800 layer_factory.hpp:114] Creating layer loss3/classifier
I0619 10:28:23.277027 198800 net.cpp:183] Creating Layer loss3/classifier
I0619 10:28:23.277106 198800 net.cpp:864] loss3/classifier <- pool5/7x7_s1
I0619 10:28:23.277161 198800 net.cpp:838] loss3/classifier -> loss3/classifier
I0619 10:28:23.301051 198800 net.cpp:267] Setting up loss3/classifier
I0619 10:28:23.301225 198800 net.cpp:274] Top shape: 96 1000 (96000)
I0619 10:28:23.301264 198800 net.cpp:282] Memory required for data: 5385275912
I0619 10:28:23.301322 198800 layer_factory.hpp:114] Creating layer loss3/loss3
I0619 10:28:23.301496 198800 net.cpp:183] Creating Layer loss3/loss3
I0619 10:28:23.301550 198800 net.cpp:864] loss3/loss3 <- loss3/classifier
I0619 10:28:23.301597 198800 net.cpp:864] loss3/loss3 <- label_data_1_split_2
I0619 10:28:23.301647 198800 net.cpp:838] loss3/loss3 -> loss3/loss3
…
