…
I0613 14:50:02.827972 263225 net.cpp:138] Initializing net from parameters: 
I0613 14:50:02.828099 263225 net.cpp:139] 
name: "VGG_ILSVRC_16_layer"
state {
  phase: TRAIN
  level: 0
  stage: ""
}
engine: "MKL2017"
layer {
  name: "data"
  type: "Data"
  top: "data"
  top: "label"
  include {
    phase: TRAIN
  }
  transform_param {
    mirror: true
    crop_size: 224
    mean_value: 104
    mean_value: 117
    mean_value: 124
  }
  data_param {
    source: "/home/wenxizhu/wenxi/internal-intel-caffe/examples/imagenet/ilsvrc12_train_lmdb"
    batch_size: 64
    backend: LMDB
  }
}
layer {
  name: "conv1_1"
  type: "Convolution"
  bottom: "data"
  top: "conv1_1"
  convolution_param {
    num_output: 64
    pad: 1
    kernel_size: 3
    weight_filler {
      type: "xavier"
    }
    bias_filler {
      type: "constant"
      value: 0
    }
  }
}
layer {
  name: "relu1_1"
  type: "ReLU"
  bottom: "conv1_1"
  top: "conv1_1"
  relu_param {
  }
}
layer {
  name: "conv1_2"
  type: "Convolution"
  bottom: "conv1_1"
  top: "conv1_2"
  convolution_param {
    num_output: 64
    pad: 1
    kernel_size: 3
    weight_filler {
      type: "xavier"
    }
    bias_filler {
      type: "constant"
      value: 0
    }
  }
}
layer {
  name: "relu1_2"
  type: "ReLU"
  bottom: "conv1_2"
  top: "conv1_2"
  relu_param {
  }
}
layer {
  name: "pool1"
  type: "Pooling"
  bottom: "conv1_2"
  top: "pool1"
  pooling_param {
    pool: MAX
    kernel_size: 2
    stride: 2
  }
}
layer {
  name: "conv2_1"
  type: "Convolution"
  bottom: "pool1"
  top: "conv2_1"
  convolution_param {
    num_output: 128
    pad: 1
    kernel_size: 3
    weight_filler {
      type: "xavier"
    }
    bias_filler {
      type: "constant"
      value: 0
    }
  }
}
layer {
  name: "relu2_1"
  type: "ReLU"
  bottom: "conv2_1"
  top: "conv2_1"
  relu_param {
  }
}
layer {
  name: "conv2_2"
  type: "Convolution"
  bottom: "conv2_1"
  top: "conv2_2"
  convolution_param {
    num_output: 128
    pad: 1
    kernel_size: 3
    weight_filler {
      type: "xavier"
    }
    bias_filler {
      type: "constant"
      value: 0
    }
  }
}
layer {
  name: "relu2_2"
  type: "ReLU"
  bottom: "conv2_2"
  top: "conv2_2"
  relu_param {
  }
}
layer {
  name: "pool2"
  type: "Pooling"
  bottom: "conv2_2"
  top: "pool2"
  pooling_param {
    pool: MAX
    kernel_size: 2
    stride: 2
  }
}
layer {
  name: "conv3_1"
  type: "Convolution"
  bottom: "pool2"
  top: "conv3_1"
  convolution_param {
    num_output: 256
    pad: 1
    kernel_size: 3
    weight_filler {
      type: "xavier"
    }
    bias_filler {
      type: "constant"
      value: 0
    }
  }
}
layer {
  name: "relu3_1"
  type: "ReLU"
  bottom: "conv3_1"
  top: "conv3_1"
  relu_param {
  }
}
layer {
  name: "conv3_2"
  type: "Convolution"
  bottom: "conv3_1"
  top: "conv3_2"
  convolution_param {
    num_output: 256
    pad: 1
    kernel_size: 3
    weight_filler {
      type: "xavier"
    }
    bias_filler {
      type: "constant"
      value: 0
    }
  }
}
layer {
  name: "relu3_2"
  type: "ReLU"
  bottom: "conv3_2"
  top: "conv3_2"
  relu_param {
  }
}
layer {
  name: "conv3_3"
  type: "Convolution"
  bottom: "conv3_2"
  top: "conv3_3"
  convolution_param {
    num_output: 256
    pad: 1
    kernel_size: 3
    weight_filler {
      type: "xavier"
    }
    bias_filler {
      type: "constant"
      value: 0
    }
  }
}
layer {
  name: "relu3_3"
  type: "ReLU"
  bottom: "conv3_3"
  top: "conv3_3"
  relu_param {
  }
}
layer {
  name: "pool3"
  type: "Pooling"
  bottom: "conv3_3"
  top: "pool3"
  pooling_param {
    pool: MAX
    kernel_size: 2
    stride: 2
  }
}
layer {
  name: "conv4_1"
  type: "Convolution"
  bottom: "pool3"
  top: "conv4_1"
  convolution_param {
    num_output: 512
    pad: 1
    kernel_size: 3
    weight_filler {
      type: "xavier"
    }
    bias_filler {
      type: "constant"
      value: 0
    }
  }
}
layer {
  name: "relu4_1"
  type: "ReLU"
  bottom: "conv4_1"
  top: "conv4_1"
  relu_param {
  }
}
layer {
  name: "conv4_2"
  type: "Convolution"
  bottom: "conv4_1"
  top: "conv4_2"
  convolution_param {
    num_output: 512
    pad: 1
    kernel_size: 3
    weight_filler {
      type: "xavier"
    }
    bias_filler {
      type: "constant"
      value: 0
    }
  }
}
layer {
  name: "relu4_2"
  type: "ReLU"
  bottom: "conv4_2"
  top: "conv4_2"
  relu_param {
  }
}
layer {
  name: "conv4_3"
  type: "Convolution"
  bottom: "conv4_2"
  top: "conv4_3"
  convolution_param {
    num_output: 512
    pad: 1
    kernel_size: 3
    weight_filler {
      type: "xavier"
    }
    bias_filler {
      type: "constant"
      value: 0
    }
  }
}
layer {
  name: "relu4_3"
  type: "ReLU"
  bottom: "conv4_3"
  top: "conv4_3"
  relu_param {
  }
}
layer {
  name: "pool4"
  type: "Pooling"
  bottom: "conv4_3"
  top: "pool4"
  pooling_param {
    pool: MAX
    kernel_size: 2
    stride: 2
  }
}
layer {
  name: "conv5_1"
  type: "Convolution"
  bottom: "pool4"
  top: "conv5_1"
  convolution_param {
    num_output: 512
    pad: 1
    kernel_size: 3
    weight_filler {
      type: "xavier"
    }
    bias_filler {
      type: "constant"
      value: 0
    }
  }
}
layer {
  name: "relu5_1"
  type: "ReLU"
  bottom: "conv5_1"
  top: "conv5_1"
  relu_param {
  }
}
layer {
  name: "conv5_2"
  type: "Convolution"
  bottom: "conv5_1"
  top: "conv5_2"
  convolution_param {
    num_output: 512
    pad: 1
    kernel_size: 3
    weight_filler {
      type: "xavier"
    }
    bias_filler {
      type: "constant"
      value: 0
    }
  }
}
layer {
  name: "relu5_2"
  type: "ReLU"
  bottom: "conv5_2"
  top: "conv5_2"
  relu_param {
  }
}
layer {
  name: "conv5_3"
  type: "Convolution"
  bottom: "conv5_2"
  top: "conv5_3"
  convolution_param {
    num_output: 512
    pad: 1
    kernel_size: 3
    weight_filler {
      type: "xavier"
    }
    bias_filler {
      type: "constant"
      value: 0
    }
  }
}
layer {
  name: "relu5_3"
  type: "ReLU"
  bottom: "conv5_3"
  top: "conv5_3"
  relu_param {
  }
}
layer {
  name: "pool5"
  type: "Pooling"
  bottom: "conv5_3"
  top: "pool5"
  pooling_param {
    pool: MAX
    kernel_size: 2
    stride: 2
  }
}
layer {
  name: "fc6"
  type: "InnerProduct"
  bottom: "pool5"
  top: "fc6"
  inner_product_param {
    num_output: 4096
    weight_filler {
      type: "xavier"
    }
    bias_filler {
      type: "constant"
      value: 0.1
    }
  }
}
layer {
  name: "relu6"
  type: "ReLU"
  bottom: "fc6"
  top: "fc6"
  relu_param {
  }
}
layer {
  name: "drop6"
  type: "Dropout"
  bottom: "fc6"
  top: "fc6"
  dropout_param {
    dropout_ratio: 0.5
  }
}
layer {
  name: "fc7"
  type: "InnerProduct"
  bottom: "fc6"
  top: "fc7"
  inner_product_param {
    num_output: 4096
    weight_filler {
      type: "xavier"
    }
    bias_filler {
      type: "constant"
      value: 0.1
    }
  }
}
layer {
  name: "relu7"
  type: "ReLU"
  bottom: "fc7"
  top: "fc7"
  relu_param {
  }
}
layer {
  name: "drop7"
  type: "Dropout"
  bottom: "fc7"
  top: "fc7"
  dropout_param {
    dropout_ratio: 0.5
  }
}
layer {
  name: "fc8"
  type: "InnerProduct"
  bottom: "fc7"
  top: "fc8"
  inner_product_param {
    num_output: 1000
    weight_filler {
      type: "xavier"
    }
    bias_filler {
      type: "constant"
      value: 0.1
    }
  }
}
layer {
  name: "loss"
  type: "SoftmaxWithLoss"
  bottom: "fc8"
  bottom: "label"
  top: "loss/loss"
}
I0613 14:50:02.829941 263225 layer_factory.hpp:114] Creating layer data
I0613 14:50:02.832597 263225 net.cpp:183] Creating Layer data
I0613 14:50:02.832702 263225 net.cpp:838] data -> data
I0613 14:50:02.832815 263225 net.cpp:838] data -> label
I0613 14:50:02.839577 263227 db_lmdb.cpp:72] Opened lmdb /home/wenxizhu/wenxi/internal-intel-caffe/examples/imagenet/ilsvrc12_train_lmdb
I0613 14:50:02.845008 263225 data_layer.cpp:80] output data size: 64,3,224,224
I0613 14:50:02.908087 263225 net.cpp:267] Setting up data
I0613 14:50:02.908287 263225 net.cpp:274] Top shape: 64 3 224 224 (9633792)
I0613 14:50:02.908335 263225 net.cpp:274] Top shape: 64 (64)
I0613 14:50:02.908367 263225 net.cpp:282] Memory required for data: 38535424
I0613 14:50:02.908442 263225 layer_factory.hpp:114] Creating layer conv1_1
I0613 14:50:02.908581 263225 net.cpp:183] Creating Layer conv1_1
I0613 14:50:02.908627 263225 net.cpp:864] conv1_1 <- data
I0613 14:50:02.908684 263225 net.cpp:838] conv1_1 -> conv1_1
I0613 14:50:03.167409 263225 net.cpp:267] Setting up conv1_1
I0613 14:50:03.167537 263225 net.cpp:274] Top shape: 64 64 224 224 (205520896)
I0613 14:50:03.167569 263225 net.cpp:282] Memory required for data: 860619008
I0613 14:50:03.167664 263225 layer_factory.hpp:114] Creating layer relu1_1
I0613 14:50:03.167762 263225 net.cpp:183] Creating Layer relu1_1
I0613 14:50:03.167795 263225 net.cpp:864] relu1_1 <- conv1_1
I0613 14:50:03.167834 263225 net.cpp:825] relu1_1 -> conv1_1 (in-place)
I0613 14:50:03.167935 263225 net.cpp:267] Setting up relu1_1
I0613 14:50:03.167975 263225 net.cpp:274] Top shape: 64 64 224 224 (205520896)
I0613 14:50:03.168002 263225 net.cpp:282] Memory required for data: 1682702592
I0613 14:50:03.168032 263225 layer_factory.hpp:114] Creating layer conv1_2
I0613 14:50:03.168120 263225 net.cpp:183] Creating Layer conv1_2
I0613 14:50:03.168150 263225 net.cpp:864] conv1_2 <- conv1_1
I0613 14:50:03.168190 263225 net.cpp:838] conv1_2 -> conv1_2
I0613 14:50:03.194844 263225 net.cpp:267] Setting up conv1_2
I0613 14:50:03.194986 263225 net.cpp:274] Top shape: 64 64 224 224 (205520896)
I0613 14:50:03.195044 263225 net.cpp:282] Memory required for data: 2504786176
I0613 14:50:03.195130 263225 layer_factory.hpp:114] Creating layer relu1_2
I0613 14:50:03.195216 263225 net.cpp:183] Creating Layer relu1_2
I0613 14:50:03.195271 263225 net.cpp:864] relu1_2 <- conv1_2
I0613 14:50:03.195327 263225 net.cpp:825] relu1_2 -> conv1_2 (in-place)
I0613 14:50:03.195518 263225 net.cpp:267] Setting up relu1_2
I0613 14:50:03.195613 263225 net.cpp:274] Top shape: 64 64 224 224 (205520896)
I0613 14:50:03.195719 263225 net.cpp:282] Memory required for data: 3326869760
I0613 14:50:03.195783 263225 layer_factory.hpp:114] Creating layer pool1
I0613 14:50:03.195905 263225 net.cpp:183] Creating Layer pool1
I0613 14:50:03.195966 263225 net.cpp:864] pool1 <- conv1_2
I0613 14:50:03.196019 263225 net.cpp:838] pool1 -> pool1
I0613 14:50:03.196157 263225 net.cpp:267] Setting up pool1
I0613 14:50:03.196218 263225 net.cpp:274] Top shape: 64 64 112 112 (51380224)
I0613 14:50:03.196249 263225 net.cpp:282] Memory required for data: 3532390656
I0613 14:50:03.196287 263225 layer_factory.hpp:114] Creating layer conv2_1
I0613 14:50:03.196435 263225 net.cpp:183] Creating Layer conv2_1
I0613 14:50:03.196527 263225 net.cpp:864] conv2_1 <- pool1
I0613 14:50:03.196604 263225 net.cpp:838] conv2_1 -> conv2_1
I0613 14:50:03.224143 263225 net.cpp:267] Setting up conv2_1
I0613 14:50:03.224295 263225 net.cpp:274] Top shape: 64 128 112 112 (102760448)
I0613 14:50:03.224356 263225 net.cpp:282] Memory required for data: 3943432448
I0613 14:50:03.224517 263225 layer_factory.hpp:114] Creating layer relu2_1
I0613 14:50:03.224639 263225 net.cpp:183] Creating Layer relu2_1
I0613 14:50:03.224707 263225 net.cpp:864] relu2_1 <- conv2_1
I0613 14:50:03.224799 263225 net.cpp:825] relu2_1 -> conv2_1 (in-place)
I0613 14:50:03.224936 263225 net.cpp:267] Setting up relu2_1
I0613 14:50:03.225008 263225 net.cpp:274] Top shape: 64 128 112 112 (102760448)
I0613 14:50:03.225052 263225 net.cpp:282] Memory required for data: 4354474240
I0613 14:50:03.225229 263225 layer_factory.hpp:114] Creating layer conv2_2
I0613 14:50:03.225446 263225 net.cpp:183] Creating Layer conv2_2
I0613 14:50:03.225528 263225 net.cpp:864] conv2_2 <- conv2_1
I0613 14:50:03.225613 263225 net.cpp:838] conv2_2 -> conv2_2
I0613 14:50:03.248131 263225 net.cpp:267] Setting up conv2_2
I0613 14:50:03.248281 263225 net.cpp:274] Top shape: 64 128 112 112 (102760448)
I0613 14:50:03.248338 263225 net.cpp:282] Memory required for data: 4765516032
I0613 14:50:03.248448 263225 layer_factory.hpp:114] Creating layer relu2_2
I0613 14:50:03.248574 263225 net.cpp:183] Creating Layer relu2_2
I0613 14:50:03.248641 263225 net.cpp:864] relu2_2 <- conv2_2
I0613 14:50:03.248690 263225 net.cpp:825] relu2_2 -> conv2_2 (in-place)
I0613 14:50:03.248800 263225 net.cpp:267] Setting up relu2_2
I0613 14:50:03.248860 263225 net.cpp:274] Top shape: 64 128 112 112 (102760448)
I0613 14:50:03.248891 263225 net.cpp:282] Memory required for data: 5176557824
I0613 14:50:03.248927 263225 layer_factory.hpp:114] Creating layer pool2
I0613 14:50:03.249014 263225 net.cpp:183] Creating Layer pool2
I0613 14:50:03.249065 263225 net.cpp:864] pool2 <- conv2_2
I0613 14:50:03.249121 263225 net.cpp:838] pool2 -> pool2
I0613 14:50:03.249240 263225 net.cpp:267] Setting up pool2
I0613 14:50:03.249297 263225 net.cpp:274] Top shape: 64 128 56 56 (25690112)
I0613 14:50:03.249325 263225 net.cpp:282] Memory required for data: 5279318272
I0613 14:50:03.249357 263225 layer_factory.hpp:114] Creating layer conv3_1
I0613 14:50:03.249492 263225 net.cpp:183] Creating Layer conv3_1
I0613 14:50:03.249541 263225 net.cpp:864] conv3_1 <- pool2
I0613 14:50:03.249617 263225 net.cpp:838] conv3_1 -> conv3_1
I0613 14:50:03.272641 263225 net.cpp:267] Setting up conv3_1
I0613 14:50:03.272788 263225 net.cpp:274] Top shape: 64 256 56 56 (51380224)
I0613 14:50:03.272840 263225 net.cpp:282] Memory required for data: 5484839168
I0613 14:50:03.272949 263225 layer_factory.hpp:114] Creating layer relu3_1
I0613 14:50:03.273037 263225 net.cpp:183] Creating Layer relu3_1
I0613 14:50:03.273089 263225 net.cpp:864] relu3_1 <- conv3_1
I0613 14:50:03.273154 263225 net.cpp:825] relu3_1 -> conv3_1 (in-place)
I0613 14:50:03.273252 263225 net.cpp:267] Setting up relu3_1
I0613 14:50:03.273306 263225 net.cpp:274] Top shape: 64 256 56 56 (51380224)
I0613 14:50:03.273335 263225 net.cpp:282] Memory required for data: 5690360064
I0613 14:50:03.273370 263225 layer_factory.hpp:114] Creating layer conv3_2
I0613 14:50:03.273555 263225 net.cpp:183] Creating Layer conv3_2
I0613 14:50:03.273635 263225 net.cpp:864] conv3_2 <- conv3_1
I0613 14:50:03.273742 263225 net.cpp:838] conv3_2 -> conv3_2
I0613 14:50:03.305085 263225 net.cpp:267] Setting up conv3_2
I0613 14:50:03.305235 263225 net.cpp:274] Top shape: 64 256 56 56 (51380224)
I0613 14:50:03.305296 263225 net.cpp:282] Memory required for data: 5895880960
I0613 14:50:03.305369 263225 layer_factory.hpp:114] Creating layer relu3_2
I0613 14:50:03.305549 263225 net.cpp:183] Creating Layer relu3_2
I0613 14:50:03.305634 263225 net.cpp:864] relu3_2 <- conv3_2
I0613 14:50:03.305711 263225 net.cpp:825] relu3_2 -> conv3_2 (in-place)
I0613 14:50:03.305867 263225 net.cpp:267] Setting up relu3_2
I0613 14:50:03.305958 263225 net.cpp:274] Top shape: 64 256 56 56 (51380224)
I0613 14:50:03.306006 263225 net.cpp:282] Memory required for data: 6101401856
I0613 14:50:03.306059 263225 layer_factory.hpp:114] Creating layer conv3_3
I0613 14:50:03.306246 263225 net.cpp:183] Creating Layer conv3_3
I0613 14:50:03.306324 263225 net.cpp:864] conv3_3 <- conv3_2
I0613 14:50:03.306457 263225 net.cpp:838] conv3_3 -> conv3_3
I0613 14:50:03.336997 263225 net.cpp:267] Setting up conv3_3
I0613 14:50:03.337148 263225 net.cpp:274] Top shape: 64 256 56 56 (51380224)
I0613 14:50:03.337205 263225 net.cpp:282] Memory required for data: 6306922752
I0613 14:50:03.337277 263225 layer_factory.hpp:114] Creating layer relu3_3
I0613 14:50:03.337419 263225 net.cpp:183] Creating Layer relu3_3
I0613 14:50:03.337510 263225 net.cpp:864] relu3_3 <- conv3_3
I0613 14:50:03.337618 263225 net.cpp:825] relu3_3 -> conv3_3 (in-place)
I0613 14:50:03.337913 263225 net.cpp:267] Setting up relu3_3
I0613 14:50:03.338019 263225 net.cpp:274] Top shape: 64 256 56 56 (51380224)
I0613 14:50:03.338068 263225 net.cpp:282] Memory required for data: 6512443648
I0613 14:50:03.338126 263225 layer_factory.hpp:114] Creating layer pool3
I0613 14:50:03.338243 263225 net.cpp:183] Creating Layer pool3
I0613 14:50:03.338309 263225 net.cpp:864] pool3 <- conv3_3
I0613 14:50:03.338407 263225 net.cpp:838] pool3 -> pool3
I0613 14:50:03.338584 263225 net.cpp:267] Setting up pool3
I0613 14:50:03.338680 263225 net.cpp:274] Top shape: 64 256 28 28 (12845056)
I0613 14:50:03.338734 263225 net.cpp:282] Memory required for data: 6563823872
I0613 14:50:03.338788 263225 layer_factory.hpp:114] Creating layer conv4_1
I0613 14:50:03.338943 263225 net.cpp:183] Creating Layer conv4_1
I0613 14:50:03.339005 263225 net.cpp:864] conv4_1 <- pool3
I0613 14:50:03.339062 263225 net.cpp:838] conv4_1 -> conv4_1
I0613 14:50:03.378841 263225 net.cpp:267] Setting up conv4_1
I0613 14:50:03.379010 263225 net.cpp:274] Top shape: 64 512 28 28 (25690112)
I0613 14:50:03.379070 263225 net.cpp:282] Memory required for data: 6666584320
I0613 14:50:03.379142 263225 layer_factory.hpp:114] Creating layer relu4_1
I0613 14:50:03.379220 263225 net.cpp:183] Creating Layer relu4_1
I0613 14:50:03.379271 263225 net.cpp:864] relu4_1 <- conv4_1
I0613 14:50:03.379344 263225 net.cpp:825] relu4_1 -> conv4_1 (in-place)
I0613 14:50:03.379513 263225 net.cpp:267] Setting up relu4_1
I0613 14:50:03.379612 263225 net.cpp:274] Top shape: 64 512 28 28 (25690112)
I0613 14:50:03.379660 263225 net.cpp:282] Memory required for data: 6769344768
I0613 14:50:03.379716 263225 layer_factory.hpp:114] Creating layer conv4_2
I0613 14:50:03.379879 263225 net.cpp:183] Creating Layer conv4_2
I0613 14:50:03.379951 263225 net.cpp:864] conv4_2 <- conv4_1
I0613 14:50:03.380046 263225 net.cpp:838] conv4_2 -> conv4_2
I0613 14:50:03.454313 263225 net.cpp:267] Setting up conv4_2
I0613 14:50:03.454509 263225 net.cpp:274] Top shape: 64 512 28 28 (25690112)
I0613 14:50:03.454607 263225 net.cpp:282] Memory required for data: 6872105216
I0613 14:50:03.454716 263225 layer_factory.hpp:114] Creating layer relu4_2
I0613 14:50:03.454835 263225 net.cpp:183] Creating Layer relu4_2
I0613 14:50:03.454900 263225 net.cpp:864] relu4_2 <- conv4_2
I0613 14:50:03.454987 263225 net.cpp:825] relu4_2 -> conv4_2 (in-place)
I0613 14:50:03.455102 263225 net.cpp:267] Setting up relu4_2
I0613 14:50:03.455169 263225 net.cpp:274] Top shape: 64 512 28 28 (25690112)
I0613 14:50:03.455209 263225 net.cpp:282] Memory required for data: 6974865664
I0613 14:50:03.455248 263225 layer_factory.hpp:114] Creating layer conv4_3
I0613 14:50:03.455366 263225 net.cpp:183] Creating Layer conv4_3
I0613 14:50:03.455473 263225 net.cpp:864] conv4_3 <- conv4_2
I0613 14:50:03.455566 263225 net.cpp:838] conv4_3 -> conv4_3
I0613 14:50:03.527568 263225 net.cpp:267] Setting up conv4_3
I0613 14:50:03.527719 263225 net.cpp:274] Top shape: 64 512 28 28 (25690112)
I0613 14:50:03.527812 263225 net.cpp:282] Memory required for data: 7077626112
I0613 14:50:03.527905 263225 layer_factory.hpp:114] Creating layer relu4_3
I0613 14:50:03.528025 263225 net.cpp:183] Creating Layer relu4_3
I0613 14:50:03.528090 263225 net.cpp:864] relu4_3 <- conv4_3
I0613 14:50:03.528178 263225 net.cpp:825] relu4_3 -> conv4_3 (in-place)
I0613 14:50:03.528301 263225 net.cpp:267] Setting up relu4_3
I0613 14:50:03.528370 263225 net.cpp:274] Top shape: 64 512 28 28 (25690112)
I0613 14:50:03.528455 263225 net.cpp:282] Memory required for data: 7180386560
I0613 14:50:03.528506 263225 layer_factory.hpp:114] Creating layer pool4
I0613 14:50:03.528614 263225 net.cpp:183] Creating Layer pool4
I0613 14:50:03.528682 263225 net.cpp:864] pool4 <- conv4_3
I0613 14:50:03.528754 263225 net.cpp:838] pool4 -> pool4
I0613 14:50:03.528908 263225 net.cpp:267] Setting up pool4
I0613 14:50:03.528981 263225 net.cpp:274] Top shape: 64 512 14 14 (6422528)
I0613 14:50:03.529016 263225 net.cpp:282] Memory required for data: 7206076672
I0613 14:50:03.529176 263225 layer_factory.hpp:114] Creating layer conv5_1
I0613 14:50:03.529355 263225 net.cpp:183] Creating Layer conv5_1
I0613 14:50:03.529461 263225 net.cpp:864] conv5_1 <- pool4
I0613 14:50:03.529551 263225 net.cpp:838] conv5_1 -> conv5_1
I0613 14:50:03.602041 263225 net.cpp:267] Setting up conv5_1
I0613 14:50:03.602195 263225 net.cpp:274] Top shape: 64 512 14 14 (6422528)
I0613 14:50:03.602282 263225 net.cpp:282] Memory required for data: 7231766784
I0613 14:50:03.602370 263225 layer_factory.hpp:114] Creating layer relu5_1
I0613 14:50:03.602542 263225 net.cpp:183] Creating Layer relu5_1
I0613 14:50:03.602624 263225 net.cpp:864] relu5_1 <- conv5_1
I0613 14:50:03.602722 263225 net.cpp:825] relu5_1 -> conv5_1 (in-place)
I0613 14:50:03.602866 263225 net.cpp:267] Setting up relu5_1
I0613 14:50:03.602946 263225 net.cpp:274] Top shape: 64 512 14 14 (6422528)
I0613 14:50:03.602979 263225 net.cpp:282] Memory required for data: 7257456896
I0613 14:50:03.603020 263225 layer_factory.hpp:114] Creating layer conv5_2
I0613 14:50:03.603140 263225 net.cpp:183] Creating Layer conv5_2
I0613 14:50:03.603188 263225 net.cpp:864] conv5_2 <- conv5_1
I0613 14:50:03.603266 263225 net.cpp:838] conv5_2 -> conv5_2
I0613 14:50:03.674023 263225 net.cpp:267] Setting up conv5_2
I0613 14:50:03.674175 263225 net.cpp:274] Top shape: 64 512 14 14 (6422528)
I0613 14:50:03.674265 263225 net.cpp:282] Memory required for data: 7283147008
I0613 14:50:03.674361 263225 layer_factory.hpp:114] Creating layer relu5_2
I0613 14:50:03.674505 263225 net.cpp:183] Creating Layer relu5_2
I0613 14:50:03.674571 263225 net.cpp:864] relu5_2 <- conv5_2
I0613 14:50:03.674664 263225 net.cpp:825] relu5_2 -> conv5_2 (in-place)
I0613 14:50:03.674801 263225 net.cpp:267] Setting up relu5_2
I0613 14:50:03.674870 263225 net.cpp:274] Top shape: 64 512 14 14 (6422528)
I0613 14:50:03.674906 263225 net.cpp:282] Memory required for data: 7308837120
I0613 14:50:03.674949 263225 layer_factory.hpp:114] Creating layer conv5_3
I0613 14:50:03.675072 263225 net.cpp:183] Creating Layer conv5_3
I0613 14:50:03.675122 263225 net.cpp:864] conv5_3 <- conv5_2
I0613 14:50:03.675194 263225 net.cpp:838] conv5_3 -> conv5_3
I0613 14:50:03.747371 263225 net.cpp:267] Setting up conv5_3
I0613 14:50:03.747558 263225 net.cpp:274] Top shape: 64 512 14 14 (6422528)
I0613 14:50:03.747653 263225 net.cpp:282] Memory required for data: 7334527232
I0613 14:50:03.747742 263225 layer_factory.hpp:114] Creating layer relu5_3
I0613 14:50:03.747860 263225 net.cpp:183] Creating Layer relu5_3
I0613 14:50:03.747922 263225 net.cpp:864] relu5_3 <- conv5_3
I0613 14:50:03.747990 263225 net.cpp:825] relu5_3 -> conv5_3 (in-place)
I0613 14:50:03.748105 263225 net.cpp:267] Setting up relu5_3
I0613 14:50:03.748167 263225 net.cpp:274] Top shape: 64 512 14 14 (6422528)
I0613 14:50:03.748208 263225 net.cpp:282] Memory required for data: 7360217344
I0613 14:50:03.748250 263225 layer_factory.hpp:114] Creating layer pool5
I0613 14:50:03.748343 263225 net.cpp:183] Creating Layer pool5
I0613 14:50:03.748432 263225 net.cpp:864] pool5 <- conv5_3
I0613 14:50:03.748498 263225 net.cpp:838] pool5 -> pool5
I0613 14:50:03.748631 263225 net.cpp:267] Setting up pool5
I0613 14:50:03.748695 263225 net.cpp:274] Top shape: 64 512 7 7 (1605632)
I0613 14:50:03.748731 263225 net.cpp:282] Memory required for data: 7366639872
I0613 14:50:03.748773 263225 layer_factory.hpp:114] Creating layer fc6
I0613 14:50:03.748891 263225 net.cpp:183] Creating Layer fc6
I0613 14:50:03.748939 263225 net.cpp:864] fc6 <- pool5
I0613 14:50:03.748993 263225 net.cpp:838] fc6 -> fc6
I0613 14:50:05.918483 263225 net.cpp:267] Setting up fc6
I0613 14:50:05.918651 263225 net.cpp:274] Top shape: 64 4096 (262144)
I0613 14:50:05.918728 263225 net.cpp:282] Memory required for data: 7367688448
I0613 14:50:05.918799 263225 layer_factory.hpp:114] Creating layer relu6
I0613 14:50:05.918906 263225 net.cpp:183] Creating Layer relu6
I0613 14:50:05.918951 263225 net.cpp:864] relu6 <- fc6
I0613 14:50:05.919001 263225 net.cpp:825] relu6 -> fc6 (in-place)
I0613 14:50:05.919124 263225 net.cpp:267] Setting up relu6
I0613 14:50:05.919301 263225 net.cpp:274] Top shape: 64 4096 (262144)
I0613 14:50:05.919348 263225 net.cpp:282] Memory required for data: 7368737024
I0613 14:50:05.919422 263225 layer_factory.hpp:114] Creating layer drop6
I0613 14:50:05.919528 263225 net.cpp:183] Creating Layer drop6
I0613 14:50:05.919574 263225 net.cpp:864] drop6 <- fc6
I0613 14:50:05.919620 263225 net.cpp:825] drop6 -> fc6 (in-place)
I0613 14:50:05.919699 263225 net.cpp:267] Setting up drop6
I0613 14:50:05.919751 263225 net.cpp:274] Top shape: 64 4096 (262144)
I0613 14:50:05.919780 263225 net.cpp:282] Memory required for data: 7369785600
I0613 14:50:05.919813 263225 layer_factory.hpp:114] Creating layer fc7
I0613 14:50:05.919876 263225 net.cpp:183] Creating Layer fc7
I0613 14:50:05.919909 263225 net.cpp:864] fc7 <- fc6
I0613 14:50:05.919951 263225 net.cpp:838] fc7 -> fc7
I0613 14:50:06.276028 263225 net.cpp:267] Setting up fc7
I0613 14:50:06.276166 263225 net.cpp:274] Top shape: 64 4096 (262144)
I0613 14:50:06.276234 263225 net.cpp:282] Memory required for data: 7370834176
I0613 14:50:06.276300 263225 layer_factory.hpp:114] Creating layer relu7
I0613 14:50:06.276413 263225 net.cpp:183] Creating Layer relu7
I0613 14:50:06.276461 263225 net.cpp:864] relu7 <- fc7
I0613 14:50:06.276510 263225 net.cpp:825] relu7 -> fc7 (in-place)
I0613 14:50:06.276617 263225 net.cpp:267] Setting up relu7
I0613 14:50:06.276676 263225 net.cpp:274] Top shape: 64 4096 (262144)
I0613 14:50:06.276705 263225 net.cpp:282] Memory required for data: 7371882752
I0613 14:50:06.276738 263225 layer_factory.hpp:114] Creating layer drop7
I0613 14:50:06.276787 263225 net.cpp:183] Creating Layer drop7
I0613 14:50:06.276818 263225 net.cpp:864] drop7 <- fc7
I0613 14:50:06.276860 263225 net.cpp:825] drop7 -> fc7 (in-place)
I0613 14:50:06.276911 263225 net.cpp:267] Setting up drop7
I0613 14:50:06.276948 263225 net.cpp:274] Top shape: 64 4096 (262144)
I0613 14:50:06.276975 263225 net.cpp:282] Memory required for data: 7372931328
I0613 14:50:06.277005 263225 layer_factory.hpp:114] Creating layer fc8
I0613 14:50:06.277081 263225 net.cpp:183] Creating Layer fc8
I0613 14:50:06.277113 263225 net.cpp:864] fc8 <- fc7
I0613 14:50:06.277155 263225 net.cpp:838] fc8 -> fc8
I0613 14:50:06.364986 263225 net.cpp:267] Setting up fc8
I0613 14:50:06.365119 263225 net.cpp:274] Top shape: 64 1000 (64000)
I0613 14:50:06.365181 263225 net.cpp:282] Memory required for data: 7373187328
I0613 14:50:06.365245 263225 layer_factory.hpp:114] Creating layer loss
I0613 14:50:06.365319 263225 net.cpp:183] Creating Layer loss
I0613 14:50:06.365355 263225 net.cpp:864] loss <- fc8
I0613 14:50:06.365449 263225 net.cpp:864] loss <- label
I0613 14:50:06.365509 263225 net.cpp:838] loss -> loss/loss
I0613 14:50:06.365599 263225 layer_factory.hpp:114] Creating layer loss
…
